models/model_9797.pth (torch, 476975 bytes, 6 tensors)

weight f4 [128, 784]
00000000: 8e9a e13c 00eb bcbc f834 ce3b 7076 33bb
00000010: 4e2c e53c 9c75 03bd 009d e0b9 f8a5 e6bc
00000020: 8056 2e3c 44fc 5d3c f282 d83c 6a45 a13c
00000030: f320 dabc 6c3f 053d c22c 0ebb 2eb3 abbc
00000040: 4afa 86bc a0fe ff3b 30cf 743c 0e4f 03bc
00000050: 3e60 86bc 4ab8 11bd bef1 ebbc 3362 82bc
00000060: a855 b7bc 90df a43b 5123 febc c0b8 493a
00000070: d644 b93c 4276 fa3c 30ab 6c3b 80f8 0fbc
00000080: 10f4 043b c8fe dd3b 2677 de3c 8b67 78bb
00000090: 2b78 4bbc 30db 67bc ff74 80bc 12e4 2dbc
000000a0: 2f28 76bb cd94 a03d b11e 9036 4cb3 4b3d
000000b0: 38ed cdbb 8fc9 033c b29e d03c 2ea8 17bd
000000c0: 6e1c 16bd 36a3 7bbd 573e aa3c 5784 85bc
000000d0: 7ab3 dabc c69d a83c 60e6 c9bc 3ccc 76bc
000000e0: 90d1 dbbc aa8f 47bc b1c4 083d 9e99 4f3e
000000f0: 9ea1 803e e04a a93c b1a4 ea3c 9d47 413d
00000100: 855f 74bd 1866 d03d 96cf d13d cd13 bb3d
00000110: 19dd 2a3e 33c9 913e f6f0 603e aa53 2d3e
00000120: b6e0 f93c 5edf 813d 7966 15be 1da8 65be
00000130: 3297 84be 2d4a 6abe a658 20be 3a27 c1bd
00000140: 87dd c1bc e33b dcbc 7e9c 9f3c 1e72 a9bc
00000150: 18cf 943c 9491 c7bb f531 803b 4c57 1f3e
00000160: 6a79 2d3e 88ed 1ebe a890 34be 1d45 7bbe
00000170: 0023 6e3b 053d f43d e61f e53e 44bd 833e
00000180: cd49 183e bd30 a33d 0974 963e fa5e 8b3e
00000190: 278a c13e 8d88 6d3e 9e9a 1e3d 8b84 65be
000001a0: 36cb 4fbe 4821 51be 61a1 0dbe 40ee cfbd
000001b0: 9689 f3bd 8182 2cbd 5a02 6cbe a68f bc3c
000001c0: ea26 25bc 008d d6bc 3edb cbbc 4a68 abbd
000001d0: 1b31 34bd 85e0 87be d256 bcbd bae5 a03d
000001e0: 579a ae3b dcc1 e63d 1a97 a7bd a835 5bbe
000001f0: 9239 4fbe efca 37bd f260 e53d ca99 0c3e
00000200: f548 1b3e 0058 0fbd 6903 a8be 2265 27bf
00000210: fcce 1cbf 96b3 8ebe dc1c 5c3d f3d8 32be
00000220: ce2e dcbe fceb 87be 5b96 aebd f7df 323e
00000230: 9c1f 48bc 75b1 e8bc f92e 1fbd a4de cfbb
00000240: 128c dcbd ccc2 bebe bf31 61be 0cf5 373d
00000250: 7bb9 1dbe 1d05 65be c625 9dbd 8c84 c7bc
00000260: a93e 83be cd90 5fbd f986 a7bd e85f a53d
00000270: 9004 153e 05ad 403e d37b f4bc 8e3f 38be
00000280: a4fb abbe c432 e2bd a98e 89bc 06f6 dfbd
00000290: adf2 5bbe d3d9 79be 23b3 8fbd 7ca5 9f3d
000002a0: 1849 8bbb 891c 0c3d 1d7a 523e 0f25 263d
000002b0: 4921 9ebd 0ef4 86be e253 a4bd 136f 47bc
000002c0: 61dc 30be 128f f8bd 645d 24be f2c8 0ebe
000002d0: 2cd7 b0bd 116d 333d 9645 253e 60f5 283e
000002e0: 1b94 2a3e 9110 ae3e ff72 4e3e 6644 433e
000002f0: 0607 ad3d 9e4a c23e 039b a33e 6d07 e53c
00000300: 102e 8d3e 31af 0fbe 687a c8bd b35f 8fbb
00000310: 0b2e 5a3c 0ce0 53bd 817d 3a3e 2073 373d
00000320: b646 03be ef05 bfbe 2057 77be e327 cdba
00000330: 3925 7bbe 2d03 11be 4a09 eebd 2ed3 a03d
00000340: 345e 833d 7671 763e 1a44 bd3d f7a8 97bc
00000350: d160 50be beb4 923e 5132 093f 052f 653e
00000360: 1df2 563e 75ca 983e c5be 9f3c 0527 f13b
00000370: 73bc 0b3e d01d 06be 7ef7 05be 0398 953d
00000380: 5ae4 f23d 60f2 8d3c 31bd 4a3e 28d2 673e
00000390: 5423 0fbe ec42 a0be 0f20 c2be e6d8 d7bd
000003a0: 56af 15be 73fe 1cbe f804 9dbd 14be 15bc
000003b0: ad82 ee3d bde2 8a3d 30fa 5a3e 3916 8abe
000003c0: 4e36 3b3e 0fb5 be3e 135a e23e 0784 d43d
000003d0: 9bdd c43d 67bc 273d 11b9 abbd 8fb7 ee3d
000003e0: 8d16 683e 6703 65be 58a7 6dbb 582d 16bb
000003f0: 347b 17bc 8e6c 53bc bdb8 0b3e a459 073e
0.027539518 -0.023061275 0.0062929355 -0.0027383827 0.027975228 -0.032094583 -0.00042841583 -0.028155312
0.01064074 0.013548914 0.026429627 0.01968642 -0.02662704 0.032531187 -0.0021694158 -0.020959463
-0.016476769 0.007812336 0.0149419755 -0.008014454 -0.016403314 -0.035576142 -0.028801795 -0.015915966
-0.022379711 0.0050315335 -0.0310227 0.00076950714 0.022615831 0.030573968 0.0036112778 -0.008787274
0.0020287074 0.006774757 0.027156424 -0.0037903513 -0.012418787 -0.0141513795 -0.015680788 -0.010613458
-0.0037560572 0.078408815 4.2951074e-06 0.049731538 -0.006284382 0.008043661 0.025466297 -0.037025623
-0.036648206 -0.061434947 0.02078168 -0.016298456 -0.02669691 0.020583045 -0.024645984 -0.015063342
-0.026833326 -0.012180248 0.033390705 0.20273444 0.25123304 0.020665586 0.028642984 0.047187436
-0.059661407 0.10175723 0.10244672 0.09134636 0.16685905 0.28473815 0.2196692 0.16926447
0.030502658 0.06341432 -0.14589871 -0.22427411 -0.25896603 -0.22879858 -0.15658817 -0.0943131
-0.023665203 -0.026884025 0.019483801 -0.020684298 0.018165156 -0.0060903523 0.0039122053 0.15560645
0.16940847 -0.15520298 -0.17633307 -0.24538083 0.003633678 0.11925701 0.447509 0.25730336
0.14871903 0.079682805 0.29385403 0.272209 0.37800714 0.23196621 0.038721673 -0.22413842
-0.20292363 -0.20422852 -0.13831092 -0.101528645 -0.11891477 -0.042116646 -0.23047772 0.023017716
-0.010080079 -0.02619028 -0.024884816 -0.08369501 -0.043992143 -0.26538482 -0.09196247 0.07856317
0.0053284573 0.112674445 -0.08183117 -0.21407187 -0.20236805 -0.044871267 0.112001315 0.13730541
0.1516455 -0.034996033 -0.32815102 -0.6538869 -0.61253333 -0.27871388 0.05373846 -0.17465572
-0.4300446 -0.2654723 -0.08524772 0.17468248 -0.0122145675 -0.02840493 -0.038863156 -0.0063436795
-0.10768904 -0.37257993 -0.21991633 0.04491143 -0.15402786 -0.22365232 -0.0767322 -0.024355195
-0.25633743 -0.054581452 -0.08180041 0.08074933 0.14552522 0.18816002 -0.0298442 -0.17992994
-0.33590424 -0.11044839 -0.016791658 -0.10935597 -0.21479292 -0.243995 -0.070165895 0.077952355
-0.004250657 0.0342069 0.20554395 0.040562686 -0.077211924 -0.26358074 -0.08023812 -0.012172478
-0.17271568 -0.121366635 -0.1605125 -0.13943842 -0.08634791 0.043805186 0.16139826 0.16499853
0.1665806 0.33997014 0.20161055 0.1906906 0.08448605 0.37947553 0.31954202 0.027957642
0.27574205 -0.14031674 -0.09788972 -0.004375422 0.013316642 -0.05172734 0.18211938 0.044787526
-0.12819943 -0.37309214 -0.2415433 -0.0015652146 -0.24525918 -0.14161368 -0.116228655 0.07852779
0.06414452 0.2406672 0.09241505 -0.018513186 -0.20349433 0.2865352 0.535924 0.22381218
0.20990796 0.29841962 0.019500146 0.007359388 0.13646106 -0.1309731 -0.13082692 0.073043846
0.11859961 0.017327487 0.19798733 0.22638762 -0.1397832 -0.31301057 -0.37915084 -0.10539417
-0.14617667 -0.1533144 -0.07666963 -0.009139556 0.11646018 0.06781528 0.21384501 -0.2697008
0.18282434 0.37247512 0.44209346 0.10376745 0.096125804 0.04095116 -0.08384908 0.11656105
0.22664852 -0.22364579 -0.0036263075 -0.002291521 -0.0092456825 -0.012904299 0.13644691 0.13217789

bias f4 [128]
00000000: a3fc 9abc 719d 33bd bcc5 973d 6739 a73b
00000010: d1e3 a2be f8ab 223e 9616 bfbc 0051 b2bc
00000020: 3c27 403e 2cc8 1b3d c662 02bf aa32 393e
00000030: 6720 1c3b d564 9dbe 9f94 86bc 0d42 a73e
00000040: 31ce a1be 0b3e 4abe 3da9 36be 0f63 e43d
00000050: 9797 e5bd 9bb9 63bc 4834 083a fe6d 563d
00000060: c471 9cbe dba2 0b3e 9453 3cbe e6fc 50bd
00000070: a0fc 32be cfc4 9abe eb18 4cbd db64 86bd
00000080: fb57 92be d8bd 313d dbff ea3c 862b 1cbe
00000090: 9661 c2be fee4 993e 4a8c ddbd 7d95 743e
000000a0: a822 63be 1b92 a7be d5c4 e1bd 588e 243e
000000b0: ce89 a5bd 7480 aabe b039 43be d1a4 92be
000000c0: ee52 683e a7d7 b5be 6a58 25be de72 913c
000000d0: b700 43be cca7 2abe e0a3 593e 3dd6 e4bd
000000e0: 275f 503c e742 f3bd af08 ef3e aabc 9f3e
000000f0: cc2a 22bd eeb1 d2bd 847d 2a3e b8c6 edbc
00000100: 20e4 bcbe f869 10be bbd2 6dbe dbdb 9bbe
00000110: fede b23e 2725 35be 76a5 24bc 0984 d1be
00000120: 7da7 55bd 2568 9c3e a4be ddbe 0005 4a3e
00000130: d267 c03c ed73 363c 3b4c 66be 820a 83bd
00000140: ee6e fcbd a335 fabc c7fe cebd cb53 2a3d
00000150: 6789 003e 77a1 81be 8871 95be a281 c73d
00000160: 3c29 743d c753 83bd 100c ba3c 3967 81bd
00000170: 0bdd ccbd 8859 973e 5ecc 6cbc 0889 643d
00000180: c6a7 01be cd00 c03d ecb5 dcbd 3631 0bbe
00000190: 5c82 bcbe 3337 12be 27ff 84be 36af f9bd
000001a0: 106c dcbe 5c1e d0bd 6ff3 4b3e 63fd b8be
000001b0: 5bf1 0bbe 79f3 bbbd d9ae abbe 66ea 3bbe
000001c0: fa54 8f3e 9381 a7bd 391c 523c a554 313c
000001d0: d900 43be 7093 203d 7f95 67bc 0750 a0bb
000001e0: 6140 0b3e 1646 a93e dc42 2dbe bad4 7fbb
000001f0: 4256 463c 9787 81bd f2f2 14be f558 84be
-0.018919295 -0.04385132 0.07410762 0.0051032784 -0.31814435 0.15885913 -0.0233262 -0.02176714
0.18764967 0.038032696 -0.50931966 0.18085733 0.0023823024 -0.3074099 -0.01642829 0.3266758
-0.31602624 -0.1975023 -0.17837997 0.111517064 -0.11210554 -0.013899232 0.0005195779 0.05235099
-0.30555546 0.13636343 -0.18391258 -0.051022433 -0.17479181 -0.30228278 -0.04982845 -0.065622054
-0.2858275 0.04339394 0.028686455 -0.15250978 -0.37965077 0.3005752 -0.10817774 0.2388515
-0.22181189 -0.32728657 -0.11023871 0.16069925 -0.08082925 -0.33301127 -0.19064975 -0.2864137
0.22687885 -0.35516092 -0.16147009 0.017754968 -0.19043241 -0.16665572 0.2125392 -0.11173675
0.012717999 -0.11877995 0.46686313 0.31198627 -0.039591596 -0.10287844 0.16649443 -0.02902542
-0.36892796 -0.14102924 -0.23224919 -0.30441174 0.34935755 -0.17689954 -0.010049215 -0.40921047
-0.052161682 0.30548206 -0.4330951 0.1972847 0.023487005 0.011136037 -0.22490017 -0.063984886
-0.12325846 -0.030543154 -0.10107189 0.041583817 0.12552415 -0.253185 -0.2918818 0.09741522
0.059609637 -0.06412464 0.02271083 -0.06318516 -0.10003098 0.29560494 -0.014453022 0.055794746
-0.12661657 0.09375153 -0.10776886 -0.13592991 -0.36818206 -0.1427887 -0.25975916 -0.12191622
-0.43051195 -0.101620406 0.19917081 -0.3613082 -0.13666289 -0.09177298 -0.33531836 -0.18351135
0.2799452 -0.08179011 0.012824112 0.0108234035 -0.19043292 0.039203107 -0.014134764 -0.0048923525
0.13598777 0.33061284 -0.16920036 -0.0039036707 0.012105526 -0.0632469 -0.14545801 -0.2584912

weight f4 [128, 128]
00000000: 7e26 dfbe 0105 34bd a22d 02bf 94ce 303e
00000010: f4af 9d3d 8d77 923e 7ed1 96bd e5e7 7f3e
00000020: 49c1 eebe 6e12 6a3d 6120 ffbc c72b fe3e
00000030: bca7 33bd 95cb c93d d9a1 96bc 729d b7be
00000040: 26ff ac3d 398c 493e 6d85 6dbc 1d78 2e3e
00000050: eba2 353e 05e3 a8be e137 843e c6c4 133f
00000060: f623 02bf 7427 873e 1642 883d 9e71 723d
00000070: d905 92be ae40 13bf 4356 be3e 4f05 63be
00000080: e9e3 68be 584c 7f3e a1e8 393e ace0 2abf
00000090: 7dd9 bebe 744b ce3c c365 1dbf 6008 743e
000000a0: 9077 193e fd50 61be 04f1 40bf 20bf 99bc
000000b0: 2133 cfbe 62f7 3abe e855 ff3e b73f 913e
000000c0: c41a a23e 0e6d 873d 944b 913c 348c 4dbf
000000d0: f878 2d3d 0200 b5bd a879 dfbe e9a1 10bf
000000e0: fd2f 81be 9032 9ebc 8c68 0b3f 1710 533e
000000f0: da0b b63e 8465 fcbe 37a0 093f fb21 9d3d
00000100: 8bbe b6be 6ea5 763e 84a2 a53d dc01 72bd
00000110: 0fe4 c7be d8c8 d33d 3937 85bd 10bf 81bf
00000120: 86ba e3be c9ee f4be 782f 06bf 323e a03e
00000130: eeb3 6bbd 27ba 25be 80e9 efbd 9014 edbb
00000140: 94ec a43c 292c afbd 6aed 7b3d b71e a13e
00000150: 0fd6 df3e d6e5 483e 897d 80be c4cf e73d
00000160: 1880 80bf 2247 533e b16b c03e 2ea4 d2be
00000170: f90e a5be 69db d93e c0c0 44bb 99e4 b1bd
00000180: 4f60 983e 4385 293e 171f 82be 0cdb 2f3e
00000190: 765b dc3d af65 0dbf 4ad5 06bf fb22 243e
000001a0: e834 94be 34a9 3abe 1491 273c e364 a73d
000001b0: 1814 9b3d 7db1 9abd 0b02 7ebd 2505 353f
000001c0: cb56 dbbe 4942 62bf 7826 b4bc 6382 b83d
000001d0: 4bb9 e8bd 595b ba3d 00c3 5ebd 52ec 6abe
000001e0: 290e 523e 13f0 3dbe 5417 2dbe 6fa7 dfbc
000001f0: 8f9e 0e3e a7af 77be 7671 a33d 2dda 10bf
00000200: 0fb2 ce3e f33e 033e e804 b63e 80aa 933e
00000210: 4c48 8ebe 3941 da3d 92f5 06bc 1a25 713d
00000220: e3f3 813e 4606 243e 5a85 283e a73b 1e3e
00000230: c30c e33e 5d56 bc3e c215 ad3e 3b1b 02bd
00000240: 8997 b8be f923 15be 03eb d8bd 73d7 99be
00000250: dc09 e0be fe05 403e 3baf 01bf 5bb6 dbbc
00000260: 7d32 8a3d e6fa 063b 1ac3 9dbe 41cf 983e
00000270: 4239 3d3e ef18 b83c d7f5 95be 5a9f 403e
00000280: 92cc 2c3f ce61 a6bd d1f4 3dbe 8301 05be
00000290: 1309 c03e b6d4 e33e f1d6 333d f93a 80be
000002a0: 8966 14be aed3 bcbd e505 be3c 0b76 683e
000002b0: f68a aebe 2ac1 e53e fd0a 223e 2cbb 21be
000002c0: 2db2 ce3e 599a 88bc f67b 2dbf 7d47 263f
000002d0: e8b2 1c3e 2d64 863e afbe c13e 5fb6 08be
000002e0: 2f62 82bd 7e80 37bd f668 53bc 25fe 1e3d
000002f0: a26b aabd d667 43be 4299 b2bd 8f0f 453e
00000300: 7d4c 0c3d 5dfa 49be 9dcc cfbe 5514 643f
00000310: 43da 403e 7828 57be 37cc 943d 3b58 cc3e
00000320: 7314 8e3b 1a69 453f e078 5dbe 10f1 cb3d
00000330: ee54 6f3e debc 59be 6d5b 613b 2451 b73d
00000340: 350c 3f3d aecf 15bd caff 113f ff1b d63e
00000350: dcd9 a9bd 2c07 dabd 7501 82be dac3 9d3d
00000360: 8b57 0c3f 68f5 453e 12dd 213f 02be 203e
00000370: 57f1 473e cc09 0ebc 2835 653d 3b1e 19bf
00000380: fc40 e1bd 2ecf 96be 2a1d 76be 87a7 bb3d
00000390: 2045 09be 3f60 98bd a46b 17be 13c8 9dbe
000003a0: 0fe5 6e3e 7763 02bd 0217 b8be b345 473b
000003b0: 00b7 f7bd 834d b2bd d7d7 353f a387 f83c
000003c0: 3abd aa3d 1731 663d 25e2 163d 593a 68bd
000003d0: c991 3b3f c566 6bbe 901e 13bf a445 3c3d
000003e0: bdb5 01be 78f6 03be da8b 163f 8ac6 bfbd
000003f0: c307 8bbe db08 e3be 8c5c d2bd 0dc1 b53e
-0.43584055 -0.043950085 -0.5085088 0.17266303 0.07699576 0.28606835 -0.07364176 0.24990804
-0.4663184 0.057146482 -0.03114337 0.49642774 -0.043861136 0.09853283 -0.018387722 -0.3586231
0.08447103 0.19682397 -0.014497143 0.17038007 0.1773793 -0.32985702 0.25823882 0.5772213
-0.5083612 0.26397288 0.0665323 0.059190385 -0.28520086 -0.5752057 0.37175187 -0.22169994
-0.22743191 0.24931467 0.18155147 -0.6674907 -0.37275305 0.025182463 -0.614834 0.2383132
0.14987016 -0.22003551 -0.7536776 -0.018767893 -0.40468696 -0.18258432 0.4987023 0.28368923
0.31661046 0.066125974 0.017736234 -0.8029206 0.042351693 -0.08837892 -0.43647504 -0.56497055
-0.25231925 -0.01931122 0.544564 0.20611607 0.35555917 -0.492962 0.53760093 0.07672497
-0.35692248 0.24086544 0.08087638 -0.059083804 -0.39041182 0.10341042 -0.065046735 -1.0136433
-0.44478244 -0.4783843 -0.5241618 0.3129745 -0.05754464 -0.16184293 -0.117144585 -0.0072351173
0.02013234 -0.08553345 0.061505713 0.31468746 0.43718 0.19618925 -0.25095776 0.11318925
-1.0039091 0.20632604 0.37582162 -0.41140884 -0.32237986 0.4255021 -0.0030022115 -0.0868618
0.29760978 0.16554742 -0.25414345 0.17173404 0.10759632 -0.5523328 -0.52669203 0.16028969
-0.28946614 -0.18228608 0.01022746 0.081735395 0.07572192 -0.075533845 -0.062013667 0.70710975
-0.42839655 -0.88382393 -0.021991 0.09009244 -0.11363467 0.090994544 -0.054385185 -0.22941712
0.20513214 -0.18548612 -0.1690343 -0.027301518 0.13927673 -0.241881 0.07980625 -0.5658291
0.40370223 0.12816982 0.35550618 0.2884102 -0.27789533 0.106569715 -0.008237259 0.058873273
0.25381383 0.16018018 0.1645712 0.15452443 0.44345674 0.3678464 0.33805662 -0.03176425
-0.36053112 -0.14564504 -0.105917 -0.30047187 -0.43757522 0.18752286 -0.50658005 -0.026820352
0.06747911 0.0020596324 -0.30812913 0.29845622 0.18478873 0.022472827 -0.29289123 0.18810788
0.6749965 -0.081241235 -0.18550421 -0.12988858 0.37506923 0.44498223 0.043906156 -0.25044993
-0.14492239 -0.09220062 0.02319617 0.2270128 -0.34090394 0.44873935 0.15824504 -0.15794057
0.40370312 -0.016675161 -0.67767274 0.6495283 0.15302622 0.26248303 0.37840793 -0.13350819
-0.06366383 -0.044800274 -0.012903443 0.03881659 -0.083213106 -0.19082579 -0.08720638 0.19244216
0.034252632 -0.19724412 -0.40585795 0.89093524 0.1883326 -0.21011531 0.072655134 0.39911065
0.004335934 0.771135 -0.21628141 0.099580884 0.23372242 -0.21263453 0.003438677 0.08951023
0.0466425 -0.036575012 0.5703093 0.41818234 -0.082935065 -0.10645899 -0.25391737 0.07703371
0.5482108 0.19331896 0.6322795 0.15697482 0.19525658 -0.008669328 0.055958897 -0.59811753
-0.10998723 -0.2945494 -0.24034563 0.09162813 -0.13405275 -0.074402325 -0.14787155 -0.30816707
0.23329566 -0.03183314 -0.35955054 0.0030406534 -0.12095451 -0.087061904 0.7103247 0.030338114
0.08336873 0.05619916 0.036836762 -0.05669627 0.73269325 -0.22988422 -0.5746851 0.045964852
-0.12666984 -0.12886989 0.58807147 -0.0936404 -0.2715436 -0.44342694 -0.10271558 0.3549885

bias f4 [128]
00000000: dee1 493d 28d2 f4be 8d8d 14bf d4bb a6be
00000010: a04d fb3e a864 c43e 55d5 793c b7c8 ab3e
00000020: 75af 80bc 3fb8 0c3f 7115 29bd 7bf0 d53e
00000030: ea35 febe f48a 60be 0afb fb3c b872 d7bd
00000040: aa2b 9ebe 3db4 98be 117a bc3e 3e72 5b3d
00000050: aa94 103e 86ae d73e f6e1 82be e99b 523e
00000060: d1e7 58be 31ae 803e 9fe8 25be 2ae9 5d3e
00000070: 0ad3 9f3d 8398 d23e 793e ffbd ed3e 423e
00000080: 56ee 633e 3daf 5a3e f9b0 a5bd a007 89be
00000090: 28a9 19be 430c 2b3e 5daa 1cbe 1bff 4fbe
000000a0: 1ee2 c83e 704d 1cbe c0dd 00be 90d3 b23d
000000b0: 9bb2 22be 3cdd f2be ea64 a7be 438b 03be
000000c0: b8ef 8e3c c330 7ebe 04c8 513f be88 40bf
000000d0: 1823 863e c14d a13b 0f26 bdbd 1997 653d
000000e0: 841d 19bf 6806 823e d25c 03be ff5f 7c3e
000000f0: cd02 833d 7d1e 79be 8682 d03b 1420 e2be
00000100: 1f55 d03d 7bc1 b3bc 2133 a6bd 0c90 aabe
00000110: 5ebc 383e 99ae 183e b2a3 6fbd eb6c 083d
00000120: 221d 263e 37d0 d23e 749b a33d c715 9ebd
00000130: cb61 2fbe 417f bebe 3c73 6ebd 6fa6 f53d
00000140: 748f 403e 9298 ca3d fd3f 5dbe 155b 43bc
00000150: cba5 c63e 6262 9e3e a564 813d 99e7 0f3d
00000160: a407 903a 823f 033d 1120 a13e 541f 46be
00000170: 1b2d e2bd 0a13 163e 6269 3a3e 9b45 d43e
00000180: 1a8e 56be 8d81 c73d 6426 663e 92af 8cbd
00000190: dade bcbe 1fae 1d3c bb67 36be da8d 01bf
000001a0: b955 8b3e 71fe 123e 11af 6abe e82e 9a3e
000001b0: 5241 c43e b908 0f3f ec2e 4ebe 9b11 e8bc
000001c0: 1be5 86bd 2188 97bc 5a6e 013e d512 87be
000001d0: 710e 103e 9497 e83e e653 683e bb10 063f
000001e0: 591b 8abe 2d16 8e3e 7924 8e3e f282 fe3e
000001f0: 013a 9d3e 3fbf b63d adab ccbe 8604 fd3e
0.04928767 -0.47816586 -0.5802849 -0.32565176 0.4908266 0.38358045 0.015248616 0.3355157
-0.015708664 0.5496864 -0.041280214 0.41785035 -0.49650508 -0.21928006 0.030759353 -0.10519928
-0.30892688 -0.2982501 0.3681188 0.053575747 0.14119211 0.42125338 -0.2556302 0.20567288
-0.21182181 0.25132897 -0.16202019 0.21670976 0.078039244 0.41131982 -0.124630876 0.18969317
0.22258887 0.2135591 -0.080903955 -0.2676363 -0.15005934 0.16703896 -0.15299363 -0.20312159
0.39235014 -0.15263915 -0.12584591 0.087317586 -0.15888445 -0.47434413 -0.3269418 -0.12846093
0.017448291 -0.24823289 0.81945825 -0.7520865 0.2619865 0.004922599 -0.09235775 0.0560523
-0.5981066 0.25395513 -0.12828377 0.24645995 0.063970186 -0.24328037 0.006363216 -0.441651
0.101724856 -0.021942845 -0.08115221 -0.33313024 0.18040606 0.14910354 -0.05850572 0.033306997
0.16222051 0.4117448 0.07988635 -0.077189974 -0.17127149 -0.37206462 -0.058215365 0.11994635
0.18804723 0.09892382 -0.21606441 -0.011923571 0.38798365 0.30934435 0.063180245 0.035132978
0.0010988605 0.032042988 0.31469777 -0.19347888 -0.110437594 0.146557 0.18204263 0.41459355
-0.20952645 0.09741507 0.22475582 -0.06869425 -0.36888772 0.009624033 -0.17813008 -0.50607073
0.2721384 0.14354874 -0.22918345 0.30113912 0.38331085 0.55872685 -0.20135087 -0.028328707
-0.06586667 -0.018497529 0.12639752 -0.26381555 0.14068009 0.45428145 0.22688255 0.5236928
-0.2697399 0.27751294 0.277622 0.49709278 0.30708316 0.08923196 -0.39974728 0.49417514

weight f4 [10, 128]
00000000: bd64 b7be bd93 c5bd 2432 73be 6c6d 5fbe
00000010: c336 a23e 45a6 04bf cd32 093e 52d6 58bd
00000020: b9df 40bf 025a dbbd 180f b6bd 3662 cc3e
00000030: 87ab 833b 3cf6 64bd 836d ea3d 5f2e 063f
00000040: d83b 31bd e9b5 44bf 79f8 893d fef6 bbbc
00000050: 4a08 21bf 6f0b 9a3e a665 9c3c d0d6 ccbe
00000060: 4ee0 12bf 3849 e5be 4f74 3bbe 8d45 673d
00000070: bb3f 213e 6aed 963c c2f9 4bbf ab67 11bf
00000080: 0c7a 313e c5ea fc3d e3ce 00be 23ab 1cbf
00000090: 739c b13c 8fa7 8b3e faf6 ecbe b3e5 ddbd
000000a0: 2867 e93e bde3 ac3e 7f3d ba3e dc7f a1be
000000b0: ac9d 833e 30dd 98be fde7 1a3d 39eb 20bf
000000c0: c204 bd3e 0733 38bd 3782 42be 2e95 07bf
000000d0: f98d 18bf d34f 1ebf c22f 87bd ce38 c0be
000000e0: 3078 ca3d 195e a03d b1fa 123e 4e37 5ebd
000000f0: 2f35 05bf 3c0b f33d 70a0 4cbf 2f94 f6be
00000100: 041c 493e b6b7 26bf b6f4 223b 261a 07be
00000110: 03e7 a2be 3b09 653d 89b7 953e 9205 94be
00000120: 8a0d 82be 3f18 4a3e 595c 95bd 1908 9f3e
00000130: f09e 4d3e f4dd e2bd d12b df3d dca7 aebd
00000140: 6e14 63be 6483 133f 44f7 e03e 0fe3 9bbe
00000150: e0f9 923d d89e 03bc 8609 1cbf f39c 81bf
00000160: 5768 4cbf 0ea1 cb3e 23e7 80bd 6e01 bf3e
00000170: e61e bfbd 633f 823d 633f 42bd d877 73bd
00000180: db30 2bbf 1f2b 03be 8065 c23d 8aa5 4dbe
00000190: fadc 903e 58ce 53bf a1b1 dabc 2e15 a0be
000001a0: 2131 ff3e 9231 683e fc96 cb3e 38f3 08bf
000001b0: 57a6 163e cf71 0bbf 10bf a93e 5255 14be
000001c0: 4ca1 cbbd b489 04bf 1c67 a73e 3100 343e
000001d0: 5fc6 63be 9b69 3cbf 497b 8bbd d39e f4be
000001e0: b575 db3e 668b 5dbf ea1b afbe 9620 bfbd
000001f0: 7978 8a3e 1ca6 7cbf 9cfc e3be 5f94 8abc
00000200: b282 52bf 7955 153e 1f34 c53e 600e 1f3f
00000210: 012f c5be 39ce c5be d52d 4ebf 2110 313e
00000220: c800 12bf 7995 173e 7f3f 16bf ead4 3abf
00000230: 4600 803e 5d2b 09bf 0858 2fbf b04e e0bd
00000240: 3922 213f 2a3e e23e 1c61 41bf 693d f4be
00000250: dd02 f83c 37f9 8bbf 31a0 f63e 9502 e33d
00000260: b891 6e3d 4196 cebe 6b46 de3c 5db4 9abd
00000270: ba37 83be 5271 55be 8a0e 683e 179e 7e3e
00000280: e447 ef3d 662f 413e 4fb9 b33c 5455 0f3e
00000290: cbdf f03e 8f18 d6bd f14b a03d 6dc4 ac3c
000002a0: bc10 623e ccd1 b43e 39f7 31be 3f9d c03e
000002b0: 04ea 44be 48f3 9d3e 8c04 31bd 7372 d03d
000002c0: 83cf f9bd e936 8cbe 7386 40bf 8e43 7d3e
000002d0: 5d29 773c c59b cc3e 5718 0c3d 659c b6bd
000002e0: fe74 923e 0958 46bf e129 d63d 71e4 23bf
000002f0: 5b53 ab3e d243 0bbf 9e95 ddbd f9da 3d3e
00000300: 48f2 52bf fd7e d5bd 9225 a63b 9d47 29bf
00000310: dd9f 533d 18f9 0ebf 42f0 f5be df1d abbe
00000320: a9eb 1dbf 02ea 58bf da68 3abf 1da5 1ebf
00000330: 89a2 02bf 3b51 d8bd 2a28 2d3e 6d0a d3be
00000340: 7adf 04bf d278 c5be 53e2 3ebf 137d 80be
00000350: a51f a83e 8270 733e 31a5 663e 8d1a 5b3e
00000360: 9f74 c5bd 466c 4c3e 8b46 773e a3d7 99be
00000370: 1c7d 93be 9e96 44bf 788d 59bf 69c8 c2be
00000380: d783 afbd 94ea 79bd e113 36be 3d7f 98be
00000390: dcd6 2e3e c4a8 093e d634 acbe f516 913e
000003a0: dcfd 4fbf ab26 b4be cd7b 203e 631e 53bf
000003b0: e8f3 903e 9d84 57bf 7a94 d53e 76fe b23d
000003c0: 74ae 64bd 1b0b f9be 1624 08bf 2325 963e
000003d0: 9a81 dabe 36ae 94be c050 d8be e372 d4be
000003e0: 0389 c6bd f6a9 3a3e 18e3 84bf 9683 4e3e
000003f0: 4010 2ebe 51f6 293e 0334 ac3e f924 a33e
-0.35819045 -0.096473195 -0.23749596 -0.21819085 0.31682405 -0.5181621 0.13398285 -0.052938767
-0.75341374 -0.10710527 -0.08889598 0.3991868 0.0040182504 -0.05589889 0.11446669 0.52414507
-0.043269962 -0.7684007 0.067368455 -0.022944923 -0.62903273 0.30086848 0.019091439 -0.4000764
-0.5737351 -0.44782424 -0.18306087 0.056462813 0.15746967 0.018423755 -0.79677975 -0.5679881
0.17331713 0.12349466 -0.12578921 -0.61198634 0.021681046 0.27276275 -0.46282178 -0.10834827
0.45586514 0.337675 0.36375043 -0.3154286 0.25706232 -0.29856253 0.037818898 -0.6285892
0.36917692 -0.04497054 -0.18994986 -0.52962005 -0.59591633 -0.6184055 -0.06600906 -0.3754334
0.09886205 0.07830448 0.14353444 -0.05425196 -0.52034277 0.11867377 -0.7993231 -0.4815993
0.19639593 -0.6512407 0.0024865097 -0.13193569 -0.31816873 0.055917006 0.2924159 -0.289105
-0.25400954 0.19735812 -0.072930045 0.31060866 0.20080161 -0.110774904 0.10897029 -0.085281104
-0.22175762 0.5762236 0.4393865 -0.3044667 0.07176566 -0.008033477 -0.6095203 -1.0126022
-0.7984671 0.39771312 -0.06294086 0.37305778 -0.09332065 0.06359746 -0.04742373 -0.059440464
-0.6687142 -0.12809418 0.09492016 -0.2008268 0.28293592 -0.8273673 -0.026696028 -0.3126616
0.4984217 0.2267516 0.3976363 -0.5349612 0.14711891 -0.54470533 0.33153582 -0.14485672
-0.09942874 -0.5177262 0.32695854 0.17578198 -0.22243641 -0.7359864 -0.06810624 -0.47777423
0.4286324 -0.8654083 -0.34200984 -0.09332387 0.27045038 -0.9869096 -0.44528663 -0.016916452
-0.82230675 0.14583386 0.38516328 0.6213131 -0.38512424 -0.38633898 -0.80538684 0.17291309
-0.5703244 0.14803113 -0.5869064 -0.7298113 0.2500021 -0.5358179 -0.684937 -0.109525084
0.62942845 0.44188052 -0.755388 -0.47703102 0.030274803 -1.0935429 0.4816909 0.11084477
0.058244437 -0.4034901 0.027133187 -0.07553933 -0.25628453 -0.2084401 0.22661796 0.24864994
0.11683634 0.18865737 0.021938948 0.13997394 0.4704574 -0.10453903 0.07826985 0.021089757
0.22076696 0.35316312 -0.17379464 0.3761997 -0.19229895 0.3084967 -0.043217227 0.101780795
-0.12197783 -0.27385643 -0.75205153 0.24732801 0.015085545 0.39962593 0.0342029 -0.08916549
0.28604883 -0.7747808 0.104572065 -0.6402045 0.33462033 -0.5440036 -0.10819553 0.18540563
-0.8240094 -0.10424612 0.0050703967 -0.661249 0.05166613 -0.55848837 -0.48034865 -0.33421227
-0.61687714 -0.8473207 -0.7281624 -0.6197069 -0.5102926 -0.105623685 0.16909853 -0.41218892
-0.519035 -0.3856874 -0.74564093 -0.25095424 0.32836643 0.23773387 0.22523953 0.21396847
-0.09641384 0.19963178 0.24148004 -0.3004733 -0.28806388 -0.76792324 -0.8498149 -0.38043526
-0.08570068 -0.061014727 -0.1778102 -0.29784575 0.1707415 0.13443285 -0.3363406 0.28337827
-0.81246734 -0.3518575 0.15672226 -0.8246824 0.28311086 -0.84186727 0.4171484 0.08739941
-0.055830434 -0.48641285 -0.5318006 0.29325208 -0.42677003 -0.29039162 -0.42249107 -0.41493902
-0.09694102 0.18228897 -1.0381804 0.20167384 -0.16998386 0.16597869 0.33633432 0.31864145

bias f4 [10]
00000000: 25e2 debd 56d1 c2be 814a 70be 7e0e 6bbe
00000010: 01eb 063e 1321 92bc 706f 00be 3d81 37be
00000020: 7636 343f 8aef 493d
-0.108829774 -0.38050336 -0.23465921 -0.22954747 0.13175584 -0.017838037 -0.1254251 -0.17920394
0.703956 0.049300708
