models/model_9629.pth (torch, 476975 bytes, 6 tensors)

weight f4 [128, 784]
-0.018563062 0.006119836 -0.032971438 -0.013817953 0.018994149 -0.010346515 0.026676338 0.03376175
-0.0318309 0.021850701 -0.021071307 -0.03348593 -0.024262566 -0.024588952 -0.022857625 0.025918085
-0.034897525 0.008399457 -0.0320022 -0.028094804 -9.566173e-05 0.0019943714 -0.0020934828 0.021253835
-0.000907816 0.031694364 0.0060097836 0.0068312027 0.031077664 0.028933521 -0.01747986 0.006037943
0.010664634 0.014740735 0.0352788 0.0077796504 0.018680122 0.031507354 -0.015487952 -0.020920932
0.035278212 0.002436906 0.017671682 -0.01880006 -0.032588117 -0.009683354 0.028494414 0.026396126
-0.0019177459 -0.025320247 0.019203339 -0.020794198 -0.02738588 -0.0104075335 0.007332552 -0.021332333
0.012195736 0.024512481 0.0127322115 0.006591443 -0.023704018 -0.030583868 0.009735171 0.014869858
-0.022748996 -0.024941444 0.02943233 0.016709168 -0.026957385 0.0160016 0.025208175 0.00026309863
-0.027009562 -0.03173034 0.035360266 0.0064089075 0.0052602924 0.015736874 0.0001693368 -0.01194879
0.0051493347 0.015079714 0.024268866 -0.022236966 0.0073351935 -0.012753891 -0.011411361 -0.006934421
-0.029288433 -0.014993131 -0.034259923 -0.02847489 0.006840255 0.0052957498 -0.010580396 -0.006159749
-0.023563791 -0.0053851698 -0.02099953 -0.030716531 0.029068846 0.0072594583 -0.0037935376 -0.030270535
0.030083258 0.006724559 -0.012735521 0.00041481853 0.03135154 0.006831065 0.0005758032 -0.034900412
-0.0128496215 -0.01966987 -0.02895329 0.005290009 0.0020264015 -0.01676735 0.012383811 -0.003165584
0.028929736 0.0026095323 -0.022860464 0.0014404766 0.03307687 0.035514828 0.020778377 0.008115821
-0.026895678 -0.0023827888 -0.009524193 0.025783978 0.027173158 0.004966121 0.013275668 0.014553722
-0.01596157 -0.0079140235 0.017843187 0.010724362 -0.014138507 -0.023333713 0.034004632 -0.019754134
0.031017777 0.034950573 0.024739705 -0.02586706 -0.03368574 0.0050286055 -0.0068404004 -0.0029184483
-0.014901558 0.034779128 0.024007488 0.023948941 -0.022570278 -0.030508967 -0.010641091 -0.019358793
-0.008547856 0.02929293 0.028738689 0.0102947615 0.009815089 -0.02715531 0.034624163 0.013250042
0.031299774 -0.03317942 -0.01468209 -0.0057510436 0.0031301193 -0.028956436 -0.014769888 -0.0007107146
-0.032755967 -0.0032097623 0.016374674 0.010531787 -0.031849194 0.001536496 0.032834847 0.029583994
-0.002685029 -0.011301395 0.022293206 0.0072247125 0.00045040622 -0.013926148 -0.027535 -0.003363926
-0.030151518 -0.027238488 -0.02192448 -0.008378655 0.023819316 0.024960253 0.025644738 -0.01571643
-0.003945265 -0.017140198 0.0085418 -0.019375844 0.027165841 0.013821043 0.016307462 -0.01054124
-0.0053215716 -0.006355647 -0.013159232 -0.0029336214 0.031061973 0.011073086 -0.021009153 0.0054302737
-0.03171982 0.0042759776 -0.022528687 0.0017226748 0.029932033 -0.027878541 0.024590138 0.008025784
-0.02732501 0.018432815 -0.016274713 0.027478661 0.03563836 -0.006989965 -0.019228458 -0.0349931
0.034730796 0.00266191 -0.0019157231 0.035623293 0.012034632 0.013903715 0.021872047 0.033843126
0.011996355 -0.032771125 0.0007449202 -0.012829548 0.018916566 0.031767514 0.01079002 0.018629089
0.027858954 0.0116391145 -0.008005934 -0.0049440823 0.035386268 -0.024044046 0.026964504 0.019522224
00000000: 9011 98bc e888 c83b 0f0d 07bd b264 62bc
00000010: 9e99 9b3c 6e84 29bc 5688 da3c c349 0a3d
00000020: 1e61 02bd 3e00 b33c bc9d acbc 8b28 09bd
00000030: 4ac2 c6bc c56e c9bc ea3f bbbc 2a52 d43c
00000040: b5f0 0ebd e09d 093c bd14 03bd 1327 e6bc
00000050: 009e c8b8 00b4 023b d032 09bb 861c ae3c
00000060: 80fa 6dba f3d1 013d b8ed c43b 48d8 df3b
00000070: 9696 fe3c fe05 ed3c ec31 8fbc f0d9 c53b
00000080: b8ba 2e3c 2083 713c 8180 103d 70ec fe3b
00000090: 0e07 993c db0d 013d 2ec1 7dbc 6062 abbc
000000a0: e37f 103d 80b4 1f3b 34c4 903c 9502 9abc
000000b0: 1e7b 05bd eea6 1ebc 1e6d e93c b03c d83c
000000c0: e05c fbba 686c cfbc 5250 9d3c 9858 aabc
000000d0: 5a58 e0bc 5c84 2abc e845 f03b 25c1 aebc
000000e0: a0d0 473c 66ce c83c c49a 503c 08fd d73b
000000f0: ee2e c2bc 058b fabc 4480 1f3c b4a0 733c
00000100: 1a5c babc 0052 ccbc 121c f13c aae1 883c
00000110: bcd5 dcbc ca15 833c 6081 ce3c 80f0 8939
00000120: 2843 ddbc acf7 01bd edd5 103d d001 d23b
00000130: 885e ac3b 9eea 803c 0090 3139 dcc4 43bc
00000140: c0bb a83b e810 773c 80cf c63c 4c2a b6bc
00000150: 105c f03b b2f5 50bc b8f6 3abc 243a e3bb
00000160: 4cee efbc c0a5 75bc 2254 0cbd 2c44 e9bc
00000170: 3824 e03b f887 ad3b 6659 2dbc b8d7 c9bb
00000180: da08 c1bc 1476 b0bb 3507 acbc 3ca1 fbbc
00000190: ca21 ee3c c0e0 ed3b 009d 78bb eaf9 f7bc
000001a0: 2a71 f63c b059 dc3b a6a8 50bc 007c d939
000001b0: 796a 003d 20d7 df3b 80f1 163a bcf3 0ebd
000001c0: 3887 52bc b522 a1bc 732f edbc d057 ad3b
000001d0: 60cd 043b ae5b 89bc 78e5 4a3c b075 4fbb
000001e0: 0efe ec3c b004 2b3b de45 bbbc 60ce bc3a
000001f0: 9d7b 073d ff77 113d 6a37 aa3c 38f8 043c
00000200: 5354 dcbc 9028 1cbb 5c0b 1cbc ec38 d33c
00000210: 3e9a de3c d8ba a23b 3082 593c bc72 6e3c
00000220: d7c1 82bc d2a9 01bc e02b 923c 3cb5 2f3c
00000230: 32a5 67bc 5826 bfbc 7148 0b3d 6cd3 a1bc
00000240: fe18 fe3c 5528 0f3d ecaa ca3c 28e7 d3bc
00000250: 0ffa 09bd 00c7 a43b 7025 e0bb 7043 3fbb
00000260: aa25 74bc 8f74 0e3d 5aab c43c 9230 c43c
00000270: 4ee5 b8bc f1ed f9bc f857 2ebc 5596 9ebc
00000280: 4e0c 0cbc baf7 ef3c 666d eb3c 5cab 283c
00000290: 78cf 203c d074 debc 11d2 0d3d b416 593c
000002a0: 3134 003d 25e7 07bd 268d 70bc 4073 bcbb
000002b0: b022 4d3b 0c36 edbc 66fd 71bc 404f 3aba
000002c0: 1f2b 06bd e05a 52bb 2e24 863c 848d 2c3c
000002d0: 4d74 02bd 4064 c93a d57d 063d 225a f23c
000002e0: 50f7 2fbb 7c29 39bc 3ea0 b63c 48bd ec3b
000002f0: 8024 ec39 802a 64bc 1591 e1bc 5075 5cbb
00000300: 5100 f7bc 4023 dfbc f89a b3bc a046 09bc
00000310: ba20 c33c 7279 cc3c ea14 d23c bebf 80bc
00000320: 4847 81bb 9a69 8cbc e8f2 0b3c 17ba 9ebc
00000330: e68a de3c a871 623c 3a97 853c 2ab5 2cbc
00000340: 9460 aebb 0843 d0bb d299 57bc 0042 40bb
00000350: ae75 fe3c e46b 353c 631b acbc 70f0 b13b
00000360: a4ec 01bd 801d 8c3b 158e b8bc 60cb e13a
00000370: 0634 f53c 8a61 e4bc 4271 c93c 947e 033c
00000380: b3d8 dfbc 6a00 973c 8c52 85bc ee1a e13c
00000390: 87f9 113d 140c e5bb 0085 9dbc ed54 0fbd
000003a0: e141 0e3d 7073 2e3b 0019 fbba bbe9 113d
000003b0: e82c 453c 68cc 633c 022d b33c 179f 0a3d
000003c0: 5c8c 443c 043b 06bd c046 433a 0633 52bc
000003d0: eaf6 9a3c a71e 023d a0c8 303c 089c 983c
000003e0: 7638 e43c fcb1 3e3c 522b 03bc f801 a2bb
000003f0: 31f1 103d 05f8 c4bc aae4 dc3c 12ed 9f3c

bias f4 [128]
-0.020045264 -0.010482827 0.11805471 -0.03169133 0.0019339647 0.061033133 -0.031976797 -0.0119257225
0.03186512 -0.008521536 -0.009311618 -0.028833153 -0.0040740333 0.00050445116 -0.021769201 0.04996105
-0.011901213 -0.023689523 -0.021402325 -0.022513425 0.011884349 -0.021827996 0.0524548 -0.04072311
-0.023315776 -0.027303016 -0.021631557 -0.028232321 0.006817896 0.012240711 0.03458908 -0.03143207
0.0025530856 0.044424262 -0.025696926 0.0008556738 0.040012583 0.046828937 -0.02615641 -0.014460318
-0.010253634 0.0455499 0.06784607 -0.031833135 0.060701333 -0.025875177 -0.014850622 -0.012776149
-0.0035301517 0.010671938 0.003078858 -0.017350852 -0.0069867074 -0.04704744 0.044240296 -0.015936295
-0.0028147437 -0.0071520247 0.07376242 0.036457162 -0.013323741 -0.005946347 0.02873768 -0.035568617
-0.029351346 0.04044126 0.02808357 0.011316109 0.004567711 0.0639422 -0.0348896 0.044625204
-0.016323823 0.04212719 -0.00633643 -0.027745502 0.05295559 -0.023517199 0.003325434 0.0009552323
0.0052891797 0.050387472 -0.00694713 0.01760158 0.018665038 -0.034132957 0.06983861 -0.010747346
-0.0025769232 -0.027704155 0.043343205 0.0024550748 -0.0061328555 -0.00804353 -0.0151583385 -0.01927175
-0.05070091 -0.0057719816 -0.033885103 -0.006776806 0.020783888 -0.0022995211 0.019163204 0.060750525
0.03538028 -0.012078839 0.033228934 -0.0070644817 0.012440863 -0.02821546 0.064831264 -0.016216258
-0.007915175 0.03744863 0.021568432 0.029731587 -0.011856092 0.020576041 -0.026034808 0.015490871
-0.006479416 0.03989664 -0.01459754 0.008880162 -0.035342086 0.03408758 -0.05871129 -0.006202217
00000000: f735 a4bc 2ac0 2bbc abc6 f13d c5ce 01bd
00000010: 167d fd3a e1fd 793d 1afa 02bd 1b64 43bc
00000020: 0085 023d ea9d 0bbc c28f 18bc 8133 ecbc
00000030: 787f 85bb 253d 043a 5355 b2bc f5a3 4c3d
00000040: 4efd 42bc 8810 c2bc ee53 afbc 136e b8bc
00000050: 93b6 423c a0d0 b2bc d8da 563d 47cd 26bd
00000060: ba00 bfbc 93aa dfbc aa34 b1bc 7847 e7bc
00000070: a868 df3b 438d 483c 47ad 0d3d eabe 00bd
00000080: ab51 273b 37f6 353d 5c82 d2bc 4c4f 603a
00000090: 3ce4 233d b3cf 3f3d f845 d6bc f8ea 6cbc
000000a0: dcfe 27bc 8892 3a3d e1f2 8a3d 7663 02bd
000000b0: f6a1 783d 2ef8 d3bc 0650 73bc 0e53 51bc
000000c0: 1e5a 67bb 5ad9 2e3c aac6 493b 6023 8ebc
000000d0: c0f0 e4bb d1b4 40bd 5035 353d d58c 82bc
000000e0: 9077 38bb 885b eabb c010 973d 1b54 153d
000000f0: d24b 5abc 93d9 c2bb 486b eb3c 66b0 11bd
00000100: 3c72 f0bc bca5 253d 840f e63c 3467 393c
00000110: bdac 953b 21f4 823d 66e8 0ebd ebc8 363d
00000120: 8ab9 85bc 8f8d 2c3d d4a1 cfbb 894a e3bc
00000130: f6e7 583d 24a7 c0bc 86ef 593b 8e68 7a3a
00000140: db50 ad3b 1863 4e3d c0a4 e3bb 3031 903c
00000150: 6ce7 983c 00cf 0bbd 8c07 8f3d a315 30bc
00000160: 99e1 28bb d3f3 e2bc a588 313d 52e5 203b
00000170: 1ff6 c8bb 03c9 03bc ae5a 78bc cadf 9dbc
00000180: c2ab 4fbd e422 bdbb 1bcb 0abd f80f debb
00000190: f942 aa3c 90b3 16bb 27fc 9c3c 8bd5 783d
000001a0: eaea 103d 53e6 45bc 101b 083d 2b7d e7bb
000001b0: c3d4 4b3c 1c24 e7bc 41c6 843d f5d7 84bc
000001c0: a6ae 01bc bc63 193d 48b0 b03c a88f f33c
000001d0: 0e40 42bc 168f a83c f346 d5bc 6ccd 7d3c
000001e0: 4851 d4bb a96a 233d 852a 6fbc 197e 113c
000001f0: ddc2 10bd 6b9f 0b3d 407b 70bd f83b cbbb

weight f4 [128, 128]
0.01763951 -0.07804403 0.082306124 -0.0065934956 -0.079252094 -0.09161123 -0.029070135 0.018724678
-0.084293894 0.03822816 -0.022994595 -0.027425058 0.034218393 -0.0036128666 0.04145164 0.053572778
-0.08334417 0.014281325 0.041927405 0.030526428 -0.021275572 0.042789675 -0.051864795 -0.054771315
0.025546268 -0.0879524 -0.07711179 -0.017958932 0.038682304 -0.095090486 -0.034311563 0.019346952
-0.03836465 -0.054498296 0.036332846 -0.09137349 -0.04514588 -0.05987668 -0.08554077 0.06263485
0.0024610683 -0.011822266 -0.0062482487 -0.053650144 -0.073258206 0.0728619 -0.005998224 0.012400411
0.008031197 0.06185282 -0.050632045 0.020405062 0.07335771 0.06764844 -0.007816166 -0.047195185
0.040137924 -0.055300657 -0.061542157 -0.040909696 -0.022249728 0.026844978 -0.067420736 -0.017311364
-0.07919532 0.025115382 -0.011714117 0.034255277 0.05717224 0.05503588 0.0010432601 -0.04321389
-0.08492111 -0.08824232 0.009384558 0.02297864 0.0010650617 -0.048901998 -0.035473306 0.039479733
-0.027865756 -0.047221158 -0.013778634 0.000476578 -0.02736877 0.0019161329 -0.08130705 -0.04745547
0.021663181 0.08731977 0.0056546396 -0.06629256 0.009659093 0.0518075 -0.042923488 0.02499681
0.06541576 0.05898886 -0.056419566 -0.055252 -0.04863783 0.040386222 -0.01673068 0.0067687826
0.056522023 -0.014471792 0.0077136233 -0.034707878 -0.016868569 -0.023933485 0.012088656 -0.0728586
0.07700182 0.036463805 0.016160471 -0.017586391 -0.011148833 0.018837547 -0.08697497 -0.09223657
-0.060427465 -0.027167741 -0.09086925 -0.062369023 -0.07035346 -0.08808483 -0.008268792 -0.010192037
0.060540624 0.030214548 -0.0046830755 0.023326658 -0.060194876 -0.05766558 0.03575389 -0.0037093495
0.0026816875 0.00056037307 -0.09840412 0.062437348 0.0106885955 0.0409143 -0.013119988 0.016405737
-0.06801907 -0.08614345 0.06604656 -0.090864696 -0.06699077 0.04789821 0.045525897 -0.008831071
-0.019022778 0.07626357 -0.0344659 -0.059349716 -0.001141491 -0.023685 -0.024677617 0.08040696
-0.06425244 -0.017071627 0.045029916 0.010095208 0.028045228 -0.09967597 -0.017530128 -0.06684051
-0.07996182 -0.0896499 0.00869576 -0.05656464 0.025772296 -0.04593093 0.070990674 -0.007476747
0.068679236 -0.07467043 0.04817842 -0.021051086 0.08407987 0.04863566 0.041725997 0.045465432
0.040615804 0.05498039 0.01995396 0.0005045178 -0.038114995 -0.0038128048 0.010064987 0.047764756
-0.04584008 0.010252062 -0.03463011 0.06380428 0.058225404 -0.0063185645 -0.032615602 0.03793721
-0.041281182 0.0435076 0.056170903 -0.08351632 -0.030997425 -0.0073909615 0.05289211 -0.00046831608
-0.053610574 -0.04204167 0.025056683 -0.05484871 -0.025066292 -0.060255148 0.028220745 0.06833528
0.051194288 -0.08530095 -0.064040944 0.039926507 -0.006209962 -0.05520277 -0.043022692 -0.08455521
-0.096158095 -0.0013099462 0.0048177736 0.08674214 -0.094652995 -0.015073128 -0.020980326 -0.0055418774
-0.054169893 0.021653928 -0.09244885 -0.06536435 0.0076524783 0.081791766 0.0036327813 0.028897472
0.061338507 -0.007571229 -0.052851357 -0.09325403 -0.048127044 0.01737244 0.059922896 0.068024226
0.043485574 0.06292683 -0.048326846 -0.07738405 0.048861988 0.064889275 -0.017385509 0.04888528
00000000: bc80 903c 8cd5 9fbd 1d90 a83d 400e d8bb
00000010: ec4e a2bd ab9e bbbd 7e24 eebc 7f64 993c
00000020: 47a2 acbd 2295 1c3d 295f bcbc 84aa e0bc
00000030: 9628 0c3d d8c5 6cbb 32c9 293d 216f 5b3d
00000040: 59b0 aabd 38fc 693c 12bc 2b3d 8f12 fa3c
00000050: 1c4a aebc 3a44 2f3d 2e70 54bd e357 60bd
00000060: 6846 d13c 6320 b4bd c9ec 9dbd 9c1e 93bc
00000070: 5671 1e3d cdbe c2bd 488a 0cbd 807d 9e3c
00000080: 4024 1dbd 9b39 5fbd c0d1 143d 0622 bbbd
00000090: e3ea 38bd 4041 75bd 0030 afbd b346 803d
000000a0: e049 213b 2db2 41bc 1cbe ccbb 41c0 5bbd
000000b0: 6608 96bd 9f38 953d c08c c4bb 182b 4b3c
000000c0: 4895 033c 6259 7d3d 8c63 4fbd 8428 a73c
000000d0: 913c 963d 448b 8a3d 600f 00bc bd4f 41bd
000000e0: aa67 243d f182 62bd a113 7cbd ed90 27bd
000000f0: 1045 b6bc 00ea db3c e213 8abd 90d0 8dbc
00000100: 2831 a2bd c6be cd3c 91ec 3fbc 434f 0c3d
00000110: 702d 6a3d 4e6d 613d 00be 883a 0c01 31bd
00000120: 1eeb adbd 64b8 b4bd b0c1 193c b33d bc3c
00000130: 8a99 8b3a 764d 48bd 754c 11bd 80b5 213d
00000140: ba46 e4bc f96a 41bd c8bf 61bc 37dd f939
00000150: 7934 e0bc c026 fb3a 5084 a6bd ab60 42bd
00000160: fc76 b13c b5d4 b23d 8e4a b93b 65c4 87bd
00000170: 2c41 1e3c 1a34 543d 8ad0 2fbd 1cc6 cc3c
00000180: b3f8 853d 4e9e 713d 3418 67bd ec4f 62bd
00000190: 7638 47bd 066c 253d c70e 89bc aacc dd3b
000001a0: a383 673d 181b 6dbc 90c2 fc3b d929 0ebd
000001b0: f42f 8abc 2810 c4bc 800f 463c e436 95bd
000001c0: 21b3 9d3d 125b 153d f762 843c 5611 90bc
000001d0: 98a9 36bc 3351 9a3c ef1f b2bd 87e6 bcbd
000001e0: ca82 77bd e28e debc a819 babd a976 7fbd
000001f0: 7a15 90bd d265 b4bd d479 07bc 80fc 26bc
00000200: 72f9 773d 8084 f73c 7c74 99bb 8c17 bf3c
00000210: e78e 76bd be32 6cbd ac72 123d 8f18 73bb
00000220: 40bf 2f3b 00e6 123a 1988 c9bd 4ebe 7f3d
00000230: 381f 2f3c c195 273d 38f5 56bc 5365 863c
00000240: 954d 8bbd fa6b b0bd 6b43 873d 4517 babd
00000250: 7532 89bd ea30 443d 5d79 3a3d 32b0 10bc
00000260: a8d5 9bbc 1330 9c3d 1e2c 0dbd b018 73bd
00000270: 159e 95ba 0c07 c2bc b728 cabc 67ac a43d
00000280: c996 83bd ccd9 8bbc 4a71 383d 5f66 253c
00000290: 1bbf e53c ea22 ccbd 589b 8fbc ade3 88bd
000002a0: 06c3 a3bd 5e9a b7bd a978 0e3c 53b0 67bd
000002b0: 6c20 d33c 1222 3cbd 8f63 913d 80ff f4bb
000002c0: b3a7 8c3d cfec 98bd bc56 453d 5473 acbc
000002d0: 1132 ac3d 3036 473d e1e8 2a3d f639 3a3d
000002e0: c25c 263d 1e33 613d 7d76 a33c 9e41 043a
000002f0: 781e 1cbd 40e0 79bb 9de7 243c faa4 433d
00000300: cfc2 3bbd 44f8 273c 4dd8 0dbd d1ab 823d
00000310: c37d 6e3d f60b cfbb f097 05bd 0c64 1b3d
00000320: 7516 29bd 0635 323d 7613 663d 9b0a abbd
00000330: 50ee fdbc e12f f2bb 66a5 583d 5288 f5b9
00000340: c396 5bbd e333 2cbd ac43 cd3c 0aa9 60bd
00000350: d357 cdbc 1ace 76bd 312f e73c 5ef3 8b3d
00000360: 1ab1 513d 44b2 aebd e627 83bd fa89 233d
00000370: f07c cbbb 4d1c 62bd 9038 30bd 482b adbd
00000380: 89ee c4bd 80b2 abba 6ade 9d3b dda5 b13d
00000390: 6ed9 c1bd 48f5 76bc efde abbc a398 b5bb
000003a0: 40e1 5dbd 9463 b13c d355 bdbd bfdd 85bd
000003b0: a4c1 fa3b 7182 a73d f513 6e3b 64ba ec3c
000003c0: 163e 7b3d 1218 f8bb aa7a 58bd f8fb bebd
000003d0: dd20 45bd a650 8e3c b671 753d 4950 8b3d
000003e0: ee1d 323d c8df 803d 5ff2 45bd 877b 9ebd
000003f0: 8223 483d abe4 843d 0e6c 8ebc ee3b 483d

bias f4 [128]
-0.002625022 -0.064133435 -0.024620282 -0.04150693 0.19583012 0.011528314 -0.035629272 0.2241193
0.24044597 -0.28408614 0.16743258 -0.09365146 0.03060484 0.07242501 0.22857702 -0.22729123
-0.24713175 -0.25543302 -0.013374692 0.34435782 -0.09223011 0.013942803 -0.26723436 -0.07300687
0.0010149502 0.12967192 0.043642085 -0.01423564 -0.2898589 -0.0723136 0.006897282 -0.083174236
0.027478674 -0.07608265 -0.15259682 0.46670067 -0.060759712 -0.059517533 -0.084206045 -0.10166313
-0.07921634 -0.08224708 0.13179778 0.23803684 0.20014063 -0.041396666 0.08133222 -0.10190404
-0.11784591 -0.06317115 0.27285606 0.35891813 0.008480818 0.15743758 0.01821428 0.14843209
0.17861691 -0.033958435 0.23512362 -0.12891173 0.09554753 0.50311583 -0.043618765 0.13409501
-0.10574503 -0.036707796 -0.03211275 -0.0922333 0.23068568 -0.08096172 -0.04985598 -0.047311142
-0.05389058 0.055299327 -0.02465646 0.29667902 0.10441394 -0.08850386 0.3131631 -0.07764519
-0.019761758 -0.026537145 -0.03487105 0.25352028 -0.05198925 -0.07191931 -0.062161278 -0.016199738
0.052619953 0.36145726 -0.06264689 -0.050993335 -0.027625289 0.026942162 0.123950236 -0.0038978532
0.03604843 -0.27190638 -0.08344581 0.17004247 0.13110475 -0.059785176 0.134821 0.23539309
0.19048041 -0.063148044 -0.097067416 -0.08908342 0.33949494 0.023245847 0.21686274 -0.04110249
-0.0648832 -0.039938282 0.17518887 -0.025182463 0.0066631506 0.21175848 -0.10601734 0.48254305
-0.051482692 -0.043670308 0.46902156 -0.07555771 -0.043234173 -0.027059684 0.236383 -0.052590765
00000000: 9008 2cbb 6458 83bd 79b0 c9bc 2c03 2abd
00000010: b187 483e 41e1 3c3c 00f0 11bd 887f 653e
00000020: 7837 763e bd73 91be 7273 2b3e 56cc bfbd
00000030: 00b7 fa3c 9053 943d 1810 6a3e 08bf 68be
00000040: 1b10 7dbe 1ec8 82be 8621 5bbc ab4f b03e
00000050: 24e3 bcbd 5b70 643c f1d2 88be a084 95bd
00000060: 1408 853a b7c8 043e 0bc2 323d 9a3c 69bc
00000070: 6368 94be 2719 94bd 9802 e23b 4157 aabd
00000080: f51a e13c 38d1 9bbd 5742 1cbe 64f3 ee3e
00000090: 2ddf 78bd a8c8 73bd 3874 acbd c234 d0bd
000000a0: 2d3c a2bd 2871 a8bd fff5 063e eebf 733e
000000b0: aaf1 4c3e 8d8f 29bd 8291 a63d 11b3 d0bd
000000c0: 3259 f1bd e05f 81bd cab3 8b3e 1ec4 b73e
000000d0: 21f3 0a3c 5137 213e 1d36 953c 95fe 173e
000000e0: 5ae7 363e 0018 0bbd 3fc4 703e 7001 04be
000000f0: 6cae c33d 33cc 003f 97a9 32bd 3450 093e
00000100: da90 d8bd ea5a 16bd a988 03bd d0e4 bcbd
00000110: de38 6c3e 42cf a5bd c935 4cbd 54c9 41bd
00000120: 5ebc 5cbd 8c81 623d 58fc c9bc 50e6 973e
00000130: fad6 d53d 8341 b5bd ea56 a03e 7104 9fbd
00000140: 69e3 a1bc 6d64 d9bc f2d4 0ebd 69cd 813e
00000150: aef2 54bd 6e4a 93bd d39c 7ebd 50b5 84bc
00000160: 0588 573d ed10 b93e 034d 80bd 63de 50bd
00000170: 6e4e e2bc cfb5 dc3c 9fd9 fd3d 2073 7fbb
00000180: 85a7 133d 5037 8bbe a3e5 aabd 9d1f 2e3e
00000190: 5340 063e 4de1 74bd 840e 0a3e e30a 713e
000001a0: 4c0d 433e c353 81bd 48cb c6bd 5e71 b6bd
000001b0: 48d2 ad3e 136e be3c 4411 5e3e 165b 28bd
000001c0: 7ce1 84bd 5396 23bd b664 333e 744b cebc
000001d0: 8f56 da3b 37d7 583e 9f1f d9bd e20f f73e
000001e0: 84df 52bd a3df 32bd 9823 f03e 00be 9abd
000001f0: 5116 31bd 45ac ddbc 630e 723e 6a69 57bd

weight f4 [10, 128]
-0.006078527 0.02452931 -0.006996602 0.015321554 0.7716429 -2.1928384 -0.060467172 0.7571287
0.52460325 0.45691213 0.57962334 0.060459025 -0.6106401 0.5405085 0.4910888 0.50751483
-0.8093833 0.030023338 0.012643747 0.9699976 0.00505185 -1.0018885 -0.16838814 0.05396189
0.36237976 -2.7893844 -0.8121941 0.25101766 0.6265774 -0.015012747 -1.4221988 -0.027679643
-4.0678215 -0.019186892 -1.5049442 0.825709 -0.047386743 0.36045322 0.08326117 0.06677251
0.0691886 -0.04370977 0.8144359 -2.2447155 -0.091612644 0.08579865 0.555837 0.04026128
1.0069689 -0.042546973 0.61185324 0.7312549 -2.1980977 -0.6705167 0.8079425 0.58591515
0.07298748 -0.0894784 0.0612951 -0.1326085 -3.1134548 -2.7554793 -2.4999213 -1.0932599
-0.56724703 -0.077733755 -0.030371467 -0.11626457 -0.12365718 0.028144289 0.061171077 -0.08728651
-0.06619056 -1.2668879 0.06869047 0.4154411 -2.5559924 0.12155527 0.083522774 -0.06882596
-0.84586155 0.013160419 -1.1401047 0.38387015 0.055055443 -2.9888093 0.06550472 0.9643306
-1.8687723 0.6754368 -0.080973685 -3.0411072 0.15895772 0.66692877 -0.020944834 0.9201878
-1.4924152 0.8853707 0.014393711 -1.1734674 -2.2327707 -0.09144399 -0.8174732 0.80985254
0.67534244 0.0075721354 0.5617765 0.028336171 -0.18158898 -0.06401948 0.76568687 -0.0024225563
-0.0637507 -0.025040707 -2.0935748 0.10645825 0.5103247 0.6523991 0.024817001 0.645695
0.06391176 0.025432557 -1.6884928 -0.57570535 -0.04267554 0.08220265 0.85866976 -0.034591842
0.033803627 -0.07043739 0.017305372 -0.037449215 -1.1158353 0.7686324 0.027567308 -0.24618152
-0.36631247 0.12249993 -1.0585134 0.014315605 0.19665208 0.55100673 -3.8461218 -0.36968553
0.92948073 0.46441662 0.08189636 0.46686262 -0.07570803 -0.11080183 0.012265686 -0.0049736793
-0.54024976 0.16828029 0.36956632 0.6108182 -0.025076361 -0.037931573 0.2802106 0.014103609
0.5944518 0.058189135 0.7333447 2.2988 -0.07228255 -2.4051023 0.0380167 -0.06229394
0.07419316 0.07844094 -3.072187 0.3340055 0.58812666 0.077859536 -0.48672408 -0.014106426
-2.0971842 0.0060444996 -1.9181529 -3.7528746 0.32000408 0.3523824 -0.015511762 -0.569523
-0.3284337 -0.02850352 -0.49750498 0.24024935 0.42378408 -0.19732016 0.15007852 -0.501213
0.5653655 0.028645653 0.01666399 -0.057543207 0.268519 -0.04864256 -0.039318226 -0.037677113
0.038910776 0.39895377 -0.032307792 -1.414596 -0.055790726 -0.75512725 0.8126455 -0.053539984
0.7197802 0.056083918 0.11296037 -0.032960515 -0.07084532 0.1878146 0.085385494 -0.5574973
0.27906013 -1.508094 0.037474923 0.40131646 0.6082386 -0.55814683 -0.57336754 0.17110695
0.30621922 -2.0324237 -0.00038647896 -0.8897916 0.3571475 -0.0051420326 0.20601197 -1.1588093
-1.9326948 0.05825465 1.8331581 -0.056086633 0.26945361 -0.22691981 -2.1239266 -0.035595216
0.038648136 -0.0641511 0.31718618 0.041618913 -2.7093747 -0.55051136 -0.030221399 3.1384146
0.06866028 0.012868486 0.7916286 -0.75652856 -0.035208553 -0.022076495 -2.1176713 0.0360957
00000000: 612e c7bb b1f1 c83c c043 e5bb 4107 7b3c
00000010: 648a 453f 7757 0cc0 6dac 77bd 30d3 413f
00000020: 664c 063f 63f0 e93e 3262 143f e2a3 773d
00000030: e952 1cbf c45e 0a3f fe6f fb3e 7eec 013f
00000040: be33 4fbf 81f3 f53c b827 4f3c c351 783f
00000050: fd89 a53b e23d 80bf f16d 2cbe 2507 5d3d
00000060: d789 b93e 4685 32c0 f4eb 4fbf 6385 803e
00000070: 6067 203f 06f8 75bc 9c0a b6bf 6bc0 e2bc
00000080: 982b 82c0 d42d 9dbc 03a2 c0bf aa61 533f
00000090: 9a18 42bd 538d b83e d584 aa3d 07c0 883d
000000a0: c1b2 8d3d 0409 33bd df7e 503f 6ba9 0fc0
000000b0: 699f bbbd 34b7 af3d 554b 0e3f 03e9 243d
000000c0: 5be4 803f bc45 2ebd 6aa2 1c3f 8533 3b3f
000000d0: a2ad 0cc0 fca6 2bbf 52d5 4e3f 89fe 153f
000000e0: 767a 953d 7440 b7bd 9210 7b3d 86ca 07be
000000f0: d842 47c0 c659 30c0 b6fe 1fc0 f1ef 8bbf
00000100: 1a37 11bf e032 9fbd 95cd f8bc 1e1c eebd
00000110: fa3f fdbd da8e e63c 868e 7a3d 45c3 b2bd
00000120: eb8e 87bd 6229 a2bf 97ad 8c3d b2b4 d43e
00000130: 6195 23c0 f8f1 f83d fd0d ab3d a0f4 8cbd
00000140: 628a 58bf cc9e 573c f3ee 91bf a18a c43e
00000150: d181 613d a748 3fc0 5727 863d 5fde 763f
00000160: ee33 efbf 6de9 2c3f 88d5 a5bd 80a1 42c0
00000170: d0c5 223e d8bb 2a3f 8094 abbc 6d91 6b3f
00000180: 7607 bfbf a7a7 623f 9ad3 6b3c 2e34 96bf
00000190: b7e5 0ec0 fd46 bbbd ec45 51bf 7f52 4f3f
000001a0: 3ee3 2c3f ad1f f83b 96d0 0f3f 4221 e83c
000001b0: 76f2 39be a51c 83bd 0e04 443f c0c3 1ebb
000001c0: ba8f 82bd 2b22 cdbc 21fd 05c0 c806 da3d
000001d0: a4a4 023f a103 273f 064d cb3c 444c 253f
000001e0: 2be4 823d f057 d03c 8820 d8bf 6d61 13bf
000001f0: 8ccc 2ebd dd59 a83d c8d1 5b3f 2db0 0dbd
00000200: ac75 0a3d 7a41 90bd ffc3 8d3c 5964 19bd
00000210: b1d3 8ebf 18c5 443f d6d4 e13c 0217 7cbe
00000220: 4f8d bbbe 3ee1 fa3d 5e7d 87bf 008c 6a3c
00000230: 2a5f 493e c70e 0d3f dc26 76c0 6c47 bdbe
00000240: 73f2 6d3f 04c8 ed3e 47b9 a73d 9e08 ef3e
00000250: d00c 9bbd 12ec e2bd 04f6 483c 3ffa a2bb
00000260: cf4d 0abf ab51 2c3e cc37 bd3e 955e 1c3f
00000270: f16c cdbc 235e 1bbd c477 8f3e d312 673c
00000280: fe2d 183f bb57 6e3d 7abc 3b3f 8a1f 1340
00000290: e008 94bd 32ed 19c0 66b7 1b3d ee27 7fbd
000002a0: 95f2 973d a5a5 a03d b69e 44c0 c502 ab3e
000002b0: 788f 163f d274 9f3d e633 f9be a41e 67bc
000002c0: 4438 06c0 f010 c63b 0986 f5bf 192f 70c0
000002d0: 93d7 a33e 776b b43e 0c25 7ebc 42cc 11bf
000002e0: 7628 a8be 3780 e9bc f9b8 febe ed03 763e
000002f0: 3afa d83e 4c0e 4abe 2fae 193e 7f4f 00bf
00000300: cbbb 103f 4aaa ea3c ec82 883c 6db2 6bbd
00000310: 537b 893e 6c3d 47bd 260c 21bd 5153 1abd
00000320: e860 1f3d ab43 cc3e 2d55 04bd 7b11 b5bf
00000330: d184 64bd 0550 41bf 8909 503f be4c 5bbd
00000340: 8443 383f 40b8 653d c457 e73d 9b01 07bd
00000350: 5a17 91bd 7852 403e 97de ae3d 25b8 0ebf
00000360: f8e0 8e3e 3909 c1bf 4e7f 193d 5a79 cd3e
00000370: 86b5 1b3f b6e2 0ebf 37c8 12bf a936 2f3e
00000380: c4c8 9c3e 3b13 02c0 54a0 cab9 62c9 63bf
00000390: 0adc b63e 7f7e a8bb cdf4 523e dd53 94bf
000003a0: 8b62 f7bf 6e9c 6e3d eda4 ea3f 19bb 65bd
000003b0: d3f5 893e ab5d 68be 6aee 07c0 4acc 11bd
000003c0: 824d 1e3d a761 83bd 3a66 a23e 9878 2a3d
000003d0: 6566 2dc0 50ee 0cbf de92 f7bc c9db 4840
000003e0: c39d 8c3d 58d6 523c 2ca8 4a3f dbab 41bf
000003f0: d836 10bd c4d9 b4bc ed87 07c0 16d9 133d

bias f4 [10]
0.3966877 0.02971279 0.04940871 0.38527238 0.12800674 -0.483704 0.43768582 0.25697893
-0.5392668 -0.21562082
00000000: a61a cb3e 3d68 f33c ca60 4a3d 6c42 c53e
00000010: 3314 033e 0da8 f7be 5b18 e03e be92 833e
00000020: 640d 0abf b4cb 5cbe
