models/model_9734.pth (torch, 441391 bytes, 6 tensors)

weight f4 [128, 784]
000000 48 f3 ce 3b e0 f2 15 bb 9d f6 02 bd a0 8d 26 3c
       0.0063156225 -0.002288036 -0.03197347 0.010165602
000010 db 11 08 3d 90 14 72 3c 40 5c ae bb dc 8f 2e 3c
       0.033220153 0.01477541 -0.0053210557 0.010654416
000020 f3 ae 97 bc 98 2e 6a bc 5d 2c 09 3d 9a 56 b8 3c
       -0.01851604 -0.014293335 0.033489574 0.022502232
000030 1e 93 43 bb de 21 ad 3c 59 74 8d 3c 2e 5b 07 3d
       -0.0029842327 0.021134313 0.017267393 0.03304594
000040 b4 2d 2c 3c 92 02 ff 3c b8 8c a1 3c f0 07 1c 3c
       0.010508943 0.031129155 0.01972042 0.009523377
000050 e0 3f 0f bc f3 79 a9 bc 25 78 a8 bc 00 a4 04 bb
       -0.008743256 -0.020688033 -0.020565102 -0.0020239353
000060 00 f7 64 39 0c 4b af bc d4 7f da bb 78 63 8a 3b
       0.00021835789 -0.02139809 -0.0066680703 0.0042232834
000070 d5 96 eb bc 42 d1 98 3c b0 1f 25 3b 9a 76 e7 3c
       -0.028758446 0.01865447 0.002519589 0.028254796
000080 4b 1f d9 3c bf 58 52 3d 7b 5a 07 3e a4 be b8 3d
       0.02650418 0.051354166 0.1321811 0.09020737
000090 50 a7 b8 3d 25 db 82 3d f0 7b 45 3d 83 03 4b 3d
       0.09016287 0.06389455 0.0482139 0.049563896
0000a0 66 3e 7e bc 9a f4 3d be e9 7e 83 be 8c c7 4e be
       -0.015517807 -0.1855034 -0.25682762 -0.20193309
0000b0 cd 49 a4 b8 56 fa 04 3e 7b ed 93 38 64 25 27 3e
       -7.833876e-05 0.1298612 7.0537404e-05 0.16322857
0000c0 5f b1 6a 3e 60 19 96 3d 7b 47 c4 3d 8b ff a5 3d
       0.22919224 0.07329059 0.09583946 0.081053816
0000d0 00 6d 43 39 d2 99 06 bd 0e 90 48 bc 9c cd 23 3c
       0.00018637255 -0.03286154 -0.012241377 0.009997752
0000e0 b0 27 ab 3c 48 4e ef bc 34 94 10 bc b1 2e 0b be
       0.020892948 -0.029212132 -0.008824397 -0.1359203
0000f0 39 1e d8 bd 18 e9 e8 3c 35 ea 14 3e 05 76 66 3e
       -0.105526395 0.02843146 0.14542468 0.22505958
000100 2a f1 f5 3e 01 80 1f 3f 38 3f b6 3e 9c 1f 63 3c
       0.48035556 0.62304693 0.35595107 0.013862517
000110 a8 ea 02 3e 65 49 9e 3e fa 90 06 3d 78 ef 9c bc
       0.12784827 0.3091537 0.032853104 -0.019157156
000120 61 80 a7 bc e7 7f c3 3d 8d 1b c0 3e eb a3 3d 3e
       -0.020446958 0.0954588 0.3752102 0.18519561
000130 c9 0e f3 3d f5 04 b0 3d 1e d4 ba 3d 6a fc 2b 3e
       0.118680544 0.085946955 0.091224894 0.16795507
000140 81 78 40 3e 92 c6 0b 3e c0 df 81 bb 30 32 35 bb
       0.18795969 0.13649967 -0.0039634407 -0.0027648322
000150 fb 22 12 3d 80 6a 75 bb 77 51 67 be 09 9a 94 be
       0.03567789 -0.0037447512 -0.2258967 -0.2902377
000160 3a b3 66 bc 57 b9 93 3d 78 50 d3 3d e1 20 09 bc
       -0.014080817 0.07213085 0.103180826 -0.008369655
000170 27 f7 29 3e 63 53 ed 3d fd 39 3f 3e 5d 9d d6 3d
       0.16598187 0.115881704 0.18674465 0.104792334
000180 a3 37 6e 3d 87 4d ec 3d b3 40 63 3e f0 d4 f4 3d
       0.058158528 0.11538225 0.2219265 0.11954677
000190 1b 30 3e bc e1 a6 c3 bd e4 4f 95 be 19 20 25 3d
       -0.011608149 -0.09553314 -0.29162514 0.040313814
0001a0 ad a3 94 3d a2 58 26 3e 0c ae 80 3e aa 10 1a 3d
       0.07257781 0.16244748 0.25132787 0.03761355
0001b0 51 33 05 3e 1a cc 8c 3d 35 b7 21 bd a0 85 3c bc
       0.13007857 0.06874867 -0.03948136 -0.011506468
0001c0 5c 45 9b bc a3 ec ba bc 9a e2 7d be 06 a6 84 be
       -0.018953972 -0.022817915 -0.24793473 -0.25907916
0001d0 6c c6 99 3d a8 85 4c bb 09 5a ca 3d 42 e7 19 3d
       0.07508549 -0.0031207595 0.09880454 0.03757406
0001e0 eb 25 2e 3e 93 d9 92 3e da 47 e7 3e 9f f7 a2 3e
       0.17006652 0.2868162 0.45172006 0.31829545
0001f0 4c b4 77 3e e6 cf 12 3e af 4d 5f 3e fe c4 f2 3c
       0.24189872 0.1433712 0.21806978 0.029634949
000200 44 a7 89 bc ca ea fd bd bb e6 df bd 09 d8 e6 ba
       -0.016803391 -0.12398298 -0.1093268 -0.0017611991
000210 26 93 8f bd c0 40 f8 bd 08 17 40 be 58 11 f1 bd
       -0.07010488 -0.12121725 -0.18758786 -0.11770886
000220 9b a8 d8 3b c3 ed 8b bc e6 99 09 3a 42 0e 6a 3d
       0.006611896 -0.017081147 0.0005249068 0.057142504
000230 8e 6c be 3c 08 b1 ca 3c 92 7e 3b be bc 21 ec bd
       0.023245122 0.024742618 -0.18310001 -0.11529872
000240 f5 81 05 3e c8 03 19 3d 9d 12 72 bc 9e 99 ca 3d
       0.13037856 0.03735712 -0.014774946 0.098925814
000250 32 3b 6d 3e b6 df 3f 3e 57 d4 26 3e 48 37 f1 3c
       0.23167112 0.18737683 0.16291939 0.029445305
000260 a8 6f ee 3d af 3e 21 3d 75 86 ba 3c d5 91 c3 bd
       0.116423905 0.03936642 0.022769192 -0.095493
000270 02 9f 05 bc 2f 44 9f bd cf 7f 85 be a1 07 4d be
       -0.008155586 -0.07776677 -0.26074073 -0.20022441
000280 fa dc 0a be d1 7b 0d be 21 26 9c be bf 91 9b be
       -0.13560858 -0.13816763 -0.3049784 -0.30384633
000290 91 f0 cb 37 f7 07 96 3d d9 c2 1d 3d 20 80 26 3c
       2.4311508e-05 0.07325738 0.0385159 0.010162383
0002a0 3e cf fb 3c a9 c6 17 3d 74 62 28 3e 2c 2b 07 3d
       0.03073847 0.03705469 0.16443807 0.033000156
0002b0 1f fd b4 3d ba a0 0c be 6a 38 8a be ad fb a7 3d
       0.088373415 -0.13733187 -0.26996166 0.082023
0002c0 73 57 60 bd 4d b9 c5 3b 00 eb 58 bd 36 37 49 bd
       -0.054770898 0.0060340525 -0.05295849 -0.04912492
0002d0 4b 7d b6 3b c1 fc c2 bd d7 6b 0e be a1 70 c2 bd
       0.0055691353 -0.09520865 -0.13908325 -0.094941385
0002e0 6b c6 44 3e 3c 43 40 bc 2a 43 84 bd 37 62 2c be
       0.19216315 -0.01173478 -0.06458123 -0.16834341
0002f0 0e b8 52 be 0b 1d 82 be b4 f4 e4 be bc 35 c0 be
       -0.20578024 -0.25412783 -0.44717944 -0.37540996
000300 b6 00 9c bd ae 11 f1 3d 64 84 8c 3c 9a e6 7f ba
       -0.07617323 0.1177095 0.017152973 -0.00097618403
000310 f0 88 53 3c 87 bc 1f 3d 64 4a 16 3e 52 c1 0f be
       0.012911066 0.038998153 0.14676815 -0.1403859
000320 d1 0d 9f 3d 9d cd b9 bd 7b 94 38 3d 25 83 7b bd
       0.07766307 -0.09072421 0.045063477 -0.061404366
000330 3a 6a 85 3d e6 21 e2 bd 4b 6b 17 be 80 39 0c 3d
       0.06514402 -0.11041622 -0.14787023 0.034234524
000340 d5 13 1a bc 5f 92 79 bd 85 2b 1d bd fc c5 44 bd
       -0.009404142 -0.060930606 -0.03837158 -0.048040375
000350 f1 e0 b7 3d 34 75 c9 3d 42 71 22 be 00 6c 83 be
       0.08978451 0.09836808 -0.15863517 -0.25668335
000360 12 36 a3 be 4d ff 0e be b4 33 d8 be 22 d4 e7 be
       -0.3187719 -0.13964577 -0.42226946 -0.45279032
000370 f0 2b 10 be 04 e6 ee 3c 54 19 43 bd 7a 28 ce 3c
       -0.14079261 0.029162414 -0.047631577 0.025165785
000380 83 36 48 3d ad 1a ad 3c 0e 26 a2 39 c9 40 56 be
       0.04888011 0.021130884 0.000309274 -0.20923151
000390 64 9f 73 bd 52 e8 d3 3c aa 53 c2 bc e1 c2 29 be
       -0.05947818 0.025867615 -0.023721535 -0.16578247
0003a0 b5 90 85 bd 5f 5a 11 3d 06 84 68 bd ee 98 a5 3c
       -0.06521741 0.035486575 -0.056766532 0.020214524
0003b0 8b 66 4f 3b f3 dd e5 3d 89 fb 33 3d 44 10 d0 3c
       0.0031646814 0.11223974 0.043941054 0.025398381
0003c0 ef f7 05 3c 53 e6 0e be 55 7e 67 be 22 06 82 be
       0.008176788 -0.13955049 -0.22606786 -0.25395304
0003d0 69 19 69 be d8 03 03 be 72 01 aa be b3 a1 a5 be
       -0.227636 -0.12794435 -0.33204228 -0.3234993
0003e0 30 79 29 be b1 93 8e be 95 08 8a bd da 33 3a bb
       -0.16550136 -0.27847055 -0.06739918 -0.0028412254
0003f0 0d f9 3b bd 4a ae b0 bd db 2c 08 be 66 ae bf 3d
       -0.04589181 -0.08626993 -0.13298361 0.09359436

bias f4 [128]
000000 b5 d3 48 3d 55 0a 76 be 66 34 d7 bd bd 83 a5 bd
       0.049030025 -0.24027379 -0.10508041 -0.08081768
000010 5d fe 91 3d 75 bb 18 be f1 10 0d 3e fb 7a a3 3e
       0.07128594 -0.14915259 0.13775994 0.31929764
000020 c7 86 cd bd 18 c4 58 bd 7e e4 3e bc 7c 57 94 be
       -0.10035472 -0.052921385 -0.0116511565 -0.28972995
000030 63 53 86 3c 42 82 1a bd 79 81 6f bd 81 91 11 be
       0.016397184 -0.03772188 -0.058473084 -0.14215662
000040 fd c2 d0 3c e9 eb 4b be e2 8d 37 bd 7b 3a 84 be
       0.025483603 -0.19914211 -0.044813044 -0.25825867
000050 ce 2f 5e bd 9f fd d6 bd e2 04 3d bc 37 53 bb 3c
       -0.05424481 -0.10497593 -0.011536809 0.022866828
000060 53 15 8a bd 9e dd d8 bc 6e c4 68 be 83 5d 42 3e
       -0.067423485 -0.026472863 -0.22731182 0.18980984
000070 83 f1 ca bc ca a4 29 3e 52 1a e1 3d 3e 12 35 bd
       -0.024773365 0.16566768 0.10991348 -0.04420685
000080 49 17 1d 3e 80 d4 d3 bc 1e 3f 30 3e 3c b0 d6 3e
       0.15340914 -0.025858164 0.17211577 0.4193133
000090 e3 1c 60 be c0 41 c0 3d cc cd 16 be a3 55 f8 3d
       -0.2188602 0.09387541 -0.14726943 0.12125709
0000a0 1e 09 3a 3e 9d 29 1a 3e 5d 9d 0a be 96 f6 fd bd
       0.1816754 0.15054937 -0.13536592 -0.12400548
0000b0 01 1d 90 3d 44 cd 04 3d e1 fd 02 be 2d 3f 29 be
       0.07036782 0.03242232 -0.1279216 -0.16528006
0000c0 a2 7b 4b bc 2c cc 76 3d 68 11 fe 3c 7e ef 97 bd
       -0.012419613 0.060253307 0.03101416 -0.074187264
0000d0 d9 90 46 bd 6d cc 3a be c0 7b 8d bd eb c5 9c be
       -0.04847798 -0.18242045 -0.06908369 -0.3061975
0000e0 3c 4b 1b bd a3 02 78 bd 0d 94 10 be 61 64 8b 3d
       -0.037913546 -0.06054939 -0.14118977 0.06806255
0000f0 b0 91 ec 3d 71 a5 47 3e df 38 52 be 84 08 1d be
       0.11551225 0.19496705 -0.20529507 -0.1533528
000100 84 a4 81 3d db 3c e1 bc e9 c1 37 bd bc f2 24 bd
       0.06330207 -0.027494838 -0.04486266 -0.040270552
000110 3c 3b 74 3c d9 a9 2b be 58 49 71 be 57 4c dc 3d
       0.014906701 -0.1676401 -0.23563135 0.10756748
000120 8d 20 cb bd 85 67 76 be ec d0 ed bd 23 87 e0 bd
       -0.09918318 -0.24062927 -0.11612114 -0.10963275
000130 cc a1 30 be 86 e0 59 be e0 26 b3 3b 7e 70 71 3e
       -0.1724922 -0.21277055 0.0054672807 0.23578069
000140 2b cd f7 3c 70 f3 12 bd dd 4e 0b 3e 89 c0 c6 bd
       0.030249199 -0.03587669 0.13604303 -0.09704692
000150 f3 8e 21 bc 42 18 06 be cd bc 85 bd bb 12 d1 3c
       -0.009860742 -0.13095191 -0.065301515 0.025521627
000160 79 e5 d6 bd 3f 90 d3 3c b2 f9 44 3d 1d 5f c5 3a
       -0.10492987 0.025825618 0.04808969 0.0015058253
000170 cd 47 93 be 90 3d a8 bd 57 f7 c2 bd 25 6a c8 bd
       -0.28765717 -0.08214867 -0.095198326 -0.097858705
000180 33 ef f2 bc 39 92 82 3d d0 c0 d3 bd f1 8d bf 3a
       -0.029655075 0.06375546 -0.103395104 0.0014614445
000190 bb 6d 6c 3d 1c 83 13 bc 80 3a 9f be df 1e 26 3d
       0.057721835 -0.009003427 -0.3109932 0.040556785
0001a0 cc dc 77 bc 40 97 6a be 71 50 13 be 96 70 03 be
       -0.015128326 -0.2290926 -0.14386155 -0.12835917
0001b0 88 4c 02 bb 55 d0 ec bd c7 37 36 3e 97 57 c7 3c
       -0.0019882042 -0.11563174 0.17794715 0.024333758
0001c0 8e 8a f5 3e 3c 93 2b be 84 92 28 bd 3d 19 cd 3c
       0.4795727 -0.16755384 -0.041155353 0.025036449
0001d0 48 9b 8f 3c 5a 58 4d be db a7 a9 bc 1a b1 01 bd
       0.017530099 -0.20053235 -0.020709923 -0.031663038
0001e0 f9 4d ea bc d2 b3 6d be 3d 76 f9 3d cc cc 3e 3d
       -0.028601633 -0.23213127 0.12180755 0.04658203
0001f0 c6 36 ab 3e 63 7d 24 3d d3 9c b4 bd 5d de 53 3e
       0.33440226 0.04015864 -0.08818974 0.20690294

weight f4 [64, 128]
000000 5a f4 01 3c 40 13 41 3e f7 cf 2b be a7 fb 9f 3e
       0.007931793 0.18855 -0.16778551 0.31246683
000010 57 33 76 3e eb 6b 05 3f b7 7e be 3e 63 82 be 3d
       0.24043022 0.52117795 0.3720605 0.09302213
000020 16 29 34 3e 8a 66 b3 3e 29 13 61 3d 25 82 ca 3e
       0.17593798 0.3503917 0.054949913 0.39552417
000030 ed 0d 27 be 6c de 5b 3e 7e 4f 28 be 2b 7f 55 be
       -0.16313906 0.21471566 -0.16436574 -0.20849292
000040 6f 42 97 be 9d 95 08 3f 79 de 83 be d2 bd 23 bc
       -0.29542872 0.5335329 -0.2575567 -0.009993987
000050 08 e1 ba be 9c 66 89 3e f0 7b 1a 3e 66 e3 30 3e
       -0.3649981 0.26836097 0.15086341 0.17274246
000060 08 2e 40 be a1 73 83 3e 4e 16 ff 3c fe 67 82 3e
       -0.1876756 0.25674155 0.031138565 0.25469965
000070 71 c0 a2 be ad 3c 90 3e 78 46 b1 be a9 93 8a 3d
       -0.31787446 0.28171292 -0.34624076 0.06766445
000080 10 9e 0d be 67 ee 84 3d 97 33 ca be 33 58 31 3f
       -0.13829827 0.06490784 -0.39492485 0.69275206
000090 94 28 ad be e3 73 eb 3b d1 d2 bb bd f3 71 5f 3d
       -0.3382002 0.0071854456 -0.091710694 0.05455203
0000a0 27 fa 12 3e 53 ae 5f 3c cb d1 77 3e bf 04 8b bd
       0.14353238 0.013652402 0.24201123 -0.067880146
0000b0 a6 b6 9c 3d 19 1b 3a 3d 98 93 b3 3e 11 01 c0 3d
       0.07652025 0.045436 0.35073543 0.093752034
0000c0 b6 78 01 3d f6 95 0e 3e 47 f9 78 be 7a 9e 55 3d
       0.03160926 0.13924393 -0.24313842 0.05215309
0000d0 91 1a ca bb c8 57 36 3e be e2 d1 be d9 c9 28 be
       -0.0061677177 0.17806923 -0.40993303 -0.16483249
0000e0 71 1a 20 be fa 3a 81 bc ca e4 04 3e 0c 88 73 be
       -0.15635087 -0.015775193 0.12977901 -0.23782367
0000f0 fa b4 7d be 3b 92 92 be af 85 3d be c8 bb 67 be
       -0.24776068 -0.2862719 -0.18508027 -0.22630227
000100 ff b0 81 3d d0 b0 2d 3d 6f 3a 62 be 9f 5e 47 3e
       0.063325875 0.04240495 -0.22092603 0.19469689
000110 08 2b 4d be bd a9 eb 3c 63 44 b6 3e 8a 00 33 3d
       -0.20035946 0.028767461 0.3559905 0.043701686
000120 44 c0 cd bd fb 5c 72 3e 28 0b 13 3f f4 bd 75 3d
       -0.100464374 0.23668282 0.574389 0.059995607
000130 25 71 10 3e 06 0e 93 3e 76 d2 36 3e 67 23 32 bd
       0.14105661 0.28721637 0.17853722 -0.043490794
000140 59 d0 48 bd 8c 3b e4 bc 04 c8 8b 3e 9e 86 1b bc
       -0.04902682 -0.027860425 0.27301037 -0.009492544
000150 2b 87 c6 bd 32 1d e3 3d e3 cb 00 3e 97 a8 d9 bc
       -0.0969375 0.11089553 0.12577777 -0.026569648
000160 48 85 37 bd 2d 31 64 be 31 6a 8a be 46 65 36 3e
       -0.04480484 -0.22284384 -0.27034143 0.1781207
000170 18 7c 0c bf 0f b8 37 be 24 99 1b 3e 1e 9d e5 3e
       -0.5487685 -0.17941307 0.15195137 0.44846433
000180 2b ff 05 be 9c e2 19 3d 79 b3 82 3e be 76 1b bf
       -0.1308562 0.037569627 0.25527552 -0.6072806
000190 d2 ae 5c bd 10 8f 1e 3c 89 29 7f bd 67 6e 62 3e
       -0.05387766 0.009677663 -0.06229547 0.22112428
0001a0 9f e7 b9 39 11 13 e2 3d 0e c8 2b 3e b1 ab 59 3d
       0.0003545852 0.11038793 0.16775534 0.053142253
0001b0 9f d3 8b be 5c d6 14 bf d6 1c fe 3d 25 b9 18 be
       -0.27309892 -0.58139586 0.12407844 -0.14914377
0001c0 4f 47 71 3d 59 97 5a 3e ac 44 af 3d 75 e2 9f be
       0.058905896 0.21346797 0.0855802 -0.3122746
0001d0 e5 cf 66 3e 62 03 46 be 67 8b 89 3d 3a 08 b9 3c
       0.22540243 -0.19337228 0.06716042 0.02258693
0001e0 36 46 8e 3e 9f 67 c0 be 03 e8 aa be 7c 74 04 3e
       0.27787942 -0.37579057 -0.33380136 0.1293506
0001f0 50 9f 89 3e a1 86 a3 bd 54 8b 49 be 93 29 3a 3e
       0.26879358 -0.07984663 -0.19682056 0.18179922
000200 bc 24 58 3e 62 5d 19 bd b5 19 1b 3f 22 13 25 3e
       0.21107763 -0.037442572 0.605861 0.1612058
000210 dd 73 c2 3d 83 bc 7a be fd f6 7f bc 7d b2 6c be
       0.094947554 -0.24485974 -0.015622851 -0.23114963
000220 61 c2 9f 3e 49 10 21 3d 16 e8 77 3e d0 09 6e 3d
       0.31202987 0.03932217 0.24209628 0.058114827
000230 4f 68 84 be e2 4b ac 3d 16 5b 66 3d cd 71 a3 3d
       -0.2586083 0.08412911 0.05623921 0.0798069
000240 9c 84 23 3f 3c 6e 61 bd 92 0f f0 3d 0d 85 81 bd
       0.6387422 -0.05503677 0.1172172 -0.063242055
000250 cb c5 4d 3d e4 d8 d4 bd 10 48 ac 3e 10 26 93 bd
       0.05023746 -0.10392931 0.3364873 -0.07184994
000260 f6 c7 39 bf 02 52 45 3e c7 4f d9 bd df 3e 1d be
       -0.7257074 0.19269565 -0.106109194 -0.15356015
000270 d7 db 27 3f 4e 9c b4 bd 37 bb 89 bd 4e 4d 9c 3d
       0.65569824 -0.08818875 -0.067251615 0.07631932
000280 c6 58 d0 3e 3e 0f 91 bc 9a 0b 18 bf 01 5b ff bd
       0.4069273 -0.017707463 -0.593927 -0.124685295
000290 9b c5 8e 3e f7 20 50 3d dc 31 3e 3e b2 16 f4 3c
       0.27885136 0.050812688 0.18573707 0.029795978
0002a0 a7 0b c4 3d 5e 39 2a be e6 10 73 3e 14 91 8f 3e
       0.09572535 -0.16623446 0.23736915 0.28040373
0002b0 82 e7 38 3e f6 74 d9 be c0 32 e5 3d e3 31 b3 3d
       0.18057063 -0.42472047 0.111913204 0.087497495
0002c0 56 ab a4 3d 4a 9e d6 3e 8b 3b 38 3e 29 16 77 3d
       0.08040492 0.4191764 0.17991464 0.060323868
0002d0 30 15 92 3e f9 0f 09 3e 6c 0e 0d 3f 8f 11 31 bd
       0.2853179 0.13385 0.5510013 -0.043229636
0002e0 7d 5f bd be 24 d7 5a 3e 1a 90 86 be d5 83 97 bd
       -0.36986914 0.21371132 -0.26281816 -0.07398192
0002f0 d9 c3 42 3e 8b e1 da 3e ec 03 50 bd 2f 15 bc be
       0.19020022 0.427502 -0.05078499 -0.36734912
000300 ba f4 32 3e 74 f4 a3 bd b5 3e b7 be d5 20 59 3e
       0.17476168 -0.0800561 -0.3579003 0.2120393
000310 ba fb dd 3e f2 24 6a 3e 1a 8b 00 be 8b 36 eb 3d
       0.43356115 0.22865656 -0.12553063 0.114850126
000320 6b d0 a7 3d 7f 79 b9 bd d3 85 40 be f2 45 ad bd
       0.081940494 -0.09056377 -0.1880105 -0.08460607
000330 46 f1 6f bd da 0a ed 3d 66 b1 9d bd 41 b4 11 3e
       -0.058579706 0.115743354 -0.07699852 0.14228918
000340 ba 5c 4c 3e 14 31 61 3d 3e a1 b7 3e 1f 81 86 3c
       0.19957247 0.054978445 0.35865206 0.016418992
000350 d0 34 84 be a7 bf f8 3d 62 d6 27 3e 32 bd 7a 3e
       -0.25821543 0.1214593 0.16390374 0.24486235
000360 9f 13 d6 3b 5d 32 17 3e 72 53 da 3d 5d 94 e9 be
       0.0065331007 0.14765306 0.10660447 -0.45621005
000370 c9 4f 03 3e ef 04 93 be a7 50 58 3e 28 e0 5c be
       0.12823404 -0.28714702 0.21124516 -0.21569884
000380 04 c7 8f bb 97 25 46 3d d4 08 1f 3d 59 dd 94 3e
       -0.004387738 0.048375692 0.03882678 0.29075125
000390 02 fc 99 3d 6d 1a 91 bd 66 35 06 3e f5 7a 46 be
       0.0751877 -0.070851184 0.13106307 -0.19382842
0003a0 87 f0 c0 3d 85 a9 bc bd 56 8e 5d bd 6f 36 04 3e
       0.09420877 -0.09212021 -0.05409082 0.1291139
0003b0 39 04 c7 3e a3 4d b6 bd 39 b7 89 3d 4f ae 8a 3e
       0.3887041 -0.08901527 0.067244 0.27086112
0003c0 79 91 0e bf b2 3f 77 3d 09 02 7a bc 1f 3f 8e bd
       -0.55690724 0.06036348 -0.015259274 -0.06945633
0003d0 df 55 95 bb 7a 81 77 3e f3 22 86 bd 2c 83 3b be
       -0.004557356 0.24170485 -0.06549635 -0.18311757
0003e0 54 dd 8c bb 3f e5 32 3e 8e a3 be 3e 7e c7 9d 3e
       -0.0042988453 0.17470263 0.37234157 0.30816263
0003f0 a0 e4 b2 be 87 16 39 be 6a 00 a1 3e 85 77 1e 3e
       -0.34940052 -0.18075 0.31445628 0.1547528

bias f4 [64]
000000 60 99 a9 bd 54 7c 5d 3e bf af a6 bd 95 dc d6 3e
       -0.08281207 0.21629459 -0.0813899 0.41965166
000010 a7 4a 96 3d cb fe 02 3e 5d f5 82 3e a2 3b 71 3e
       0.073384576 0.12792508 0.25577822 0.23557904
000020 2e 58 0a 3e fd 0d 75 3e 16 9b ee bd 2c d5 93 3e
       0.135102 0.23931117 -0.11650674 0.28873575
000030 ba a4 54 be 75 7a d5 3b 27 f6 96 bd f4 07 60 3d
       -0.20765963 0.006514842 -0.073711686 0.054695085
000040 98 ed 14 be e8 49 2e be 3a 43 0b 3f 32 5f 38 be
       -0.1454376 -0.1702038 0.54399455 -0.18005064
000050 1a 2a 80 bc 3e 8b 29 3e 6d a5 20 be e5 f7 18 3e
       -0.015645076 0.16557023 -0.15688105 0.14938314
000060 d5 a9 34 3e 58 a4 3b 3e 4f a5 8f bb a6 2f 66 3e
       0.17642911 0.18324411 -0.00438372 0.22479114
000070 ac 04 fb 3b 94 f0 0a 3e 1e d7 be 3d 31 f4 3a 3e
       0.007660469 0.13568336 0.09318374 0.18257214
000080 1a f8 7a bc c2 e5 18 bd ce 0f 16 3e c7 d8 0a bc
       -0.015317941 -0.03732849 0.14654467 -0.008474535
000090 78 81 6f bd 01 97 ce 3d c0 4c a4 3d 88 f2 42 3e
       -0.05847308 0.100873955 0.080224514 0.19037831
0000a0 20 db 41 3e 9f 26 8d 3e f4 64 d1 3d cc 76 49 3e
       0.18931246 0.27568528 0.102243334 0.19674224
0000b0 1e 34 95 3d 6d dd a0 3e d9 5c 96 be 8f c6 41 3e
       0.07285331 0.31418934 -0.29367712 0.189234
0000c0 d7 c8 88 3d d6 fc ca 3e 4a f0 20 be e6 3e 82 bd
       0.06678932 0.39646024 -0.15716663 -0.06359653
0000d0 2c 70 d9 bd 04 0a b7 3e 42 37 46 3e 2d 12 ba 3e
       -0.10617098 0.3574983 0.19357017 0.36341992
0000e0 d7 40 38 be e2 ea 1a bd d0 9b e4 3d bc 34 87 3e
       -0.17993484 -0.037821658 0.111625314 0.2640742
0000f0 f0 44 8f bd 14 b7 10 3e 78 30 f5 ba 77 9b 19 be
       -0.06995571 0.14132339 -0.0018706461 -0.15000711

weight f4 [10, 64]
000000 97 33 97 be e4 8a b9 3e 12 19 55 bf 1c be 84 be
       -0.29531547 0.36238778 -0.8324138 -0.25926292
000010 3e cd 72 3e 7c 25 38 3e 4e df bd 3e 88 d4 a6 be
       0.23711106 0.17983049 0.3708443 -0.32584023
000020 b8 c3 c8 3d 43 32 c0 be 5d ec 6f 3e 7d e9 14 be
       0.098029554 -0.37538347 0.23430009 -0.14542194
000030 56 12 5d be 07 98 d7 be 3c 7b 16 bd 58 1a a5 3e
       -0.21589026 -0.42108175 -0.03673862 0.3224666
000040 26 21 1d bf b9 14 aa 3e c9 aa 49 be b1 75 c8 3e
       -0.61378706 0.33218935 -0.19694056 0.3915229
000050 27 35 a1 be 48 56 d5 bd bd e7 87 bd 87 f1 2b 3d
       -0.31485865 -0.104168475 -0.066359974 0.041978385
000060 5e d8 aa 3e be 4e 27 3d a8 c8 97 bd f4 9b 52 3e
       0.333682 0.04084658 -0.07411319 0.20567304
000070 0c 1e 8b 3e 74 92 0b bf 60 e5 f3 be b5 60 97 be
       0.2717136 -0.54520345 -0.47635937 -0.2956597
000080 90 41 17 3e a3 f8 04 bf a2 98 ec be 4f 99 1e 3e
       0.14771104 -0.5194189 -0.462102 0.1548817
000090 a3 57 fd 3d d5 25 5d bf 8f ea 16 3e d7 3d 52 3d
       0.12370231 -0.8638585 0.14737915 0.051328506
0000a0 eb 67 9a 3e 4b 80 c2 be 19 62 d0 3e 8e 87 a7 3e
       0.30157408 -0.37988505 0.40699843 0.32720608
0000b0 82 ed d5 bd 06 5a c1 3d 47 6c 86 be 1f 1c b9 bc
       -0.10445692 0.09440999 -0.26254484 -0.022596417
0000c0 2d 08 36 3e 73 1f a4 be de 17 38 bf 67 52 d7 3d
       0.17776556 -0.32055244 -0.7191142 0.10513764
0000d0 b0 0d 0a bf 4a 7c 29 bd 0d 5c 26 bf 98 fd 8a 3d
       -0.53927135 -0.041378297 -0.6498421 0.067866504
0000e0 d9 c7 e2 bd 00 9d 17 bf a0 9d e2 bd 1a 98 f3 3c
       -0.11073274 -0.5922394 -0.11065221 0.029735614
0000f0 4d bb 8f 3e bb 8e 57 3d 00 ec 00 bf 1c 21 97 3e
       0.28072587 0.052626353 -0.5036011 0.29517448
000100 b6 bc f8 be 79 25 7e bf 2d e4 29 bd 2f f7 2a bf
       -0.48581475 -0.9927593 -0.04147737 -0.6678342
000110 2f 98 00 3e ce e3 08 bf d9 e8 e6 be 65 61 4e 3e
       0.12558053 -0.534726 -0.45099524 0.2015434
000120 0b 2c bf 3e d2 6d 9e be 04 b4 a6 3e eb 13 7e be
       0.3733829 -0.3094316 0.32559216 -0.24812286
000130 33 60 2b bd 24 63 1c bd aa 9c 00 be 5b f2 53 bf
       -0.04183979 -0.038180485 -0.12559763 -0.8279168
000140 4e 99 36 3e 60 79 ef 3e 1f 94 b3 be e2 6d da 3d
       0.17831919 0.4677229 -0.35073945 0.1066549
000150 75 0c f5 be e5 da 3b 3b 80 16 a4 3d 70 da 27 bf
       -0.47861066 0.0028664407 0.08012104 -0.65567684
000160 e6 72 36 bf 76 04 9e be 1a b6 18 bd 61 c6 a5 bd
       -0.7126907 -0.30862778 -0.03728304 -0.080944784
000170 73 de 59 be 39 60 8f 3e e1 05 28 3e b4 d7 94 be
       -0.21276264 0.280031 0.16408493 -0.29070818
000180 71 52 e5 be ed dd 6c 3e 2e 66 1a 3e 7a 61 0e bf
       -0.4478946 0.23131533 0.15078041 -0.5561749
000190 19 cc 67 3d e3 6b 7c 3e e8 7e fd 3d 48 a0 01 be
       0.056591127 0.2465053 0.12377721 -0.12658799
0001a0 80 89 ad be 7a f7 23 be 56 54 a6 3e 08 a0 00 3c
       -0.33893967 -0.16012374 0.32486218 0.007850654
0001b0 bb d0 56 3d d3 34 d7 bc 3c 6a a3 3e 77 78 ec be
       0.052445155 -0.026270306 0.31916988 -0.46185657
0001c0 ba 04 41 bf c7 f1 af be d4 5c d7 3e 77 bd a2 3e
       -0.7539784 -0.3436415 0.4206301 0.31785175
0001d0 2a d8 05 3e c2 d6 88 3e c0 67 a0 3d 1f 71 96 3c
       0.13070741 0.26726347 0.07832289 0.018364487
0001e0 9c bf 40 3d 32 e5 af bd 93 0b a8 bc 6d e2 1f bf
       0.047057733 -0.085886374 -0.020513332 -0.62454873
0001f0 b6 4a 40 3e 01 a4 f0 be fc 1d 4a 3e ee bd 96 3e
       0.187785 -0.47000125 0.19738 0.2944178
000200 1d 8a a9 be 3b 43 39 3e cd 69 ff be cd fd bc be
       -0.33113185 0.18092053 -0.49885407 -0.36912385
000210 a3 8d eb 3d 11 3c 00 bb c1 5f 85 bc f7 43 6c be
       0.115016244 -0.0019567052 -0.01628101 -0.23072802
000220 72 20 53 bc 66 5b 26 bf 37 3c 3e bf d0 72 a0 be
       -0.0128861535 -0.6498321 -0.7431063 -0.31337595
000230 e5 68 57 3d b7 ab 7f 3e 31 3f e9 bd f5 5a b5 bd
       0.05259027 0.24967848 -0.11389006 -0.08855239
000240 6e 0c c5 be 31 01 b8 be 2f 99 06 bf 62 cd 45 3e
       -0.38486046 -0.3593841 -0.5257749 0.19316629
000250 77 e3 dc 3e f6 a4 02 bf c7 7a a3 bd c8 b6 4a be
       0.43142292 -0.5103296 -0.07982402 -0.19796288
000260 5b 4f 0c bd ec 88 77 3e b8 79 1a bc df 4d 1f 3e
       -0.034255367 0.24173325 -0.009428434 0.15557049
000270 29 48 52 3b 5b 10 54 3e b0 08 54 3e 3c 8f 1f 3e
       0.0032086468 0.20709364 0.20706439 0.15581983
000280 12 18 1c 3e 6f f3 a2 3e 6f b4 0b bf 96 87 f9 be
       0.15243557 0.3182635 -0.54572195 -0.48736256
000290 97 75 2d bc 0a 50 11 bf a0 68 f6 3d 16 12 80 3e
       -0.010587118 -0.56762755 0.120316744 0.25013798
0002a0 cc b5 1e 3e 3d 59 21 bf ad 77 4a bd d6 dd be bd
       0.15499038 -0.6302679 -0.049430538 -0.093196556
0002b0 7f 8c f6 be d0 e7 2e bf 50 a2 bc bd 92 31 66 be
       -0.48154065 -0.6832247 -0.09210646 -0.22479847
0002c0 7a c2 b9 bd 57 be 03 bf 7a 17 ba 3d b1 90 db bd
       -0.090702966 -0.5146231 0.09086509 -0.10720957
0002d0 01 0e 2b 3d 88 a5 46 bd 8f 90 09 3e 09 32 a2 be
       0.041761402 -0.048497707 0.13434051 -0.316788
0002e0 6d bc f3 bc 50 37 cf 3e 82 99 be 3e ce d4 57 3e
       -0.029752934 0.40471888 0.37226492 0.21077272
0002f0 bc bb 02 3e d1 a0 33 3e 89 20 dc 3c 9c fa c4 3d
       0.12766927 0.17541815 0.026870983 0.096181124
000300 28 3b 89 3e 5e 40 b8 be 54 41 bd 3e 38 34 25 3c
       0.26802945 -0.35986608 0.36963904 0.010083251
000310 83 8d cf bd 9d 54 3c bf 65 49 ec 3d d6 3a ce bd
       -0.10134413 -0.7356661 0.115374364 -0.10069816
000320 7d c6 64 bf d3 86 0e 3e 1b 78 44 bd 0d 4b 99 be
       -0.8936537 0.13918619 -0.047966104 -0.29940072
000330 02 4f 60 3e de c8 54 3e b0 5f e1 bd a5 34 8a 3e
       0.21905139 0.2077975 -0.11004579 0.2699329
000340 11 a9 ac 3d 21 4d 98 be 31 60 1e bf ec 23 5a 3e
       0.08430684 -0.29746345 -0.61865526 0.21302766
000350 7d 68 54 3e dc e0 66 3e 06 d8 9e 3d 64 3b 86 be
       0.20742984 0.22546715 0.07756047 -0.26217186
000360 49 81 65 3e f2 02 42 be 3d 0b 2d 3c 3c 14 22 be
       0.224126 -0.18946436 0.010561761 -0.15828031
000370 de c3 00 3e 69 52 ce bd d2 9f f2 be 45 8d af bb
       0.12574717 -0.10074312 -0.47387558 -0.005357417
000380 cd 7d bf 3b 4e 27 31 3e 60 27 e7 bd 2a 3e 5c 3e
       0.005843854 0.1730015 -0.11286807 0.21508089
000390 e3 05 24 bd 41 36 88 3e e8 80 3c 3e 15 7c d9 bd
       -0.040044677 0.26603892 0.18408549 -0.1061937
0003a0 47 d6 a6 be 5e e0 02 be 33 7e 61 bf 63 fd cc bd
       -0.32585356 -0.12780902 -0.8808319 -0.10009267
0003b0 7f 72 17 3d 0a 53 0f 3e bd 2f 0f 3e 7b 35 c3 be
       0.036974426 0.1399652 0.13983054 -0.3812674
0003c0 17 85 6a 3d b7 a0 3b be 52 69 29 bc bf 67 b3 bd
       0.05725583 -0.18323027 -0.010340052 -0.08760022
0003d0 e8 68 db 3c fb d3 54 bf 58 b7 69 3e ca fe 1a bf
       0.026783422 -0.83135957 0.22823846 -0.6054503
0003e0 88 a0 ec bc a7 0b 89 3e a7 fd a9 be 72 a9 c7 be
       -0.028885141 0.26766703 -0.33201334 -0.38996464
0003f0 c0 10 bf be 9f be 5d be 3c 49 52 3e b2 24 24 3e
       -0.37317467 -0.21654747 0.20535749 0.16029623

bias f4 [10]
000000 f7 44 0c be 43 0b f0 bd a9 5a 0a be 3a 0b 21 be
       -0.13698183 -0.11720898 -0.13511147 -0.15726939
000010 6a 14 f2 3c 44 85 8a 3d df c3 32 be 6a 6f 90 bd
       0.02955075 0.067637 -0.17457531 -0.070525005
000020 78 60 67 3e 25 8f e7 3c
       0.22595394 0.028266499
