models/model_9820.pth (torch, 218413 bytes, 8 tensors)

weight f4 [32, 1, 3, 3]
000000 9f 19 f3 3e af 44 62 be f8 34 a1 3d 65 6b 4f bf
       0.47480485 -0.22096513 0.07871431 -0.81023246
000010 f2 3b 0a bf e5 a0 22 3f fd 0e 8a bf 66 85 89 bd
       -0.5399772 0.63526756 -1.0785824 -0.06714897
000020 fb c8 9f 3f a2 39 ab 3d de 41 18 3f 36 72 e1 be
       1.2483209 0.08360602 0.59475505 -0.4403245
000030 5d 9b 82 be 31 e8 16 3f 73 b2 d6 ba 8f 50 32 bf
       -0.25509158 0.58948046 -0.0016380086 -0.6965417
000040 02 62 bc 3d 06 92 3c 3d 80 7c f2 3e de 1f 6f bf
       0.09198381 0.046037696 0.4736061 -0.93408
000050 01 78 85 bf 56 43 06 3f 40 fd 29 3e 20 9c a7 3d
       -1.0427247 0.52446496 0.16600513 0.08184075
000060 e7 ae 2e be 7f 64 be 3e 85 2f b1 3e 98 9f 9c 3e
       -0.17058907 0.37186047 0.34606567 0.3059051
000070 99 17 81 be ba 2e df bf d3 60 d4 3d 39 60 c8 bf
       -0.25213316 -1.7436135 0.1037003 -1.5654365
000080 8f 9e 96 3e 35 91 cc bf 9a 7b ae 3d 5f 8f 24 3f
       0.29417846 -1.5981814 0.08519669 0.64281267
000090 e1 7f 54 bf 43 b5 04 c0 3e 05 e2 bf d9 03 9f be
       -0.8300763 -2.0735633 -1.765785 -0.31057623
0000a0 c0 a3 6a bf 5d 69 48 bf 67 b0 af bd 36 b8 3a bf
       -0.9165611 -0.7828577 -0.08578568 -0.72937334
0000b0 6f f6 a0 3e a0 57 b5 be db 13 d6 3e ba 32 d4 3e
       0.31438014 -0.35418415 0.41812024 0.4144495
0000c0 0e 14 11 3f 54 9a 4e 3c 03 01 6a bd ea c7 d4 3e
       0.56671226 0.012610037 -0.05712987 0.41558772
0000d0 d9 23 40 bc a5 b4 0b bf a5 7b 70 be ea 64 59 3e
       -0.011727297 -0.54572517 -0.23484667 0.21229902
0000e0 43 d2 cb be b6 c0 97 bd 9c 7c c1 3e 91 a6 f9 3d
       -0.39808854 -0.074098036 0.37790382 0.12189973
0000f0 9e 08 d0 bd a9 8e f4 3d 25 d5 57 bd 19 7f a7 3e
       -0.101578936 0.11941273 -0.052693505 0.32714155
000100 da 90 fe 3d 16 c8 be bd bb d4 71 3e ff 27 f4 3e
       0.12429972 -0.09315507 0.23616306 0.47686765
000110 38 ab 8e be 89 48 fb be 87 12 d1 3e 1c 5e a5 be
       -0.27865005 -0.49078777 0.40834448 -0.32298362
000120 59 ed 26 3f b2 92 5c 3f b1 8d cb bd 9d df 7f 3e
       0.65205914 0.8616134 -0.09939135 0.24987645
000130 01 7a 06 3f ae 60 36 bf 57 19 82 bf 84 d9 ab bf
       0.52529913 -0.7124127 -1.0163983 -1.3425756
000140 dc 86 b8 bf 91 dc 30 3d 60 ce bf 3e d9 3c 4c 3e
       -1.4416156 0.0431791 0.3746214 0.19945087
000150 74 e2 01 3e aa d8 b1 be b5 aa ab 3e b0 2a 87 be
       0.12684041 -0.34735614 0.33528677 -0.26399755
000160 cd 83 b0 be f2 e2 b4 3e 4b 8b 60 bf e9 cc c6 3e
       -0.34475556 0.35329396 -0.87712544 0.3882821
000170 f0 7f 68 3e 71 e6 d0 be e2 aa 3f 3f 2b 5f 35 3f
       0.22705054 -0.40800813 0.7487012 0.7084834
000180 31 18 45 be 23 1a 55 3e 5a d7 45 be 26 b6 a4 3e
       -0.1924751 0.20810752 -0.19320431 0.32170218
000190 f3 a5 03 3f f3 62 b4 3e d0 cd 7d bf c9 d6 74 3d
       0.51425093 0.35231742 -0.9914217 0.059775148
0001a0 f9 2f 4a bf 2f 34 fc bf 43 8c 4a bf a2 1b 24 c0
       -0.7897945 -1.9703425 -0.7912027 -2.5641866
0001b0 51 e2 68 3e 36 d2 0b bf 0c 1e e1 bf e7 b1 8e 3f
       0.22742583 -0.5461763 -1.7587295 1.1148041
0001c0 d3 bc 0c bf 24 9a 50 bf d4 59 f3 3e 28 81 b2 bf
       -0.5497562 -0.814852 0.4752947 -1.3945665
0001d0 93 25 5f bf d1 ae 0f bf 1e b6 b5 be 63 0b ed 3e
       -0.8716671 -0.56126124 -0.35490507 0.4629775
0001e0 53 e4 46 be ab 05 96 3e 36 74 5e 3f 50 98 b3 be
       -0.19423036 0.293012 0.86896074 -0.35077143
0001f0 60 0d a2 3e 0b 48 35 3e d5 ef 18 bf c4 8f a0 bf
       0.3165083 0.17703263 -0.59740955 -1.2543874
000200 66 fc 4e bf 08 6c c7 bd 08 e2 68 3e 72 d8 19 3e
       -0.8085388 -0.09737402 0.22742474 0.15023974
000210 05 e3 0d 3f 78 e4 6e 3f c2 72 16 3f bf de f2 3d
       0.5542453 0.93317366 0.58768857 0.11858892
000220 fd 78 21 be 58 dd 86 3e 99 00 77 bf 02 23 61 3e
       -0.1576881 0.26340747 -0.96485287 0.2198601
000230 52 27 56 be 6e 56 b3 3e 02 89 13 3f e3 29 a8 3e
       -0.20913437 0.35026878 0.5763093 0.32844457
000240 cc 09 05 bf 4d 50 dd be 16 ae 59 3e ac 8c 21 3f
       -0.51968074 -0.43225327 0.21257815 0.63105273
000250 bd 15 4c 3f 45 a8 2f 3f 50 6b ac 3e 7a 84 c6 be
       0.7972067 0.68616134 0.33675623 -0.38772947
000260 67 6c 1c bf 9b dc 6f 3e 0b ac cd be 7d c2 a8 be
       -0.6110291 0.23423998 -0.4017032 -0.32960883
000270 24 8b 24 3f 7b 09 1e be 34 68 95 3d 12 69 17 3f
       0.6427481 -0.15433304 0.07295266 0.591447
000280 5f 0b 35 be 09 fa ee 3e e9 f9 32 3d b5 d1 24 bf
       -0.17680119 0.46675137 0.043695364 -0.6438249
000290 85 a2 60 bf 11 ca 0f 3f 9d 75 bb 3e a3 8e 33 bf
       -0.87747985 0.56167704 0.3661317 -0.7013952
0002a0 24 87 da 3e fe 9d 05 3f 39 0e 83 3e 9b 66 da 3e
       0.4268123 0.521942 0.2559679 0.42656407
0002b0 fa ab e9 3e e7 b4 22 bf c5 56 68 be 49 d0 40 3b
       0.4563902 -0.63557285 -0.2268935 0.0029421023
0002c0 4f 3e 1d bd 1a ab 0e bf e7 77 ce 3e 98 7d ae 3d
       -0.0383895 -0.5572983 0.40325853 0.08520049
0002d0 ab 32 bd 3e 0f 6c 63 3f 27 14 90 3f a3 18 68 bf
       0.3695272 0.8883676 1.125615 -0.9066259
0002e0 0d e9 95 3d 31 3d e6 3e 6e 9d 8e bf 9b f3 4f bf
       0.073198415 0.4496856 -1.1141794 -0.8123109
0002f0 24 e9 8e be 75 68 15 3f 85 cf 76 3f e2 95 a8 3e
       -0.27912247 0.58362514 0.964104 0.32926852
000300 e3 c3 f2 3d 4a a5 b3 bd 05 8f 28 bf 54 a2 8c 3d
       0.11853769 -0.08771761 -0.6584323 0.06866899
000310 f1 c2 b9 be fa b3 db be c2 e0 1f bf e7 99 95 be
       -0.3628154 -0.4291075 -0.6245233 -0.2921898
000320 c7 0d cb 3d c2 06 8b bf 04 68 c5 be 74 54 2e 3f
       0.09914737 -1.0861437 -0.3855592 0.68097615
000330 19 9d 8e bd 7b ef 0a 3f 0b f3 77 3f c7 78 b1 be
       -0.06963558 0.5427167 0.9685523 -0.34662458
000340 22 a0 71 3e f2 ba 4d bf 07 ae 49 3e 90 63 8f 3e
       0.23596242 -0.8036338 0.19695292 0.28005648
000350 8c 3c 97 bf 82 b5 af 3e 42 3d 63 3f 84 da 96 be
       -1.1815352 0.34318167 0.88765347 -0.2946359
000360 e8 15 ae 3c 2b 31 bb 3e 64 2e 26 3f 6c e2 dd 3d
       0.02125068 0.3656095 0.64914536 0.10834202
000370 56 b1 09 3f e3 87 26 3f 62 3f 35 bf a1 9b a3 bf
       0.5378622 0.65051097 -0.7079984 -1.2781869
000380 e7 eb 22 bf 4e ea 73 3e 60 cd 7f 3e 8d 90 16 3e
       -0.6364121 0.23819849 0.24980688 0.14703579
000390 2b ea ba be 8c fe eb 3c 19 cd 50 3d 25 db 2e 3d
       -0.3650678 0.0288079 0.050976846 0.04268946
0003a0 5f 90 47 be c8 7c 87 3e 4d e6 8a bd 04 69 dc be
       -0.19488667 0.26462388 -0.06782208 -0.4304887
0003b0 54 09 25 3c 9c ee d8 3e ab 9c cc 3d 0a 96 87 3e
       0.010073025 0.42369545 0.099908195 0.26481658
0003c0 3b 04 40 3e 8e ed 3f bf 07 66 b5 3e b2 68 e0 3e
       0.18751614 -0.74971855 0.35429403 0.43829876
0003d0 a9 c2 6b be c0 81 ca 3d 9e 0f 10 bf e3 10 fa 3d
       -0.23023476 0.09888029 -0.5627383 0.12210252
0003e0 1c a6 93 3e 89 79 99 3e cc 17 70 3e 82 59 c8 bc
       0.2883767 0.29975536 0.23446578 -0.024456743
0003f0 c8 7f 1f 3f 41 b8 0d 3e b9 68 33 bf b3 db ad 3e
       0.62304354 0.13839819 -0.7008167 0.3395668

bias f4 [32]
000000 fb 91 3b bd 85 02 11 be 0f 59 11 bd 39 4e 31 3f
       -0.045793515 -0.14161117 -0.035485324 0.69259983
000010 13 90 28 3f a8 9a af be 8e 8a 07 be 3a f8 e2 bd
       0.6584484 -0.3429768 -0.13236448 -0.11082502
000020 39 d5 fa 3e 59 e2 24 be 50 22 b6 bd ec 4a 47 3f
       0.489908 -0.1610197 -0.08893263 0.77848697
000030 4e 7c f2 3e 5e 85 2f be 44 09 97 3d 9d f9 0d be
       0.47360462 -0.1714072 0.07374814 -0.13864751
000040 51 28 d3 be 77 0d d2 bd 01 bb b4 bc 30 b8 b1 bc
       -0.41241696 -0.102564745 -0.022061827 -0.021694273
000050 47 73 0c 3e d2 4e 9a bb 80 8c d7 bc 2c 7f 39 3e
       0.1371585 -0.004709103 -0.026312113 0.18114918
000060 22 12 a7 3d 36 c3 48 be 1f 47 1e bc 87 71 c9 be
       0.081577554 -0.19605717 -0.009660511 -0.39344427
000070 a4 62 1f 3d 9c ed 24 be 00 2e 3f be 31 22 7a bd
       0.03891243 -0.16106266 -0.18669891 -0.061067764

weight f4 [64, 32, 3, 3]
000000 46 cc 8a 3e fe 6c 5f 3e d4 9e f2 3d 26 39 c9 3e
       0.27108973 0.21818921 0.118467 0.39301413
000010 a7 f0 89 be a8 ab 20 be 49 65 3e 3f d4 37 06 bf
       -0.26941416 -0.15690482 0.743733 -0.52428937
000020 9a f3 bb 3d cb f6 85 3e 92 f4 5e 3e 19 bb 80 3e
       0.09177323 0.2616485 0.21772984 0.25142744
000030 87 bc a9 3e 74 1d a8 be 41 d0 0a 3e 8a 0c ac 3e
       0.33151647 -0.3283497 0.13556005 0.33603317
000040 52 bc 41 3e 21 d3 4b bd 3d 8a 3b be d8 91 5b 3e
       0.18919495 -0.049761895 -0.18314452 0.21442354
000050 9d 87 a3 3d 87 bc 17 3e fd 97 09 3e 8b 07 bc 3e
       0.079848506 0.14818011 0.13436885 0.36724505
000060 e1 d9 84 3e 39 04 1a 3e 91 c1 32 3e e0 fe 07 bf
       0.25947478 0.15040673 0.17456652 -0.53123283
000070 bb 1e 3f be e5 82 1e bf cc d7 48 bf cc 14 3e be
       -0.18664066 -0.6191848 -0.7845428 -0.18562621
000080 0d 02 1b bf 23 a3 6f bf 24 6c b7 be 1e f3 90 be
       -0.60550004 -0.936083 -0.35824692 -0.28310484
000090 51 03 09 bf 28 66 c3 be ed bd 3e bf 87 c4 a4 be
       -0.53520685 -0.38163877 -0.74508554 -0.32181188
0000a0 7d 7c 89 bd d0 5d b5 be 4e 7d 10 bf cb 2d 47 bb
       -0.067131974 -0.35423136 -0.564412 -0.0030392285
0000b0 38 91 26 be f3 55 79 3e d5 e7 02 3e 75 a3 27 3e
       -0.16266334 0.24349193 0.1278375 0.16370948
0000c0 d1 ab 81 bd 2d fb 96 bd 99 d3 97 3a 87 62 81 be
       -0.063315995 -0.07372127 0.0011583447 -0.25270483
0000d0 d4 1b 32 bc 25 10 4b bc 98 72 42 bd 0b 67 0b 3e
       -0.010870893 -0.012393986 -0.047472566 0.13613527
0000e0 ad 48 14 3d 4a 79 b6 3d 6c be 86 be e8 42 92 3d
       0.03620212 0.08909853 -0.26317155 0.071416676
0000f0 8a 48 2a 3e 95 04 01 bb fd f6 30 be 4e 38 95 3e
       0.16629234 -0.001968657 -0.17281719 0.2914452
000100 42 0c 4c 3e 18 94 2d 3e 3d 43 24 3e ac a4 6e be
       0.19926551 0.16951025 0.16041274 -0.23305005
000110 a2 1a 59 3c d9 14 39 3e 75 26 33 3d ad 5c 11 be
       0.013250979 0.18074359 0.043737847 -0.14195509
000120 87 f0 f4 be 38 73 49 3e ab 9e 7f 3e 0f af 25 bf
       -0.47839758 0.19672859 0.24962871 -0.64720243
000130 9b 32 0a be dc d4 53 bd 6a 8c 26 bf f1 5d 7a be
       -0.13495867 -0.05171667 -0.65058005 -0.24449898
000140 f1 80 51 3d 01 75 5e 3e ee a6 46 3d 01 d4 eb 3a
       0.05114836 0.21724321 0.04849904 0.0017992259
000150 7b b8 57 3e 45 ef 66 3c a0 aa a9 3d 3a 90 6e 3e
       0.21066467 0.014095132 0.08284497 0.23297206
000160 51 8b 43 be 36 aa a6 bd 8f b3 13 3e 13 c8 7b bd
       -0.19096114 -0.08137934 0.14423965 -0.061470103
000170 ea cd 32 3e a4 1d 0e 3e 7c 3d 33 be 65 1c 5c bd
       0.17461362 0.13878495 -0.17503923 -0.053738017
000180 11 d5 8a 3e fd 13 44 be 04 c5 e7 bd 85 9c 2f bf
       0.27115682 -0.1914825 -0.113168746 -0.68598205
000190 77 55 d8 bd 7e 22 45 be 49 7f 3b bf f2 a9 f8 bd
       -0.10563176 -0.19251439 -0.73241097 -0.121417895
0001a0 b5 fd e0 3c d0 87 0f bf 52 fe 65 be 93 99 23 3e
       0.027464727 -0.5606661 -0.22460297 0.15976553
0001b0 b6 71 c8 3c a8 d0 e6 be fa 3b 24 bf 9f 62 1f be
       0.024468284 -0.45081067 -0.64154017 -0.15564965
0001c0 33 5b 88 bd a3 b4 69 bf c5 e2 9b bd c4 03 31 3e
       -0.0665802 -0.91291255 -0.07611612 0.17286593
0001d0 80 9e 31 be 16 68 0d 3e 04 b4 97 bd 76 7d 49 3e
       -0.17345619 0.13809237 -0.07407382 0.19676766
0001e0 1d d2 f4 3d 72 52 92 be bf be 7c be 01 60 43 3e
       0.119541384 -0.28578526 -0.24682139 0.19079591
0001f0 a1 37 83 be 1b 7e b3 bd 33 fb 01 bf 1d 8a f4 3b
       -0.2562838 -0.08764287 -0.50773925 0.0074627534
000200 a4 08 c5 3e 98 c8 94 be 95 5f f7 bd 94 ba ca 3e
       0.38483155 -0.2905929 -0.12078778 0.39595473
000210 d3 32 c7 be 5f f3 77 be 5c 11 81 3d d8 a2 14 3d
       -0.38905963 -0.24213932 0.06302139 0.036288112
000220 c8 36 c7 bc 8c 37 8e 3e 8c a1 02 3e 30 dc 43 be
       -0.024318114 0.27776754 0.12756938 -0.19126964
000230 30 67 0d bc e7 eb 37 3e 57 6a 0d be df 85 7a be
       -0.008630559 0.17961083 -0.13810097 -0.2446513
000240 c2 dd 50 be de 69 8b bd 86 ba d3 3d 2f 4f 0b be
       -0.20397094 -0.06807302 0.10338311 -0.13604425
000250 d4 f5 90 be 72 ce db 3d 1d 1d be be 6a 50 94 bd
       -0.28312552 0.10732736 -0.37131587 -0.072419
000260 b2 72 1b be a5 51 91 ba 8c f7 a3 bc 10 e0 9d 3d
       -0.15180472 -0.0011086954 -0.0200155 0.07708752
000270 84 3c 93 3d cf 5b 4a 3e 0e 27 e2 3d b7 40 e5 bc
       0.07189277 0.19761585 0.11042605 -0.02798496
000280 f5 80 e1 3c 83 73 fa bd 2c 61 38 be 3f f8 80 bd
       0.027527312 -0.12229063 -0.18005818 -0.06297349
000290 07 17 d6 3d e2 48 0e 3e d1 b1 e9 3d d7 62 60 3e
       0.10453611 0.1389499 0.11410869 0.21912704
0002a0 7a df c4 3e e0 e7 0c 3e f0 e4 8c bd b8 35 09 3e
       0.3845175 0.13760328 -0.06879604 0.13399398
0002b0 7e af 03 3f fc a2 ea 3e 0e 22 5f 3e 46 19 05 be
       0.51439655 0.45827472 0.21790335 -0.12997922
0002c0 1d 54 0c 3e 3b 4f af 3e 4d 00 c7 3d ed 2c d7 3d
       0.13703962 0.34240136 0.09716854 0.10506616
0002d0 7d c6 3b 3d 56 bc 69 3d a8 64 a5 3e a4 e4 8f 3d
       0.04584359 0.057064377 0.32303357 0.070260316
0002e0 b2 5e fa 3d e3 d1 d0 3e d5 90 ca 3e 92 2a d6 bd
       0.12225093 0.4078513 0.39563623 -0.104573384
0002f0 2a 6a a5 3e c8 13 ab 3e 70 ce 8e 3e e6 69 ab 3e
       0.3230756 0.3341353 0.27891874 0.33479232
000300 24 93 2e be 40 a5 5b bd bf ba 93 3d 17 05 7b be
       -0.17048317 -0.05362439 0.07213353 -0.2451366
000310 80 19 33 3d 02 3c 25 3e 62 29 fe 3d 6c 96 bc 3b
       0.04372549 0.16136172 0.12410237 0.0057552364
000320 09 bf 7a 3e da e1 b7 bd c1 7b 5a be c8 3a 06 be
       0.24486937 -0.08978625 -0.21336271 -0.13108361
000330 58 af 94 3e 1a e9 44 bf c4 8d 21 be 6c 3f ae 3d
       0.29040027 -0.76918185 -0.15776736 0.085081905
000340 c9 87 b8 3c 8d 1b a9 3c 24 69 b8 3e 2a d6 1b bb
       0.022525685 0.02064302 0.36017716 -0.0023778775
000350 51 80 c1 bd 4e a5 01 3f 6b 56 32 3e b5 0a 77 be
       -0.094483025 0.5064286 0.17415778 -0.24125178
000360 69 8a 0c bd 48 a2 a9 3e 29 70 2e 3f 7e c6 2f be
       -0.034311686 0.33131623 0.6813989 -0.17165563
000370 af 7d 7e 3e fc 07 48 3f 1a 9f 5e 3d 56 1e 2f be
       0.24852632 0.78137183 0.05435095 -0.17101416
000380 be 0f be 3e c3 f6 5e 3e ad 5c ed 3d e9 b0 e4 bd
       0.37121385 0.2177382 0.11589942 -0.111665554
000390 6e a7 51 3e 1c d6 01 3e e6 ae d9 3d 75 05 41 3e
       0.20474026 0.12679332 0.10629062 0.18849738
0003a0 23 11 a7 3d 00 1b 74 bc 5a b1 e4 bd ee 1f 0f be
       0.081575654 -0.014899015 -0.111666396 -0.13977024
0003b0 07 03 07 ba 57 fb f5 3e af 97 58 3e 80 5a 8a 3e
       -0.00051502924 0.4804332 0.21151613 0.2702217
0003c0 3d 8b c3 3d 3f ac 8e 3e 13 8b 0b 3e a4 0f fd 3d
       0.09548042 0.27865788 0.13627271 0.12356499
0003d0 97 db 61 3d 0b 4d 89 3d 36 33 02 3e 64 43 3b be
       0.055141058 0.06704148 0.12714848 -0.18287426
0003e0 c0 3d 83 3d e2 ae 8c 3d b6 95 3d 3d c5 84 60 be
       0.06408262 0.06869294 0.046285354 -0.21925648
0003f0 35 04 48 3f fc 61 50 3e fc d1 1f bd 9e f0 98 3e
       0.7813142 0.20349878 -0.039018616 0.29871076

bias f4 [64]
000000 2e 15 06 3e 10 d5 34 3d ea 11 d7 bc 30 92 78 bd
       0.13094017 0.044148505 -0.02625366 -0.06068629
000010 f2 46 be 3d 3f 54 a5 bc b9 76 66 bd a2 0f 75 bd
       0.092908755 -0.020181773 -0.056265566 -0.05982936
000020 0b 1f d0 bd 88 52 f7 3c a1 71 81 3d 54 38 04 3e
       -0.10162171 0.030190721 0.06320501 0.12912112
000030 4b cf d0 bd 68 49 a8 3a 13 87 73 bd c7 f3 ee bc
       -0.10195788 0.001283926 -0.05945499 -0.029168976
000040 f5 6c 6e be b3 89 e3 bd ea c1 19 3d 16 2e 35 bd
       -0.23283751 -0.111102484 0.037538446 -0.044233404
000050 cb 90 b6 bd 24 b9 89 3c cd 05 b1 bd 2b e6 41 3d
       -0.08914336 0.016811915 -0.086436845 0.047338646
000060 63 a6 28 3c 7e d1 be 3b 6b de ec 3d a6 31 87 bd
       0.010293576 0.0058233133 0.1156586 -0.066012666
000070 8f 13 9e 3d 4b 98 b8 bb 2c df ec ba 20 76 17 3c
       0.07718574 -0.005633389 -0.0018071881 0.009244472
000080 56 9f c2 bd 26 a4 99 bd e3 95 c1 bd c8 d0 ac 3b
       -0.09503047 -0.07502012 -0.09452417 0.005273912
000090 91 d9 5e bd 87 da 80 bd e3 0d dd 3d 62 4c 64 3d
       -0.054406706 -0.06291681 0.10793664 0.055736907
0000a0 65 15 3e bd ce a6 68 3d 72 cd 3f bd fe d1 55 bd
       -0.046407122 0.056799702 -0.046826787 -0.052202217
0000b0 d9 96 07 be 72 dd 38 3e 0c 62 00 bd 91 06 07 3e
       -0.13241138 0.18053225 -0.031343505 0.13186099
0000c0 7b 3e 53 bd 45 04 92 bd e8 34 87 3d 64 59 18 be
       -0.051573258 -0.071297206 0.06601888 -0.1487785
0000d0 9c f0 24 bd b2 5e c0 3b 7e 38 88 ba 46 68 9f bd
       -0.040268525 0.0058706636 -0.0010392813 -0.077835605
0000e0 f8 0b 8a bd 49 90 f3 bd 5b 78 2c bd 2d 80 1c bc
       -0.06740564 -0.118927546 -0.042106967 -0.009552044
0000f0 23 4a ba 3d 1e eb 55 be 72 59 ce bd 14 c3 0f 3d
       0.09096172 -0.20890471 -0.10075654 0.03509815

weight f4 [128, 256]
000000 2c 68 ab 3b 69 71 65 bc 1a ba 8b bd 8f 64 9b bd
       0.005230924 -0.01400409 -0.068226054 -0.075875394
000010 a3 3b b9 bb 57 c5 25 bd 01 db b1 bd 04 65 56 bd
       -0.005652861 -0.0404714 -0.0868435 -0.05234243
000020 16 a2 53 bd 53 bf 10 3c 5d 43 23 bc 34 25 b6 bd
       -0.05166825 0.008834678 -0.009964791 -0.08893815
000030 e7 e1 00 bd bc 44 23 bd 07 ff 85 bd 7b 1b 83 3c
       -0.031465437 -0.039860472 -0.06542783 0.016004315
000040 a5 77 a9 bc 15 f0 ee bb 67 63 01 bb 6f 68 dc 3c
       -0.020686934 -0.0072918036 -0.0019743086 0.026905267
000050 d0 9c 47 bd 32 b7 30 bc 87 eb 8a bd 52 7e 95 bc
       -0.048733532 -0.010785865 -0.067832045 -0.01824871
000060 8b 17 75 bd db 7a 26 3d 55 28 31 bd 2b 54 fc bc
       -0.059836905 0.040644508 -0.043251354 -0.030801853
000070 44 8f 53 bd 9e 0e ab bd e1 b7 84 bd e9 29 19 3d
       -0.0516503 -0.083523974 -0.064803846 0.037393484
000080 8a d2 ab bb 7f 7d f3 3a 70 a1 cf 3a f4 a1 23 bc
       -0.005243604 0.001857683 0.0015840959 -0.009987343
000090 90 37 e5 3c db f9 b2 bd 55 16 25 bc 2c 7e 3a bd
       0.027980596 -0.087390624 -0.010076125 -0.045530483
0000a0 2c 9b 3a bd 43 49 04 3c 5f 18 0a bc 0e 13 68 3c
       -0.04555814 0.008074108 -0.008428662 0.014164699
0000b0 68 82 52 bc 37 1c 0a bd e9 3b 20 bd e6 a7 78 3c
       -0.012848474 -0.033718314 -0.039119635 0.015176749
0000c0 89 ab fb bc 47 30 cc 3b b6 e1 8f bd 09 e3 9e bb
       -0.030721443 0.006231341 -0.07025473 -0.004848842
0000d0 83 7e 75 bc 0a 19 0a bd 59 e1 50 3d 2d b5 e3 bc
       -0.014983776 -0.033715285 0.05099616 -0.027796352
0000e0 2b bb 28 3c d7 88 1f 3d dc 84 c9 3c dd a7 4b bd
       0.010298531 0.03894886 0.024599485 -0.049720634
0000f0 35 db 2e bd fd be 81 bd e5 a1 2c bd bd cb 6c 3b
       -0.04268952 -0.06335256 -0.042146582 0.003613218
000100 15 d0 39 3d bb 34 83 bd 8c 60 9e bc 1d 1b 39 bd
       0.045364458 -0.06406542 -0.019333147 -0.045191873
000110 d2 e1 3e bd e0 24 de 3c e0 3a 3f 3c a4 84 3e 3c
       -0.046602078 0.027117193 0.011671752 0.011628304
000120 0e b9 2b bd 3a 23 0a bc eb 5b a1 bc a0 39 a1 bc
       -0.04192453 -0.00843125 -0.01969715 -0.019680798
000130 90 66 99 bb 38 c2 0f bd f9 fb 43 bc dd c5 bf bc
       -0.004681416 -0.03509733 -0.01196193 -0.023409778
000140 76 b5 57 3d 68 d7 0b 3c 96 45 7e bd f2 ee 3e 3d
       0.05266329 0.008535244 -0.06207808 0.046614595
000150 fb bb bc b9 b0 13 9f 3c 2c a4 c8 bb 59 de 7f bd
       -0.0003599821 0.019418567 -0.0061230864 -0.062467907
000160 2f 66 4b 3c 92 25 e5 bc 76 80 09 bd fd 66 85 bd
       0.012414499 -0.027972016 -0.033569776 -0.06513784
000170 7c bf 59 bc 0e 66 c5 3c ab 7d e1 bc 81 3d 05 3b
       -0.013290282 0.024096515 -0.027525743 0.0020330849
000180 df bb 84 bd d0 8f fa bb 82 07 c7 bc f0 0b be 3c
       -0.06481146 -0.0076465383 -0.024295572 0.023199052
000190 8b 6e 87 bd c1 29 14 3d 4f 4b 22 bb 78 9c f2 3c
       -0.06612881 0.036172632 -0.0024764126 0.029615626
0001a0 46 84 51 bd 82 5a 63 bd 85 c4 a0 bb 25 e4 ad bc
       -0.051151536 -0.055506237 -0.0049062395 -0.021226952
0001b0 16 c7 18 3d 27 cc 2b bc 03 56 bf 3c 89 83 4c bd
       0.03729924 -0.010485685 0.023356443 -0.04993013
0001c0 16 70 67 bd 49 3d 82 bd 75 7c 12 bd 90 e4 c2 bc
       -0.056503378 -0.063593455 -0.035763223 -0.023790628
0001d0 10 52 b1 3c 09 f1 28 bd a4 52 48 3c ec 3b 47 bc
       0.021645576 -0.041245494 0.012226734 -0.012160283
0001e0 23 33 7e bd 0b 76 18 bd 01 9e f7 3c 74 95 8c bd
       -0.062060487 -0.03722195 0.03022671 -0.068644434
0001f0 2b 40 84 bd b0 5b 84 bd ec 41 e6 bc fc b6 6a bd
       -0.064575516 -0.064628005 -0.028107606 -0.057303414
000200 ee b1 43 bd 68 c8 7a bd 00 9b 00 ba 3c 4b 62 bd
       -0.04777711 -0.06122628 -0.00049059093 -0.05524753
000210 66 43 30 bd cd 20 eb 3c 47 41 a0 bc 5b a5 42 bd
       -0.043033026 0.028702164 -0.019562377 -0.047520977
000220 ba c1 2a 3a cd 46 1a 3d 2e e2 a9 bd a0 de a4 bd
       0.0006513853 0.037665177 -0.082950935 -0.08050275
000230 b9 b2 91 bd c5 82 a3 bc 11 98 bb bc c1 53 82 bb
       -0.07114167 -0.019959817 -0.02289966 -0.0039772694
000240 85 3b 92 bd cb 31 24 bd 6f 60 9f bd 13 e1 8f bc
       -0.07140259 -0.04008655 -0.07782065 -0.017563378
000250 20 94 49 bc 93 21 84 bd a1 34 30 bd 24 4a 0c 3b
       -0.012303382 -0.06451716 -0.04301894 0.0021406496
000260 09 43 ba 3c ac aa c7 bc a9 b0 9f 3c d6 2c 92 bd
       0.022737043 -0.024373375 0.019493418 -0.07137458
000270 25 b7 62 bc ff 63 07 bd 96 8f 9c bc 94 a2 02 3d
       -0.01383761 -0.033054348 -0.019111436 0.031893328
000280 10 82 2a bd b4 f3 a9 3b 2b 2e 86 bb f6 7b a2 bd
       -0.041627944 0.0051865224 -0.004094859 -0.079338
000290 db 20 65 3a c9 77 ab bc 71 28 56 bd 3a 25 da bc
       0.00087405526 -0.020931141 -0.05228466 -0.02662908
0002a0 f4 b3 b0 3c 62 a0 cc bc c4 f4 23 bd 5d eb b8 3c
       0.021570183 -0.02497882 -0.04002835 0.022573167
0002b0 7c fa 9e bd a2 12 30 bd a0 35 73 3c fd 9e 7d bc
       -0.0776262 -0.04298652 0.014844328 -0.0154798
0002c0 cb 48 03 bd 5c 2f 95 bd 5a 55 08 bd c1 5e 99 3b
       -0.032051843 -0.07284424 -0.033284523 0.004680485
0002d0 21 4a a1 bd 93 65 80 3c 81 b0 2e bd 73 09 fe 3b
       -0.07875467 0.015673434 -0.042648796 0.0077525913
0002e0 e8 c4 d0 3c 3c d1 a1 bc 3a d7 fd 3c d5 a7 08 3d
       0.025484517 -0.019753091 0.030986417 0.033363182
0002f0 2a c6 83 3c 55 cd b3 ba 66 c2 e2 bc 1a 8f 5c 3c
       0.016085703 -0.001371781 -0.027680587 0.013461852
000300 e8 2f 13 bd ab cd bc bc 6a 47 a2 bd 7b cd 45 bd
       -0.03593436 -0.023047289 -0.079237774 -0.048291665
000310 35 b4 98 bd 8e c5 82 bc 84 b9 8f bd e1 d1 a6 3c
       -0.07456247 -0.015963342 -0.07017806 0.02036375
000320 80 58 90 3c f1 6f ce bc 0f bf 5d bd 98 58 08 3b
       0.017620325 -0.025199862 -0.054137286 0.002080476
000330 d1 1e 1f bd ef 91 41 bc a2 25 0b bc 1d e3 82 3c
       -0.03884775 -0.011814578 -0.008492859 0.015977437
000340 f4 ba ba bc c1 06 5c bc 25 c0 80 bc 6b 42 82 bc
       -0.022794224 -0.013429345 -0.015716622 -0.015900811
000350 47 55 f1 3c c9 67 66 bd 70 54 97 bd c7 9e f3 bc
       0.029459609 -0.05625132 -0.07389152 -0.029738797
000360 dc c9 6f bd 52 d5 46 3d a0 84 17 bb 80 e4 c9 3c
       -0.058542117 0.04854328 -0.0023119822 0.02464509
000370 13 db f8 3c 28 2e 4e 3d b8 f5 fa bc 13 5c a1 bc
       0.0303779 0.050336987 -0.030634746 -0.019697225
000380 b4 a1 ae bd bd 16 c2 3c 1a 18 3b bd 6a 40 b0 bc
       -0.08526936 0.023692483 -0.045677282 -0.02151509
000390 fa 63 3b bc 7e eb 42 b9 b7 56 78 bd 04 eb 59 bc
       -0.0114374105 -0.0001858901 -0.060629573 -0.013300661
0003a0 00 65 5e bb 2c 16 cc 3c 18 62 54 3d e8 d6 7f 3c
       -0.0033934712 0.024912916 0.051851362 0.0156152025
0003b0 02 5b 6d bd d0 5e d0 3b d8 7e 03 3c b0 c5 a7 bb
       -0.05794812 0.006358959 0.008025847 -0.0051200017
0003c0 80 86 de 3c 19 d6 08 3d 02 b7 e3 bc 5a 4d 05 3c
       0.027163744 0.033407304 -0.027797226 0.008136118
0003d0 d8 8f fd 3c 80 f7 15 bd 98 6b 90 3b 42 9f e9 bc
       0.03095238 -0.036612988 0.0044073574 -0.028518323
0003e0 5e d3 59 bd ba 29 aa bd f1 84 82 3b d2 1c 6a 3b
       -0.05318009 -0.0830874 0.003983133 0.0035722745
0003f0 c5 94 4c bc 25 80 b3 bd 97 78 8a bc df 87 0b 3d
       -0.012486641 -0.08764676 -0.016903205 0.034065124

bias f4 [128]
000000 32 60 97 bd 14 48 5c be 0f 6a f2 bd bf 5d ed 3c
       -0.07391395 -0.2151187 -0.11836635 0.028975366
000010 5e 43 ca 3e 36 43 fa bc b9 61 13 bc eb 51 3b 3e
       0.39504522 -0.030549627 -0.008995467 0.18292968
000020 b1 cd bb bd 1b e1 d0 3d 9f c0 57 bd 6e 49 a5 be
       -0.09170092 0.101991855 -0.052673932 -0.32282585
000030 e9 be 78 bd 1d 1c 78 bd b8 20 fd 3d d2 a4 6b bd
       -0.06072894 -0.060573686 0.12359756 -0.05753023
000040 1c 9b 07 be 55 b6 5c 3d 06 19 63 3c 78 53 97 be
       -0.13242763 0.053884823 0.0138609465 -0.2955587
000050 20 ae ba bd 6d b8 4b bc ef cc 9b 3e b9 c0 b2 bd
       -0.09115243 -0.012434107 0.3042979 -0.08728165
000060 a0 ed 55 bd 2f 66 4c 3e d2 72 76 3e d9 45 28 3e
       -0.05222857 0.19960855 0.24067238 0.16432895
000070 e2 14 88 bd 6a c0 58 be c2 0c 1f bd af 45 4c 3e
       -0.06644608 -0.2116715 -0.038830526 0.19948457
000080 cc 19 17 3e 70 68 cf 3e e2 bc 8f 3e d4 c6 33 bc
       0.14755934 0.40509367 0.28073794 -0.010972697
000090 0b 35 2a bc c7 05 ea bd ef 0f 48 3e 59 79 09 be
       -0.010388623 -0.11426883 0.19537328 -0.13425197
0000a0 5a d3 cd bd 7f fc b5 be 32 06 bc bd 61 49 59 be
       -0.10050078 -0.35544202 -0.09180869 -0.21219398
0000b0 64 51 36 be d7 5a f9 3d ce 81 e0 3d af b9 9d 3c
       -0.17804486 0.121755295 0.10962258 0.01925358
0000c0 97 ec c0 bd 09 50 a3 3d b4 21 99 bd e9 95 5c 3e
       -0.09420126 0.0797425 -0.074771315 0.21541561
0000d0 90 99 c0 bc 6c 87 2c 3e a7 3a 63 3d c3 fe 0d 3c
       -0.023510724 0.16848534 0.055475857 0.008666697
0000e0 fc a2 19 3d 09 3b c6 bc 54 74 9b be e2 db cd 3c
       0.03750895 -0.024198072 -0.3036219 0.025129262
0000f0 ec 14 3a be 63 1b ee bc 59 e9 6c bd 95 9f 12 3e
       -0.18172044 -0.029065793 -0.057839725 0.14318688
000100 6e 2b 63 bd ad 8a 1c 3e 90 92 ab be 0d 6a 39 be
       -0.05546134 0.15287276 -0.33510256 -0.18106861
000110 d5 6c 8b 3e 5e ac c8 3c 3b af 63 3e e6 02 23 bd
       0.2723147 0.024496254 0.22234814 -0.039797686
000120 70 ce 3a 3e c1 06 17 be bb 0a 8b be 50 65 e8 3e
       0.18242812 -0.1474867 -0.27156624 0.45389795
000130 e7 74 b8 be 8e 71 2c bd 45 8e fd bd a7 a9 8d bd
       -0.3602669 -0.04210048 -0.123806514 -0.06917124
000140 83 b2 23 3e 69 6e 46 be f9 57 22 be 45 48 b5 3c
       0.15986066 -0.19378056 -0.15853871 0.022129187
000150 da c3 aa bd 0a f7 f5 bc ba 6a b1 bd ca 30 92 be
       -0.08338137 -0.030025024 -0.086629346 -0.28552848
000160 83 9d ee 3d 88 4a b3 3c 8b 39 26 39 a1 6f 4e bd
       0.11651137 0.021886125 0.0001585243 -0.050399426
000170 f8 38 71 bd fa f7 a7 3b 4d 20 ba bd f4 66 32 3c
       -0.05889222 0.0051259967 -0.09088192 0.010888804
000180 3d 87 49 bc 2c 2e b8 bd 45 a3 18 bd 5c ad 01 3c
       -0.01230031 -0.089931816 -0.03726508 0.007914867
000190 fd 5e 2f be 3c bc 95 bd 92 cc 14 3d 94 d8 bd be
       -0.17126079 -0.073112935 0.036327906 -0.37079298
0001a0 9a 97 3b 3e 44 23 99 3e 3b ef 2e 3e 6b 29 93 3d
       0.1831955 0.29909718 0.17083447 0.07185634
0001b0 d3 2a eb bd 97 01 67 bd f9 d1 c5 bc 65 4f 28 be
       -0.114827774 -0.056398 -0.024147974 -0.16436537
0001c0 dc c0 40 3d 7d a7 b7 bc 7d ad f5 bc d3 3a c9 bd
       0.047058925 -0.022418732 -0.029989952 -0.09825673
0001d0 49 d8 10 3e 03 12 72 3d 55 a5 87 3d 2a 60 c9 3b
       0.14145006 0.05909921 0.066233315 0.006145497
0001e0 fd c8 8f 3c c4 3d 97 bd ff 36 30 3e 22 f5 c1 3d
       0.017551893 -0.07384828 0.1720848 0.094705835
0001f0 82 4c 14 bc 80 3c 81 3c 7f 42 17 be 86 77 7e be
       -0.009051444 0.015775919 -0.1477146 -0.24850282

weight f4 [10, 128]
000000 10 4a da 3b ca 7e 47 3e 66 48 17 3e e1 d8 91 3d
       0.006661661 0.1948196 0.14773712 0.071214445
000010 e9 f4 f3 be 60 54 34 3e 68 9a 4a 3d 8f 42 91 be
       -0.4764779 0.17610312 0.04946366 -0.28371093
000020 7f 2e 94 3d 14 2b c5 be 53 69 f8 bc bf 62 93 3e
       0.07235431 -0.38509429 -0.03032366 0.28786275
000030 a9 46 c2 bd 1a 80 95 3c 95 f7 53 bf 11 a0 3d 3e
       -0.094861336 0.01824956 -0.82799655 0.18518092
000040 f1 2f 34 3e db e0 5e 3e 6a b6 e7 be 23 60 41 3e
       0.17596413 0.21765463 -0.45256358 0.1888433
000050 fa 72 45 bb f5 24 bd be 9a d5 81 be 99 67 39 3e
       -0.0030128346 -0.36942258 -0.25358278 0.18105926
000060 ca fa 90 3e a2 ef 0c bf 91 fd 2d 3e b7 bd 83 be
       0.28316337 -0.5505315 0.16991259 -0.25730678
000070 d0 3d 6f bf f1 c7 07 3e a1 15 85 3d 61 4f e2 be
       -0.93453693 0.13259865 0.06498266 -0.44201186
000080 e0 62 c2 be 5d 22 31 bf 74 9a 63 be fb 98 a8 3c
       -0.3796606 -0.6919306 -0.22226888 0.02058076
000090 6f ce 4a bd 42 40 85 3e 52 de 09 bf 2e 89 22 bf
       -0.049513277 0.26025587 -0.5385486 -0.6349057
0000a0 30 df ab be 90 83 9c 3c 41 f9 9c 3d b8 26 03 3e
       -0.33568716 0.019105703 0.07664729 0.12807739
0000b0 1f ac 68 3e 96 6d d9 be 6f 87 54 3c 79 0d cd bb
       0.22721909 -0.4246642 0.012971743 -0.0062577096
0000c0 06 51 61 be 94 61 84 3e 4d 8f 34 bc e9 a9 ea be
       -0.22003564 0.25855696 -0.011020494 -0.45832756
0000d0 38 02 88 bd 78 e0 82 3e 05 d0 e7 bd c3 f3 98 bd
       -0.06641048 0.2556188 -0.113189735 -0.07468369
0000e0 b2 44 eb be 7b 3f 29 bc 9d a9 33 be 55 ce c3 bd
       -0.45950848 -0.010330076 -0.17545171 -0.09560839
0000f0 d9 71 0d bf a9 f4 59 3d 6c 71 72 be 01 fe 30 3e
       -0.5525184 0.05321184 -0.2367608 0.17284395
000100 03 93 ac 3c e7 fe dc be ed 89 64 3e ec 89 b3 be
       0.021066194 -0.43163225 0.2231824 -0.35066164
000110 53 56 30 3e 2a 56 3a 3b fd b8 b3 be d8 8a a2 3d
       0.1722043 0.0028432705 -0.35102072 0.079366386
000120 d1 b8 bf 3d 1f 2a 0c bf 41 9f ba 3d 80 e4 f8 be
       0.09361423 -0.5475177 0.091124065 -0.48611832
000130 8a 27 ad 3e 9c bd 6e 3d 1b 39 22 3e a0 2f 8b 3d
       0.33819228 0.058286294 0.15842097 0.06796193
000140 97 82 50 bf 4c 10 1c bf 80 b7 9f 3e f3 75 d9 be
       -0.81449264 -0.6096237 0.31194687 -0.424728
000150 f6 ee a1 bd 08 c0 9c bd 2b 37 83 bd 88 2f 44 3e
       -0.07906906 -0.076538146 -0.06407007 0.19158757
000160 23 3a 28 bf f8 78 cc bd 71 d9 9f bc f0 1b 23 3d
       -0.6571371 -0.099840105 -0.019512864 0.039821565
000170 69 93 19 3d 96 51 91 3d 63 e6 90 be 93 19 84 bd
       0.037494097 0.070956394 -0.2830077 -0.064501904
000180 bc ba 41 be 62 9f d6 bc ee 4d 14 be 48 b0 74 bd
       -0.1891889 -0.026199047 -0.14482853 -0.059738427
000190 c5 ba e9 3e 0c 47 ad be bc 40 6c be cc 50 21 3e
       0.45650306 -0.33843267 -0.23071569 0.15753478
0001a0 9e d4 49 bf 8f 92 13 bf ee cf a9 be 8a 1d d4 be
       -0.78840053 -0.57645506 -0.3316645 -0.41428787
0001b0 5e d7 ae 3d 88 eb 08 bd f0 60 4d 3d 06 26 53 3e
       0.08537172 -0.033427745 0.050141275 0.20619974
0001c0 eb 56 af be 2b 4a d6 bb 2c c0 18 3e b1 a6 86 3e
       -0.34246 -0.006539603 0.14917058 0.2629905
0001d0 9b 95 0e bd a4 4c a4 3e d7 30 e5 be 73 56 b2 3e
       -0.034810644 0.32089722 -0.44763824 0.3483158
0001e0 39 95 88 3d 38 23 41 3e 4e 4d fa be 5e 1c c4 be
       0.06669087 0.18861091 -0.48887104 -0.38302892
0001f0 42 e0 9c bc da 1b 68 3d 8a 3c c0 3e ca 99 a5 bd
       -0.019149903 0.056667186 0.37546188 -0.080859736
000200 b2 ed b2 3c 7d ad 9e 3a d8 86 4a 3e 9b 7d 8e ba
       0.021841858 0.0012106147 0.19778001 -0.0010871174
000210 47 76 a3 3e 69 56 06 bf 2e 1d 5b bd 9b 55 30 bf
       0.31926176 -0.524756 -0.053494625 -0.68880624
000220 f1 e9 89 bd 57 c6 28 3e 02 d3 28 3d 71 9e 38 3d
       -0.06734074 0.1648191 0.041216858 0.045072976
000230 07 91 5a 3d b2 0d 2d bd 5d d2 4d 3d e3 65 e8 3d
       0.053360965 -0.04224939 0.050249446 0.11347558
000240 31 e6 fb bd 99 8b 16 bf 81 fb 84 3e 91 19 99 be
       -0.12299765 -0.5880676 0.25973132 -0.29902318
000250 5d 64 9f 3d 4b 14 fa 3d 38 bc 37 bc 0f 50 15 3e
       0.07782815 0.12210902 -0.011214308 0.14581321
000260 d0 49 b4 3d db 67 86 3d 6a db cd 3d ce 2e 34 be
       0.08803141 0.065627776 0.100516155 -0.1759598
000270 8f c2 88 3e 70 ed 38 be 6a 9c 5a bd 6a 10 2e bc
       0.26710936 -0.18059325 -0.053371824 -0.010624031
000280 ee b0 f6 be 45 44 b9 be 96 ea 90 be e9 a8 53 3d
       -0.48181862 -0.36184898 -0.28303975 0.051674757
000290 34 08 4a 3c 6c d6 02 bf 35 da 9d 3e a3 4a 3c 3e
       0.012331057 -0.5110843 0.3083054 0.18387847
0002a0 e1 22 52 3c 42 c2 d3 bd a8 2a 5f bb fb d4 06 bf
       0.012825699 -0.10339786 -0.0034052525 -0.5266873
0002b0 4e ac e7 be 18 28 e9 be 2f 63 dd 3e 1a c2 5a 3c
       -0.45248646 -0.45538402 0.43239734 0.0133519415
0002c0 64 e2 93 3d e8 0c bc 3d f8 26 cd 3e 06 06 01 3d
       0.07220915 0.09182149 0.40068793 0.031499885
0002d0 45 b4 3f bd 8f 1e 1c 3e d3 81 4a 3f c1 01 5e bc
       -0.046802778 0.15246032 0.79104346 -0.013550223
0002e0 e9 21 3e 3e b9 00 53 3d d1 95 eb 3d a7 e0 98 be
       0.18567623 0.05151436 0.115031846 -0.29858896
0002f0 a1 06 f7 be da 6f e9 bb 87 52 df 3c 3b 16 32 3c
       -0.48247245 -0.0071239294 0.027261032 0.010869558
000300 00 54 9f bd c0 4e f5 3e 98 b8 a7 3e 63 0c 92 3e
       -0.077796936 0.47911644 0.3275802 0.28525075
000310 31 a3 5f 3d 43 78 60 bd 50 e2 20 bf f4 5d 9d bd
       0.05459899 -0.05480219 -0.62845325 -0.07683936
000320 6f 54 3f bc 84 d5 7e 3e ee 73 ca bd bb 0c 45 bc
       -0.011677845 0.24886137 -0.09885393 -0.012026961
000330 ed 89 2b be ca c7 f1 3b f9 72 9f be ff 87 e5 3b
       -0.16751833 0.007378553 -0.31142405 0.0070047374
000340 05 c4 36 3e b6 71 d5 3d 6f a7 a6 be 52 98 d5 3c
       0.17848213 0.10422079 -0.32549617 0.026073609
000350 62 6b 0d bd 46 ca 2f bd 22 9d 8f bd 41 31 fe be
       -0.034526236 -0.042917512 -0.070123926 -0.49646953
000360 d1 2d e6 3d 9e 85 e4 3c 32 89 9e bd b2 51 3b bf
       0.112392075 0.027895745 -0.07741012 -0.7317153
000370 8b 4d b6 3c 8e 96 61 3d 7c ed 2c 3e 7a e2 83 bc
       0.022253772 0.05507522 0.16887468 -0.016099203
000380 f2 ae 97 be e1 c0 15 ba a5 5f 8d 3d 45 f6 5b bd
       -0.2962566 -0.000571264 0.06903008 -0.053701658
000390 90 45 b5 3e 75 c6 cd 3e ce 34 5f bd 52 d6 45 be
       0.35404634 0.40190473 -0.054493718 -0.19320038
0003a0 97 a5 0a 3e 4b 0e e4 3b d2 f3 18 3c bd fc 89 3c
       0.1353973 0.0069597117 0.009335475 0.016844148
0003b0 cb f5 66 be 91 a0 af bc 91 cf 8b bd 1d ab 4b bd
       -0.225547 -0.021438869 -0.068266995 -0.049723733
0003c0 6c 88 a7 bd 8e 4a 73 bd 1a 6b d2 be a9 44 50 be
       -0.08180317 -0.059397273 -0.41097337 -0.20338692
0003d0 ac 2d 98 be cc 8e 7e 3e 00 d4 23 be 36 e1 37 3e
       -0.29722345 0.2485916 -0.1599884 0.17957005
0003e0 83 13 0a 3b e4 79 cf be bd 64 b8 3e 4e b2 f5 3d
       0.0021068759 -0.40522683 0.36014357 0.119968995
0003f0 69 9d 75 3d a8 13 ea bc 4e 72 34 3e 78 00 ac 3e
       0.05996457 -0.028573826 0.17621729 0.33594108

bias f4 [10]
000000 8f 96 2f be e8 75 c5 be a6 77 9b 3d 79 b9 3b bd
       -0.17147277 -0.38566518 0.075911805 -0.045831177
000010 5d 26 57 3d 54 8e 86 be 32 76 04 be 73 ab 10 be
       0.05252682 -0.26280463 -0.12935713 -0.14127903
000020 65 c3 ff 3e 8c ca 6d 3e
       0.49953762 0.23221797
