models/model_9882.pth (torch, 382253 bytes, 8 tensors)

weight f4 [32, 1, 3, 3]
0.17012957 -0.6037403 -0.80616564 0.31761414 -0.1810306 -0.7637969 0.7602067 0.10625613
0.4551451 -0.20912173 0.34714252 0.67425346 -0.16440412 0.13792725 0.6277444 -0.6221682
-0.18375476 -0.36664632 -0.5848579 -0.32010773 -0.2850225 -0.19776933 0.32961828 0.38603246
0.6637775 0.32158682 0.65429735 0.26314512 0.014266415 0.24555607 -0.3201051 0.2717342
0.31342295 -0.25648475 0.20235746 0.15183212 -0.2622296 0.19329973 -0.46653557 -0.0042602792
0.63754684 0.38757837 -0.23623715 0.41671127 0.22865035 0.3244366 0.5890761 0.21160874
-0.5106775 -0.17717992 0.3514037 -0.37747335 -0.3694322 0.69875896 0.027900117 0.09536846
0.41539833 -0.71602297 -0.066297404 0.50753117 -0.80842507 0.11058074 0.12807053 -0.7581649
-0.79957145 -0.15037036 0.27227518 0.11980459 -0.24228117 0.6067001 0.37908542 0.39490634
-0.21180996 -0.5574996 -0.065292865 -0.1711177 0.25641802 -0.2394454 -0.08549778 0.0038902475
-0.09759223 -0.18545654 -0.28179103 0.25407282 -0.06122017 0.32123333 0.42058045 0.046498902
0.4841843 0.4740656 0.22374052 -0.19547984 0.024760226 -0.25564408 -0.29648745 -0.103735775
-0.21586363 -0.2471318 -0.03855577 -0.3284392 -0.016161293 -0.2060456 0.26062825 -0.23925833
-0.3078832 -0.12104122 -0.1417894 0.066532284 0.4608156 0.7266774 0.49677113 -0.14418072
-0.026972247 0.123328514 -0.8126963 -0.5552493 -0.6230494 0.49598193 0.46864924 -0.20023175
0.9244053 0.46343777 0.41022903 -0.08103467 0.002976254 -0.44547272 -0.4449917 -0.23027062
0.13895532 -0.07123422 -0.13236225 0.17759699 -0.015671683 0.6025706 0.8271432 0.28554794
-0.36429623 -1.0053382 -0.32615647 -0.62213916 -0.21092263 -0.9953069 -0.20056884 -0.03952234
-0.47304046 0.29914525 0.40399185 0.14666745 0.70983547 0.29830906 0.36803475 0.24029468
-0.16313693 0.30907175 -0.50205624 -0.6873517 0.21161701 0.16621922 0.27943572 0.59948766
0.75135535 0.13695978 0.46015462 0.30601907 -0.13581188 0.7965433 0.5244409 0.009263633
-0.11907213 -0.31076676 -0.01746125 0.013528384 0.22539228 0.083862536 0.23245816 -0.10016367
-0.41504183 0.30327582 0.41086695 0.09845517 0.087323464 0.24151613 0.009387123 0.20556773
-0.03638184 0.43596044 -0.24073529 -0.4096447 0.05217575 0.12593885 0.36989397 -0.44041476
0.42618722 0.3875594 -0.5788771 0.39394444 0.24403743 -0.23962963 0.39107946 -0.042452227
-0.1713562 0.08896453 0.43260753 0.3354746 -0.1160274 -0.42484573 0.2791739 -0.71108276
-0.7563801 -0.671363 -0.3587401 -0.006770329 -0.17633432 0.07666512 0.56069446 0.4392583
-0.045332815 0.26390362 -0.6090876 -0.28516355 -0.6546747 -0.93550414 -0.7993301 -0.3742898
0.19383419 -0.5361993 0.34281278 0.13598675 0.24615712 0.32826194 0.08503247 0.7942608
-0.13858728 -0.6466011 0.513098 0.17995748 0.6395185 0.09534165 -0.0029849107 -0.30898207
-0.35322288 -0.3455162 -0.9808547 -0.051628534 -0.34074354 0.1469258 -0.16055982 0.46520534
0.2833015 0.3545241 0.62693477 -0.092972495 -0.51774555 -0.33618754 0.6346821 -0.7433495
00000000: 7236 2e3e b98e 1abf df60 4ebf 529e a23e
00000010: 1660 39be 3288 43bf e89c 423f d09c d93d
00000020: c708 e93e 0224 56be aabc b13e e09b 2c3f
00000030: 8e59 28be cd3c 0d3e dbb3 203f 6a46 1fbf
00000040: 352a 3cbe 11b9 bbbe 3fb9 15bf 29e5 a3be
00000050: 78ee 91be 0b84 4abe bac3 a83e 0ca6 c53e
00000060: 52ed 293f 07a7 a43e 0880 273f f5ba 863e
00000070: aebd 693c 0d73 7b3e d1e4 a3be bf20 8b3e
00000080: f978 a03e f851 83be cb36 4f3e e179 1b3e
00000090: f542 86be 5df0 453e c0dd eebe d099 8bbb
000000a0: 4536 233f ac70 c63e 27e8 71be 2e5b d53e
000000b0: 5123 6a3e 8e1c a63e b1cd 163f f6af 583e
000000c0: c3bb 02bf a76e 35be 30eb b33e 3044 c1be
000000d0: 3826 bdbe dee1 323f c98e e43c 8a50 c33d
000000e0: 17af d43e 484d 37bf efc6 87bd 90ed 013f
000000f0: f2f4 4ebf 2878 e23d ec24 033e 1817 42bf
00000100: b7b0 4cbf b0fa 19be a767 8b3e 1c5c f53d
00000110: 8e18 78be b350 1b3f 7c17 c23e 2a31 ca3e
00000120: b6e4 58be 4bb8 0ebf 44b8 85bd 7a39 2fbe
00000130: 3949 833e 2d31 75be 7619 afbd 86f3 7e3b
00000140: 6fde c7bd 52e8 3dbe ea46 90be d515 823e
00000150: 00c2 7abd b278 a43e 5256 d73e a275 3e3d
00000160: 01e7 f73e bab8 f23e 3c1c 653e de2b 48be
00000170: f5d5 ca3c c8e3 82be 34cd 97be 6c73 d4bd
00000180: 5b0b 5dbe 1e10 7dbe a8ec 1dbd 2f29 a8be
00000190: b064 84bc 9efd 52be 1171 853e 2300 75be
000001a0: dea2 9dbe 76e4 f7bd 3e31 11be 1442 883d
000001b0: 06f0 eb3e 8807 3a3f c958 fe3e 1ca4 13be
000001c0: e7f4 dcbc a993 fc3d dd0c 50bf d124 0ebf
000001d0: 2a80 1fbf 58f1 fd3e cbf2 ef3e 8d09 4dbe
000001e0: d3a5 6c3f b747 ed3e 8a09 d23e 81f5 a5bd
000001f0: 420d 433b 0015 e4be f4d5 e3be 10cc 6bbe
00000200: 4e4a 0e3e 3fe3 91bd f889 07be fcdb 353e
00000210: e761 80bc 1142 1a3f a8bf 533f 5733 923e
00000220: 0985 babe ecae 80bf fbfd a6be 8344 1fbf
00000230: 1afc 57be 6fcc 7ebf eb61 4dbe 2de2 21bd
00000240: 5c32 f2be 9129 993e 05d8 ce3e fe2f 163e
00000250: c7b7 353f f7bb 983e 0d6f bc3e cf0f 763e
00000260: 5e0d 27be a73e 9e3e c286 00bf 48f6 2fbf
00000270: 21b2 583e 5f35 2a3e 3312 8f3e 0678 193f
00000280: d358 403f 2f3f 0c3e 6399 eb3e 88ae 9c3e
00000290: 4512 0bbe 43ea 4b3f c241 063f 7ec6 173c
000002a0: 17dc f3bd d21c 9fbe e50a 8fbc 28a6 5d3c
000002b0: 3ccd 663e 1fc0 ab3d 8309 6e3e 9c22 cdbd
000002c0: 5d80 d4be f846 9b3e 275d d23e dda2 c93d
000002d0: a5d6 b23d 0150 773e 73cc 193c 5980 523e
000002e0: 2005 15bd 3536 df3e 5083 76be f3bc d1be
000002f0: 3db6 553d 1df6 003e be62 bd3e 0b7e e1be
00000300: 3635 da3e 306e c63e 4a31 14bf 16b3 c93e
00000310: f3e4 793e 7861 75be 913b c83e 63e2 2dbd
00000320: 0078 2fbe 0933 b63d bc7e dd3e 54c3 ab3e
00000330: c69f edbd 6185 d9be e2ef 8e3e 8509 36bf
00000340: 20a2 41bf 72de 2bbf c8ac b7be a3d9 ddbb
00000350: fc90 34be 9a02 9d3d ac89 0f3f 77e6 e03e
00000360: e7ae 39bd 601e 873e 2aed 1bbf f500 92be
00000370: c398 27bf 337d 6fbf e6a0 4cbf eaa2 bfbe
00000380: 787c 463e 5b44 09bf 2885 af3e 1c40 0b3e
00000390: 9d10 7c3e f311 a83e 8125 ae3d ad54 4b3f
000003a0: d3e9 0dbe a687 25bf 645a 033f c646 383e
000003b0: 7cb7 233f 7c42 c33d 7e9e 43bb e632 9ebe
000003c0: a1d9 b4be 80e7 b0be 4b19 7bbf 7178 53bd
000003d0: f075 aebe b873 163e cb69 24be 652f ee3e
000003e0: e50c 913e 2f84 b53e cc7e 203f 5d68 bebd
000003f0: f98a 04bf c620 acbe 877a 223f 274c 3ebf

bias f4 [32]
0.24331072 0.062106166 -0.015508839 -0.1659253 -0.04352199 -0.0036663413 0.041659165 0.100531965
-0.117167436 -0.09017141 -0.23375998 -0.3246951 0.30292147 -0.0029660943 -0.006810347 0.84911114
-0.4136056 -0.058949012 -0.012385008 -0.16185433 -0.16338274 -0.08333833 0.009885255 0.5178346
0.85505915 -0.07186393 0.20587608 -0.06062086 -0.014207474 -0.09866494 -0.047610518 0.45495704
00000000: 7226 793e 0963 7e3d c918 7ebc 52e8 29be
00000010: 1d44 32bd 0047 70bb cda2 2a3d b4e3 cd3d
00000020: 7bf5 efbd caab b8bd c75e 6fbe 703e a6be
00000030: 8618 9b3e ce62 42bb 5529 dfbb 595f 593f
00000040: 1dc4 d3be 8574 71bd 7dea 4abc 24bd 25be
00000050: ce4d 27be 49ad aabd c4f5 213c cf90 043f
00000060: 28e5 5a3f 652d 93bd 2ed1 523e 944d 78bd
00000070: 77c6 68bc d810 cabd 3f03 43bd 21f0 e83e

weight f4 [64, 32, 3, 3]
-0.328282 -0.07321067 -0.24638975 -0.24662809 -0.2499156 -0.010631189 -0.524772 0.35602987
0.082148686 0.06206774 -0.25509652 0.04704577 -0.066727005 -0.109491624 -0.16078164 0.0011762392
-0.2575923 -0.06401471 -0.27857226 -0.16239522 -0.008375511 0.187909 0.019502997 -0.062364057
-0.15323323 -0.34686723 -0.114983305 -0.11260453 -0.060023986 0.032315943 0.06860401 0.09204681
-0.015499027 0.09209628 -0.046873927 -0.15914874 -0.12594433 -0.16225798 0.076781206 0.13804366
0.15896277 -0.0047407984 -0.04941937 -0.16924337 -0.17200336 -0.011400386 0.024570847 -0.10767206
0.11154136 -0.38404977 -0.046076465 0.23686165 -0.117876776 -0.07100527 -0.19893745 -0.3362028
-0.1377006 -0.050460782 -0.5433888 -0.08956771 -0.024390643 -0.2070587 0.028984297 -0.2816129
-0.29491943 -0.03832658 0.047227643 -0.3705036 -0.17687754 -0.5129404 -0.45487332 0.07282597
-0.009302834 0.02337741 0.033366136 -0.07235583 -0.00014932961 0.05628432 0.13053633 -0.034334168
0.11232305 -0.12819037 -0.07491332 0.079859495 0.22148316 0.07229096 -0.09838261 -0.0044056405
-0.20098387 -0.116234325 0.051774774 -0.044359483 0.011635152 -0.03892413 0.029205378 -0.019189654
-0.019107528 0.018091487 -0.022623071 -0.0052933507 0.03793602 -0.026347637 -0.009596899 -0.054497443
0.05862053 0.026195694 -0.026943706 -0.023219373 -0.08122308 -0.351043 -0.19935732 -0.4858712
-0.44456375 -0.11155427 -0.077924825 -0.27938592 -0.1276266 0.07249304 0.094289616 0.07675897
-0.105242275 0.33725646 -0.044219237 -0.015183995 0.12275462 -0.3066184 -0.12871516 -0.038919035
-0.009000827 0.20708948 -0.04998686 -0.1313536 0.040065616 -0.34344342 -0.09785608 -0.087239884
-0.07372495 -0.20265856 0.0008115704 -0.4583972 0.038898204 0.07056053 -0.35498545 -0.09571573
-0.025784519 -0.054270435 0.091939926 0.09925507 0.28668246 -0.13333163 -0.085136965 -0.03850698
-0.21874684 -0.30083624 0.0053356276 0.015610767 0.096574664 0.17056137 0.026424615 -0.21825406
0.2167193 -0.16576225 0.15090635 0.05640612 0.056527812 -0.1427742 0.2533474 -0.031371273
0.06429551 0.12852572 -0.34059313 -0.12711723 0.13792159 0.004833584 0.0069790073 0.23933452
-0.06377728 0.040487237 0.17913328 -0.21171035 0.12331992 -0.0060865134 0.038555 0.046071205
-0.102698706 -0.13134368 0.15055835 -0.088007495 -0.15229464 -0.10361531 0.1258161 0.052553866
-0.17320134 0.39108258 -0.13536239 -0.02628601 0.21013178 -0.16112846 -0.0009709727 0.056070663
-0.008189256 0.06338316 0.1482477 -0.034275983 0.14658089 -0.082097396 -0.3357954 -0.10709196
-0.1307443 -0.22651327 -0.12592141 -0.5707086 -0.10613693 -0.3274849 -0.5866615 0.022955969
-0.012155224 0.08410582 -0.2106694 -0.09467808 -0.5493332 -0.13169098 0.027722612 -0.49560884
-0.09765608 -0.013388491 -0.09367423 0.07093971 -0.07386182 0.27055553 -0.09228573 -0.15998276
0.08098412 -0.27415574 -0.11095948 -0.062596105 -0.10438288 -0.5480918 0.1458021 -0.22601703
-0.21456319 -0.08140125 -0.1239049 -0.18624066 -0.159799 0.15219317 0.12180251 0.18047869
0.004454195 0.0010112996 -0.08500081 -0.1459492 -0.10189102 -0.29498234 0.028105225 -0.036221422
00000000: 9414 a8be 7aef 95bd 984d 7cbe 138c 7cbe
00000010: e0e9 7fbe 702e 2ebc 7557 06bf 8c49 b63e
00000020: 923d a83d be3a 7e3d 039c 82be 11b3 403d
00000030: 2ba8 88bd 253d e0bd f1a3 24be 0a2c 9a3a
00000040: 23e3 83be 251a 83bd 06a1 8ebe ef4a 26be
00000050: 7039 09bc 386b 403e c0c4 9f3c 7471 7fbd
00000060: 2ce9 1cbe 9598 b1be 5e7c ebbd 349d e6bd
00000070: b6db 75bd b95d 043d 4280 8c3d 0a83 bc3d
00000080: a2ef 7dbc f99c bc3d e0fe 3fbd e3f7 22be
00000090: 8df7 00be f526 26be 773f 9d3d 515b 0d3e
000000a0: 23c7 223e b358 9bbb f76b 4abd 224e 2dbe
000000b0: a621 30be afc8 3abc cd48 c93c 2b83 dcbd
000000c0: cc6f e43d 2ca2 c4be adba 3cbd dc8b 723e
000000d0: 6169 f1bd 366b 91bd 42b6 4bbe c622 acbe
000000e0: 6301 0dbe f7af 4ebd 871b 0bbf 476f b7bd
000000f0: e3ce c7bc 3207 54be 7a70 ed3c 912f 90be
00000100: aeff 96be 55fc 1cbd c671 413d a6b2 bdbe
00000110: 631f 35be 1050 03bf 28e5 e8be c825 953d
00000120: ea6a 18bc fb81 bf3c eeaa 083d 4b2f 94bd
00000130: 5d95 1cb9 638a 663d 51ab 053e fca1 0cbd
00000140: a109 e63d 5644 03be 286c 99bd 608d a33d
00000150: 7bcc 623e 480d 943d d27c c9bd 315d 90bb
00000160: b7ce 4dbe 430c eebd c911 543d 4ab2 35bd
00000170: 5da1 3e3c e96e 1fbd 1e40 ef3c 9f33 9dbc
00000180: 6487 9cbc 9934 943c 0554 b9bc d873 adbb
00000190: cd62 1b3d 00d7 d7bc 503c 1dbc b638 5fbd
000001a0: 151c 703d 5a98 d63c 0cb9 dcbc 8e36 bebc
000001b0: 4958 a6bd e8bb b3be 5324 4cbe 1cc4 f8be
000001c0: dc9d e3be 9176 e4bd 0d97 9fbd ac0b 8fbe
000001d0: 8cb0 02be 3b77 943d ea1a c13d cf33 9d3d
000001e0: 4389 d7bd e1ac ac3e 3b1f 35bd 4ac6 78bc
000001f0: c666 fb3d 16fd 9cbe e8cd 03be 9169 1fbd
00000200: 3478 13bc 440f 543e 06bf 4cbd 8f81 06be
00000210: d81b 243d d1d7 afbe c568 c8bd d3aa b2bd
00000220: 1bfd 96bd ba85 4fbe 91bf 543a 0ab3 eabe
00000230: b953 1f3d 0a82 903d a7c0 b5be 9c06 c4bd
00000240: 0e3a d3bc ad4a 5ebd 004b bc3d 3e46 cb3d
00000250: 0bc8 923e 1688 08be 4a5c aebd 7fb9 1dbd
00000260: 2cff 5fbe 3507 9abe 7dd6 ae3b 4dc4 7f3c
00000270: f0c8 c53d a4a7 2e3e 6f78 d83c fe7d 5fbe
00000280: aaeb 5d3e 94bd 29be 3287 1a3e 1b0a 673d
00000290: b589 673d 6633 12be c0b6 813e 2a7f 00bd
000002a0: 5dad 833d 3f9c 033e 3962 aebe 052b 02be
000002b0: 513b 0d3e 0b63 9e3b 28b0 e43b 1c14 753e
000002c0: aa9d 82bd f2d5 253d b76e 373e 99ca 58be
000002d0: 278f fc3d 6071 c7bb d9eb 1d3d 29b5 3c3d
000002e0: b353 d2bd f57e 06be f82b 1a3e 463d b4bd
000002f0: 20f3 1bbe 4334 d4bd f0d5 003e b942 573d
00000300: b15b 31be fa3b c83e 709c 0abe c255 d7bc
00000310: c92c 573e dcfe 24be e088 7eba 5aaa 653d
00000320: 3b2c 06bc 08cf 813d 3fce 173e f964 0cbd
00000330: 4d19 163e ae22 a8bd 60ed abbe 0853 dbbd
00000340: d5e1 05be 18f3 67be 8bf1 00be f519 12bf
00000350: 525e d9bd 1aac a7be 732f 16bf 280e bc3c
00000360: b426 47bc ac3f ac3d b8b9 57be 95e6 c1bd
00000370: 1aa1 0cbf 00da 06be 881a e33c 71c0 fdbe
00000380: e9ff c7bd 675b 5bbc 46d8 bfbd d748 913d
00000390: de44 97bd 4186 8a3e 4d00 bdbd 85d2 23be
000003a0: 01db a53d 245e 8cbe b93e e3bd 6332 80bd
000003b0: b1c6 d5bd bf4f 0cbf 254d 153e 0271 67be
000003c0: 74b6 5bbe b3b5 a6bd dac1 fdbd dfb5 3ebe
000003d0: 59a2 23be 87d8 1b3e 9873 f93d 68cf 383e
000003e0: 7ff4 913b 958d 843a e814 aebd b573 15be
000003f0: 3dac d0bd ed07 97be ee3c e63c ea5c 14bd

bias f4 [64]
-0.16528681 0.0066227433 -0.073865004 0.030922195 0.031294897 -0.03011301 -0.09182531 -0.091975175
-0.07321033 -0.07953484 -0.07845402 0.077460475 0.036224928 -0.080413 -0.00917758 0.009121906
-0.020401862 -0.016420543 -0.0621858 -0.002743729 -0.0011734406 -0.10355995 -0.0486649 0.0065697245
0.028335772 -0.079934396 0.035387386 -0.11953476 -0.027171237 -0.058384955 -0.021595214 -0.06541187
-0.06485967 -0.121143 -0.0593633 -0.173259 -0.0004960087 -0.022557655 0.008857748 -0.032042414
-0.026698634 0.00042910714 0.085533015 -0.060220562 0.010816709 -0.10560093 -0.061394304 -0.053448804
-0.09780157 -0.02244819 -0.08793554 -0.06822658 -0.12242991 0.00013734947 -0.038119618 -0.03585054
-0.07490451 -0.16579603 -0.054241918 -0.1208132 -0.169253 -0.02834986 -0.0007338223 -0.00602923
00000000: f240 29be 9903 d93b 8946 97bd 8b50 fd3c
00000010: 142f 003d 8faf f6bc e80e bcbd 7b5d bcbd
00000020: 4cef 95bd 2ae3 a2bd 80ac a0bd 99a3 9e3d
00000030: 9760 143d 92af a4bd 8f5d 16bc 0c74 153c
00000040: ce21 a7bc 6084 86bc 8ab6 7ebd 22d0 33bb
00000050: 22ce 99ba 3d17 d4bd d954 47bd d846 d73b
00000060: 6c20 e83c a5b4 a3bd 5df2 103d a4ce f4bd
00000070: 3796 debc 1025 6fbd 72e8 b0bc a9f6 85bd
00000080: 26d5 84bd d219 f8bd ef26 73bd cf6a 31be
00000090: 9506 02ba d5ca b8bc 1620 113c e83e 03bd
000000a0: 18b7 dabc c9f9 e039 ef2b af3d d6a9 76bd
000000b0: 9138 313c 4d45 d8bd 9878 7bbd 22ed 5abd
000000c0: 314c c8bd 44e5 b7bc 8c17 b4bd 61ba 8bbd
000000d0: 88bc fabd 7805 1039 5123 1cbd 04d8 12bd
000000e0: 8967 99bd 6fc6 29be c62c 5ebd e96c f7bd
000000f0: a950 2dbe f73d e8bc fb5d 40ba d990 c5bb

weight f4 [128, 576]
0.006949102 0.07262296 -0.081290774 -0.07737509 -0.20387518 -0.10461691 0.10146278 0.1665741
0.05784956 0.0017158248 0.090452164 0.030414553 0.14909846 0.08845353 0.024322493 -0.033394765
0.11492321 0.027867083 -0.056751925 0.14832701 0.29901928 0.13532665 0.020707553 0.020614129
-0.05742073 -0.10848162 0.028540025 -0.103078485 0.12708092 0.05997387 -0.13840951 0.018062823
0.18175903 0.19638872 0.18272312 0.045747485 -0.12468089 -0.49414846 0.10630877 -0.21259029
-0.04676574 0.069304265 -0.20008636 0.09037744 -0.0053692423 0.050819274 0.017350256 0.15096124
0.06912682 -0.06620811 -0.04819781 -0.29719436 -0.36430126 -0.18499209 -0.024899706 -0.025906503
0.020977246 0.10816935 0.32552898 0.08039592 -0.1427787 0.17019136 -0.12595543 0.20722222
0.03100678 -0.07764085 0.028525721 -0.21375486 0.10216517 0.12641233 0.18041559 -0.03527721
0.21926554 0.118654706 0.09405222 0.007632266 -0.04476666 -0.021437746 -0.032465715 0.21906085
-0.15194589 -0.020574963 0.0067076636 -0.08048296 -0.035871353 0.16672687 0.031356223 -0.26048115
-0.08891173 -0.13997325 -0.015451968 -0.09394056 -0.029935304 -0.05085924 -0.018696683 -0.010879462
-0.039968465 0.22311054 -0.08368102 -0.089418165 -0.29592472 -0.104199074 0.07305968 0.2395106
-0.018948259 -0.18100242 -0.071814835 -0.047234282 -0.07497345 -0.21756566 -0.060769286 0.42210746
0.26241684 -0.124044254 -0.11323179 -0.08414024 -0.14243716 -0.10543707 0.020627368 -0.13907635
-0.2401705 -0.14384852 -0.27427426 -0.010972405 0.052623644 -0.1253923 0.15973662 0.116906285
-0.04598286 -0.1138516 -0.08973259 0.0020048937 -0.026175953 0.03677167 -0.07338401 0.09813551
-0.03044899 -0.0952217 -0.059557214 0.18278928 -0.01048426 -0.030333854 -0.30401117 0.0868624
0.030721446 0.044250432 0.056126982 0.047025528 -0.015346182 0.07714736 -0.016782427 0.015782192
0.05344608 0.07006371 -0.06186039 -0.14636688 0.41181323 0.08706185 -0.07711822 0.0030240903
-0.024332963 -0.03291007 0.020649923 -0.3410704 -0.0069526862 0.10638985 0.16509263 0.19261934
-0.096796624 -0.16595589 0.0060723815 0.0040078126 0.0011441846 0.017025316 0.029739747 -0.015277375
-0.02831445 -0.014582198 0.037539247 0.04541395 -0.11896031 0.12573372 0.07199742 0.042112913
0.034382388 0.25725996 -0.025640491 0.017876383 0.017277138 0.08131756 -0.08308931 -0.31463027
-0.01607304 0.09219879 -0.12525542 0.1089709 0.0652129 -0.059962373 -0.1413454 -0.19497937
-0.24666364 0.22197683 0.040049803 -0.097445376 -0.074586116 -0.26803443 0.024999386 -0.0006105924
0.1136636 0.1145236 -0.004387108 0.3050472 0.25027093 -0.19095083 0.10879946 -0.0815855
0.07042128 -0.087799795 0.16412771 -0.10366236 -0.09428701 0.03756859 0.13669525 -0.13173345
-0.13739096 -0.12601537 0.08176674 -0.19360965 -0.18149386 -0.31311253 -0.20450817 0.20583221
0.03748477 -0.100184746 0.22104926 -0.041048244 0.070695646 -0.04346486 -0.11117201 0.09187428
0.091128655 0.057003777 -0.3428168 -0.12460028 0.024590515 -0.06103191 0.17059173 0.12213435
0.08931291 -0.089796714 0.16044486 -0.028170196 0.068395235 0.18649189 -0.009516789 -0.12033611
00000000: 4bb5 e33b 59bb 943d c77b a6bd d576 9ebd
00000010: a8c4 50be 6441 d6bd b8cb cf3d 6792 2a3e
00000020: a9f3 6c3d 87e5 e03a fc3e b93d f127 f93c
00000030: 44ad 183e 2027 b53d f73f c73c f3c8 08bd
00000040: dc5c eb3d 8249 e43c b574 68bd 09e3 173e
00000050: 0e19 993e 1293 0a3e e3a2 a93c f6de a83c
00000060: 0032 6bbd 9d2b debd c5cc e93c d01a d3bd
00000070: 8021 023e 29a7 753d 39bb 0dbe 7cf8 933c
00000080: 0a1f 3a3e 201a 493e c51b 3b3e b761 3b3d
00000090: b258 ffbd 0701 fdbe 6ab8 d93d 45b1 59be
000000a0: 6f8d 3fbd 65ef 8d3d 70e3 4cbe cf17 b93d
000000b0: 78f0 afbb df27 503d 2022 8e3c 9595 1a3e
000000c0: 5d92 8d3d 1e98 87bd 116b 45bd dc29 98be
000000d0: b285 babe 916e 3dbe 78fa cbbc e039 d4bc
000000e0: 79d8 ab3c e487 dd3d bcab a63e 9ea6 a43d
000000f0: 9434 12be a546 2e3e 76fa 00be 1032 543e
00000100: ee01 fe3c 2a02 9fbd c6ae e93c 8ee2 5abe
00000110: f93b d13d 3c72 013e ddbe 383e d67e 10bd
00000120: 2587 603e 3d01 f33d 739e c03d 1618 fa3b
00000130: 3f5d 37bd 369e afbc c5fa 04bd 7d51 603e
00000140: b497 1bbe d38c a8bc f6cb db3b 40d4 a4bd
00000150: d7ed 12bd 73ba 2a3e 626f 003d c95d 85be
00000160: 5a17 b6bd 2655 0fbe 402a 7dbc e963 c0bd
00000170: e23a f5bc c751 50bd c929 99bc c53f 32bc
00000180: f9b5 23bd 1777 643e f460 abbd df20 b7bd
00000190: 7283 97be 5366 d5bd 50a0 953d 4442 753e
000001a0: 6139 9bbc b358 39be a813 93bd bc78 41bd
000001b0: ae8b 99bd 88c9 5ebe 37e9 78bd 781e d83e
000001c0: 805b 863e ea0a febd 12e6 e7bd b851 acbd
000001d0: 0cdb 11be 64ef d7bd bafa a83c 086a 0ebe
000001e0: 41ef 75be 074d 13be ad6d 8cbe 9ac5 33bc
000001f0: e48b 573d d766 00be ff91 233e 906c ef3d
00000200: 8658 3cbd 072b e9bd b8c5 b7bd 8964 033b
00000210: f46e d6bc e49d 163d 5b4a 96bd 45fb c83d
00000220: 2970 f9bc 9803 c3bd 44f2 73bd 1d2d 3b3e
00000230: 2cc6 2bbc b47e f8bc 5aa7 9bbe eae4 b13d
00000240: 8bab fb3c f13f 353d 68e5 653d d79d 403d
00000250: 8d6e 7bbc 6fff 9d3d 4d7b 89bc a849 813c
00000260: 47ea 5a3d 907d 8f3d 5261 7dbd 33e1 15be
00000270: 2fd9 d23e 7c4d b23d 28f0 9dbd d12f 463b
00000280: ec55 c7bc b6cc 06bd 072a a93c c8a0 aebe
00000290: 5cd3 e3bb ece2 d93d 0b0e 293e 013e 453e
000002a0: 4f3d c6bd 57f0 29be d4fa c63b f853 833b
000002b0: 77f8 953a ad78 8b3c c5a0 f33c f44d 7abc
000002c0: b5f3 e7bc 2cea 6ebc c1c2 193d fa03 3a3d
000002d0: 77a1 f3bd 57c0 003e 6273 933d 977e 2c3d
000002e0: 8cd4 0c3d 94b7 833e 020c d2bc 7e71 923c
000002f0: c988 8d3c d289 a63d ba2a aabd 3817 a1be
00000300: 9cab 83bc b8d2 bc3d f542 00be 232c df3d
00000310: 578e 853d 1b9b 75bd d9bc 10be aca8 47be
00000320: 6595 7cbe e54d 633e 430b 243d 7191 c7bd
00000330: 9bc0 98bd cf3b 89be 83cb cc3c 2a10 20ba
00000340: 76c8 e83d 598b ea3d bbc1 8fbb 262f 9c3e
00000350: 8323 803e 9d88 43be 40d2 de3d 4c16 a7bd
00000360: 0839 903d 61d0 b3bd 1811 283e ee4c d4bd
00000370: 8c19 c1bd 86e1 193d d7f9 0b3e 22e5 06be
00000380: 37b0 0cbe 2c0a 01be 5275 a73d 9c41 46be
00000390: 87d9 39be 4950 a0be 976a 51be aec5 523e
000003a0: a189 193d a92d cdbd bd5a 623e 3422 28bd
000003b0: e1c8 903d 3608 32bd 27ae e3bd 9528 bc3d
000003c0: a9a1 ba3d cb7c 693d af85 afbe 6e2e ffbd
000003d0: 0c72 c93c 99fc 79bd 99af 2e3e 9321 fa3d
000003e0: b0e9 b63d 57e7 b7bd a84b 243e 2fc5 e6bc
000003f0: cd12 8c3d bbf7 3e3e 4eec 1bbc c772 f6bd

bias f4 [128]
0.017996203 0.0466046 0.012300162 0.05191968 -0.0050858404 -0.05580748 0.1285464 0.11033305
-0.08006973 0.053555 0.029576607 -0.0366058 -0.029995836 0.031958237 0.011179828 -0.0058847787
-0.1106344 -0.07540242 0.12040635 0.1006386 0.100873314 0.15383445 -0.028207425 -0.009611841
-0.052917477 -0.0010392831 -0.09842687 -0.07798224 0.03248571 -0.04664717 -0.08479341 -0.07429337
-0.12933141 -0.014163275 -0.042238355 -0.008994075 -0.08976889 -0.03900423 0.10061677 -0.04517596
-0.03887475 -0.024498662 0.01748877 0.03296148 0.012915615 0.12477032 -0.041678984 -0.06271312
-0.07925958 0.073724195 -0.118580736 -0.040565193 -0.018788598 -0.0463566 -0.12786204 0.005990884
-0.08795088 -0.021124113 0.06648743 -0.05294451 -0.022785159 -0.027041417 -0.014002181 -0.019537149
-0.022445759 -0.07954343 0.009873107 0.16894229 -0.01059811 0.07696575 -0.04306534 -0.024373395
0.102512814 0.01146341 0.115627766 -0.02270197 0.07544795 -0.054469954 -0.03215955 0.02944049
-0.009039797 -0.077833414 0.15240116 -0.040124405 0.05992476 -0.032584194 0.101990394 -0.02461233
0.015394315 0.037075415 0.023238951 0.0405776 -0.034576084 -0.006683773 -0.04584152 -0.049917992
-0.095030375 -0.044429436 -0.114862 -0.056559216 0.058632568 -0.0085268365 0.11669012 -0.071951106
-0.044469755 -0.031660944 0.004637406 -0.03578227 -0.14669748 -0.024810147 -0.03106984 -0.049614947
-0.010440941 -0.0014783769 -0.02717994 0.04653681 -0.012701683 0.025407085 -0.06982191 -0.13833827
-0.005004853 -0.03566624 0.0014326829 0.116449095 0.025613438 -0.019789355 0.03452273 -0.022511786
00000000: c66c 933c 77e4 3e3d 9e86 493c bba9 543d
00000010: 1fa7 a6bb 6296 64bd aba1 033e 4bf6 e13d
00000020: 99fb a3bd 7d5c 5b3d a44a f23c f7ef 15bd
00000030: d4b9 f5bc a4e6 023d 992b 373c 1ad5 c0bb
00000040: 4a94 e2bd 956c 9abd 9b97 f63d 9c1b ce3d
00000050: ab96 ce3d c786 1d3e 4213 e7bc fc7a 1dbc
00000060: ffbf 58bd 8e38 88ba 0794 c9bd 27b5 9fbd
00000070: bc0f 053d 1a11 3fbd 2ba8 adbd 1f27 98bd
00000080: 746f 04be 150d 68bc 2002 2dbd e25b 13bc
00000090: c0d8 b7bd e6c2 1fbd 2a10 ce3d 6d0a 39bd
000000a0: 213b 1fbd 6bb1 c8bc 9c44 8f3c 9e02 073d
000000b0: 049c 533c 9587 ff3d 95b7 2abd bc6f 80bd
000000c0: d952 a2bd b6fc 963d 75da f2bd b027 26bd
000000d0: 8cea 99bc 6be0 3dbd 44ee 02be 2d4f c43b
000000e0: 971f b4bd 7a0c adbc 902a 883d 58dc 58bd
000000f0: f1a7 babc f685 ddbc 6769 65bc 5f0c a0bc
00000100: 2be0 b7bc aae7 a2bd d0c2 213c 35ff 2c3e
00000110: b2a3 2dbc 38a0 9d3d 4865 30bd b7aa c7bc
00000120: 3df2 d13d 07d1 3b3c 40ce ec3d 7bf9 b9bc
00000130: 7484 9a3d e31b 5fbd bbb9 03bd 2f2d f13c
00000140: a81b 14bc 2067 9fbd 0d0f 1c3e 7d59 24bd
00000150: aa73 753d 0177 05bd 57e0 d03d cc9f c9bc
00000160: 7038 7c3c 64dc 173d 9d5f be3c b334 263d
00000170: a79f 0dbd 8d03 dbbb 51c4 3bbd cf76 4cbd
00000180: 499f c2bd a4fb 35bd c53c ebbd a3aa 67bd
00000190: b428 703d 25b4 0bbc 3bfb ee3d 1a5b 93bd
000001a0: eb25 36bd e8ae 01bd 62f5 973b 6e90 12bd
000001b0: dd37 16be a63e cbbc 2d86 febc 0b39 4bbd
000001c0: 7b10 2bbc 19c6 c1ba 77a8 debc 629d 3e3d
000001d0: b81a 50bc 8522 d03c cafe 8ebd 8ca8 0dbe
000001e0: c0ff a3bb c316 12bd dcc8 bb3a dd7c ee3d
000001f0: 46d3 d13c 491d a2bc b567 0d3d a36a b8bc

weight f4 [10, 128]
-0.19948204 0.20920756 0.12755217 -0.121574774 -0.26156235 0.15445687 -0.15549909 0.17218727
0.12890743 -0.3244696 0.107817285 0.044841636 -0.07427689 -0.31448865 -0.019479819 0.035126526
-0.38826 0.007031795 0.10269933 0.13865303 0.07081304 0.093843035 0.1753948 -0.24573436
-0.11276926 -0.030655162 -0.3158162 -0.22552182 0.09416726 -0.012712683 -0.20278002 -0.12412608
0.08299746 -0.0436038 -0.0712198 0.08904133 -0.32514676 -0.20587443 -0.024972742 -0.019273696
-0.09124228 0.0072409627 0.07706542 -0.050687414 0.27541718 0.13708545 -0.11594081 -0.18270333
-0.08937836 -0.36154515 -0.23107027 -0.26379767 0.19943841 -0.04875905 -0.21975017 -0.05201978
-0.39095193 0.039740402 -0.012641842 -0.039878752 -0.0055616475 0.08659434 -0.020047551 -0.052686542
0.1291587 0.11990853 -0.01672399 0.17245755 0.0011629125 0.13968576 0.06614952 -0.30875748
-0.063673586 -0.030849453 0.15524341 0.007134518 0.050719872 0.01877853 0.03620242 0.1599779
-0.45374304 -0.0595537 0.12989366 0.020442955 0.25111017 0.13869019 -0.420428 -0.31767198
-0.06287394 -0.14754273 -0.36266363 0.11277767 -0.042552114 0.04537081 -0.27071348 0.1444559
-0.025641806 -0.0502057 -0.21777615 0.19993784 -0.4248079 0.21231727 0.14720455 -0.24477558
0.14889085 -0.043081842 -0.030265113 -0.4150742 -0.3224955 -0.023839759 -0.21323612 -0.47344106
0.1906163 0.12788321 0.13261941 -0.32392544 -0.17025469 0.06167853 -0.022719314 0.067621715
-0.24798682 -0.046100065 0.057651337 0.20135434 0.015616173 0.13873962 0.04739819 -0.28262693
-0.32065007 -0.22154517 0.13528547 -0.26168132 0.1473739 -0.1781879 0.12348174 0.10719635
-0.4423555 -0.283959 -0.3070864 0.06655066 -0.035154514 0.22859699 0.1225794 0.06084381
0.16983663 0.19416119 -0.18748172 0.05766087 -0.5667849 -0.22053537 0.15123229 -0.15363112
-0.20387706 -0.08797311 0.04684329 -0.10826873 -0.36227924 -0.038425352 0.031431593 0.22616713
-0.26493457 -0.058374368 -0.0062521067 -0.016219644 0.17183548 0.176963 0.059813764 0.0775053
-0.04507754 0.13818471 -0.045887515 0.066036135 0.28899667 0.03617359 0.09506886 -0.034148213
-0.14765358 0.10145836 0.19425982 -0.4322837 -0.21463162 -0.08476169 0.024471782 0.103231765
-0.083095044 -0.07126782 -0.14273368 0.009743342 -0.32008806 0.19923759 -0.05999483 -0.036015633
-0.18724662 0.05936286 0.03793791 -0.044429027 -0.086415336 0.122587875 -0.37105757 0.1022991
0.21872199 -0.06981837 0.16071743 0.19589476 0.17433316 -0.35325068 -0.053260647 -0.08336436
0.06779809 -0.0373966 -0.049801335 -0.017051017 -0.023520283 0.19276136 0.08933989 -0.13528898
-0.009732393 6.566746e-05 -0.5051158 -0.24446684 -0.00022468297 0.07290199 0.2036281 0.30533203
-0.017815268 0.072065055 -0.16485448 -0.17596567 0.057661932 0.20853469 -0.3138664 0.13432184
0.16825806 -0.0032085096 -0.017284574 0.00434076 -0.16610272 0.011408123 -0.049960773 -0.07471457
-0.28794587 -0.13303733 -0.387624 0.03281024 0.10818921 0.009749136 0.013070203 -0.009276625
0.19337898 0.059049226 0.0063701007 -0.1782361 -0.064085566 -0.4543156 0.052816667 0.057844438
00000000: 0545 4cbe 823a 563e 099d 023e 32fc f8bd
00000010: 80eb 85be f129 1e3e 273b 1fbe dc51 303e
00000020: 4f00 043e e120 a6be 4fcf dc3d ddab 373d
00000030: 7b1e 98bd a804 a1be 2494 9fbc d5e0 0f3d
00000040: 04ca c6be f96a e63b 0754 d23d 0ffb 0d3e
00000050: 6d06 913d c730 c03d b29a 333e caa1 7bbe
00000060: 92f3 e6bd 8920 fbbc a9b2 a1be 31ef 66be
00000070: c4da c03d db48 50bc 91a5 4fbe d035 febd
00000080: 93fa a93d e699 32bd b0db 91bd 4d5b b63d
00000090: a379 a6be bfd0 52be a393 ccbc dfe3 9dbc
000000a0: 3cdd babd 9945 ed3b 7ad4 9d3d 9b9d 4fbd
000000b0: 7b03 8d3e 2160 0c3e 6072 edbd 9516 3bbe
000000c0: 000c b7bd 721c b9be af9d 6cbe 7d10 87be
000000d0: 9539 4c3e 92b7 47bd 3006 61be b112 55bd
000000e0: da2a c8be d5c6 223d ba1f 4fbc e757 23bd
000000f0: 7b3e b6bb 6058 b13d c33a a4bc d8cd 57bd
00000100: 2e42 043e 9a92 f53d c000 89bc b698 303e
00000110: de6c 983a c909 0f3e 6679 873d 7615 9ebe
00000120: 4c67 82bd feb7 fcbc 21f8 1e3e adc8 e93b
00000130: a4bf 4f3d 6fd5 993c fd48 143d 3fd1 233e
00000140: 0251 e8be 95ee 73bd d802 053e fc77 a73c
00000150: 8391 803e cd04 0e3e 5742 d7be e7a5 a2be
00000160: 0dc4 80bd 7115 17be 0caf b9be fbf7 e63d
00000170: 204b 2ebd bed6 393d f59a 8abe 3fec 133e
00000180: c40e d2bc 7ea4 4dbd b600 5fbe 81bc 4c3e
00000190: 6c80 d9be b369 593e cabc 163e 73a6 7abe
000001a0: d876 183e 9676 30bd 8bee f7bc 9b84 d4be
000001b0: 211e a5be 994b c3bc 925a 5abe de66 f2be
000001c0: eb30 433e d1f3 023e 62cd 073e 8ed9 a5be
000001d0: 3f57 2ebe a0a2 7c3d db1d babc 417d 8a3d
000001e0: 42f0 7dbe 6cd3 3cbd cf23 6c3d d52f 4e3e
000001f0: fada 7f3c c211 0e3e 9b24 423d 7ab4 90be
00000200: 3f2c a4be bddc 62be 4688 0a3e 18fb 85be
00000210: 2fe9 163e e476 36be ffe3 fc3d c389 db3d
00000220: 6c7c e2be 1363 91be 6e3a 9dbe b64b 883d
00000230: 2efe 0fbd 5415 6a3e e90a fb3d 5c37 793d
00000240: a7e9 2d3e 31d2 463e 35fb 3fbe ce2d 6c3d
00000250: d118 11bf 06d4 61be a3dc 1a3e 7a51 1dbe
00000260: 26c5 50be 3f2b b4bd c0de 3f3d ffbb ddbd
00000270: aa7c b9be e763 1dbd 6abe 003d 5b98 673e
00000280: 81a5 87be f619 6fbd 79de ccbb 0fdf 84bc
00000290: a4f5 2f3e ca35 353e 47ff 743d 19bb 9e3d
000002a0: 3aa3 38bd 4b80 0d3e 8cf4 3bbd f43d 873d
000002b0: 5ff7 933e c22a 143d 76b3 c23d ffde 0bbd
000002c0: 8032 17be 67c9 cf3d 0cec 463e 4a54 ddbe
000002d0: 64c8 5bbe 8997 adbd 0c79 c83c 2d6b d33d
000002e0: bc2d aabd ddf4 91bd c728 12be 8aa2 1f3c
000002f0: 95e2 a3be f004 4c3e 24bd 75bd 2185 13bd
00000300: 94bd 3fbe 7826 733d c864 1b3d 36fb 35bd
00000310: 86fa b0bd 5a0f fb3d 42fb bdbe 3182 d13d
00000320: a8f8 5f3e effc 8ebd 1c93 243e a398 483e
00000330: 6484 323e 46dd b4be d627 5abd efba aabd
00000340: bad9 8a3d 2d2d 19bd 7cfc 4bbd 93ae 8bbc
00000350: 9cad c0bc 3c63 453e d5f7 b63d 3289 0abe
00000360: 9d74 1fbc f3b6 8938 454f 01bf 8455 7abe
00000370: e098 6bb9 a34d 953d e283 503e 7b54 9c3e
00000380: 53f1 91bc d896 933d 9dcf 28be 5830 34be
00000390: eb2e 6c3d 1e8a 553e 19b3 a0be aa8b 093e
000003a0: d74b 2c3e dc45 52bb 6198 8dbc ef3c 8e3b
000003b0: d516 2abe 23e9 3a3c aba3 4cbd f403 99bd
000003c0: a46d 93be f03a 08be a776 c6be 0864 063d
000003d0: 4e92 dd3d d7ba 1f3c 6824 563c fcfc 17bc
000003e0: 2405 463e 9add 713d 47bc d03b 8683 36be
000003f0: 4b3f 83bd 0e9c e8be 4a56 583d 4aee 6c3d

bias f4 [10]
0.18130328 0.1198062 -0.028992454 -0.017268816 0.055055827 -0.16062498 -0.11139994 -0.10041994
0.1993567 -0.109805234
00000000: 91a7 393e f45c f53d 9581 edbc 5577 8dbc
00000010: 3882 613d e07a 24be a725 e4bd f8a8 cdbd
00000020: 2a24 4c3e 91e1 e0bd
