models/model_9718.pth (torch, 476975 bytes, 6 tensors)

weight f4 [128, 784]
000000 60 37 ad 3a 81 cb ff bc cc df b6 bc 40 68 b9 bc
       0.0013215356 -0.031224968 -0.022323512 -0.022632718
000010 e0 05 8c bc 46 d6 2f bc 74 ad 8c 3c 30 0d b6 3b
       -0.017092645 -0.010732239 0.017172553 0.0055557713
000020 c0 35 3f ba 30 b0 8f bb 1c c6 e2 bc 98 0c 4b bc
       -0.0007294081 -0.004385017 -0.027682357 -0.012393139
000030 19 f2 5c bd 2a f7 12 bd 50 0b 32 3c f0 65 29 bb
       -0.05394182 -0.035880245 0.010866955 -0.0025848113
000040 4a b1 2f bc 23 52 00 3d d2 cc ef 3c 5c 82 cb bb
       -0.010723421 0.03132833 0.02927247 -0.0062106084
000050 33 75 9a bc 94 12 43 3c d2 6e 48 bc 24 cb da bb
       -0.018854713 0.011906285 -0.012233453 -0.0066770483
000060 6e a1 f0 3c 48 ed fe bc 93 bc 02 bd c0 7d 82 bc
       0.02937385 -0.031119004 -0.03191812 -0.015929103
000070 e4 75 9a bb b0 3c 91 bb 3e 40 dc 3c d8 a3 03 3c
       -0.0047137607 -0.0044322833 0.026886102 0.008034669
000080 da 3a 07 bd 60 96 ee ba 36 c2 d4 3b f0 e7 ef bc
       -0.03301511 -0.0018202774 0.0064928783 -0.029285401
000090 a3 31 06 3c 53 e6 16 bc 86 86 a7 3c d0 d1 d6 bb
       0.008190545 -0.009210187 0.020449888 -0.0065557733
0000a0 9f 3b 07 bd 3a e5 1f be d6 34 fc bd d7 09 a0 bd
       -0.033015843 -0.15614787 -0.12314765 -0.07814377
0000b0 68 91 10 bd ea c4 bc bc 68 02 d7 bc ac 70 b4 3c
       -0.03529492 -0.023043115 -0.026246265 0.022026382
0000c0 4b 3d 1f 3d 0e 43 db bc 91 f6 86 3c 30 cc b2 3c
       0.038876813 -0.026765373 0.016474994 0.02182588
0000d0 46 c5 42 bc 30 13 64 bb 7c d9 14 bc 70 0a 77 3c
       -0.011887854 -0.0034801476 -0.009085055 0.015078172
0000e0 88 eb 0c bd 60 62 02 3c 72 5f 0a bc 1d b6 9d 3c
       -0.034404308 0.007958025 -0.0084456075 0.019251877
0000f0 f9 35 df ba 76 8a 12 3b ea 0a f6 3c f3 75 a2 3b
       -0.0017029635 0.0022360361 0.030034501 0.0049579083
000100 60 eb 88 3d f7 1f 10 bc 3a 99 44 bd 0c d5 a2 bd
       0.06685519 -0.0087966835 -0.04799769 -0.07950792
000110 6c e1 29 be 7e 39 64 be 6a 9f 98 bd 36 f9 c9 bd
       -0.16589898 -0.22287557 -0.07452281 -0.09861986
000120 a9 cb a8 bd 7c 9a 7f bd 6b e5 0b 3e 6a 7f 36 bd
       -0.0824197 -0.062403187 0.13661735 -0.044555105
000130 d2 f7 72 bd 53 15 c1 bd 0c 8e bd bd 54 ea b4 bc
       -0.05931837 -0.094278954 -0.09255609 -0.022084393
000140 7a 01 42 bd 10 98 6c 3c 92 42 24 bc 53 56 91 bc
       -0.04736469 0.014440551 -0.010025637 -0.017741358
000150 9c 14 88 bc 41 d6 0f 3d f0 db 9e bc c2 bf 16 bc
       -0.01661139 0.035116438 -0.019391984 -0.009200992
000160 85 60 31 bd 06 59 fe 3b 05 5e 17 bd 2a 9c 2a 3d
       -0.04330494 0.0077620773 -0.0369549 0.041652836
000170 81 88 b9 3d b3 c6 68 bd 21 e4 96 be 13 3e 45 be
       0.09059239 -0.05683012 -0.29470924 -0.1926196
000180 1c f8 32 3d 70 17 28 bc 6e 16 b8 3d 4b 7d e3 3d
       0.043693647 -0.010259494 0.08988653 0.11107882
000190 27 d1 aa 3d 58 87 2c 3d 3c 19 e3 3b ee a7 39 be
       0.08340674 0.04212126 0.0069304984 -0.18130466
0001a0 22 d4 5b bd 82 45 07 be 90 89 77 be 36 1a 49 be
       -0.053669102 -0.13210109 -0.2417357 -0.19638905
0001b0 e6 e5 5b 3d bc b5 e3 bd a3 91 90 bc e6 83 e3 3c
       0.053686045 -0.111186475 -0.01764757 0.027772855
0001c0 03 43 81 bc 3e a2 28 bc 39 c2 15 bb b1 4e 1a 3e
       -0.015779024 -0.010292588 -0.0022851361 0.15069081
0001d0 eb c3 f1 3d 42 2a 5f 3c 42 ea 43 3c 16 82 10 3d
       0.118049465 0.013620915 0.011957707 0.03528031
0001e0 d0 3e 86 3e d4 b6 ad 3d 38 9e b9 bb e2 2d 8c bc
       0.26219797 0.08482137 -0.005664613 -0.017111722
0001f0 be e2 a8 bd 14 c1 ab bd 9c 62 ab bb d9 7b 3f 3e
       -0.08246373 -0.08386436 -0.005230261 0.18699588
000200 1c d2 77 3d 11 17 6b bd ca 6c 2f 3d db 66 08 be
       0.06050311 -0.057395045 0.04282836 -0.13320486
000210 fb fa a0 be 32 8a a7 be 4e 56 03 be 0d c2 03 be
       -0.31441483 -0.32722622 -0.12825891 -0.12866993
000220 a8 14 57 3d f9 09 3b 3e 1b 4d 16 3e 42 29 bb 3c
       0.052509934 0.18265523 0.14677851 0.022846822
000230 25 f3 b0 bc 37 16 02 3d 0d f1 c9 bc 94 6d bf 3d
       -0.021600315 0.031759467 -0.024651075 0.09347072
000240 99 9e 8e 3e 0b 01 63 3e 8c 61 3b 3e 2a 4a e7 3d
       0.27855375 0.22168367 0.1829893 0.112934425
000250 de 1d b2 3c be e1 5c bc e3 b2 29 bd 3a bf 40 be
       0.021742757 -0.0134815555 -0.041430365 -0.18822947
000260 a5 f2 4f 3c fb 04 d2 3d 3e 96 94 3d ce 3b 44 3d
       0.012692128 0.10254856 0.07255219 0.047908597
000270 8b 96 b4 3d 14 a4 9c 3c ca 5e 0b 3d 54 30 f2 3d
       0.08817776 0.019121207 0.034025945 0.11825624
000280 a9 93 b8 3d cb 8d 0d be 93 89 be bd 34 4c d8 3b
       0.09012539 -0.13823621 -0.09303584 0.006600881
000290 a4 4b d8 3d e6 9d 23 3e 79 4c c4 bd 1c c9 4a bd
       0.10561302 0.15978202 -0.095848985 -0.0495082
0002a0 5d 91 04 3d fb 2d 17 bc 2d 03 8d bd 49 c0 ac 3d
       0.03236519 -0.009227271 -0.06885371 0.08435113
0002b0 c3 b3 03 3e df d0 00 39 50 01 42 bd 52 7b 47 be
       0.12861542 0.00012284842 -0.047364533 -0.19480637
0002c0 29 f2 d8 3c 81 f6 bb bd b2 df 36 be 0a f0 1b be
       0.026482658 -0.09177876 -0.1785877 -0.15228286
0002d0 ab 07 b5 3c 90 16 a5 3d 3f 25 f0 bc e6 8c 91 3d
       0.022098383 0.08060944 -0.029314635 0.07106952
0002e0 70 d3 7c 3e 53 4c 72 3e 69 65 84 3e 86 8e 74 3d
       0.24690032 0.23661928 0.2585862 0.059706233
0002f0 4f bd b2 3d e2 4c ab bd fb 7a b6 bc 8e e9 d9 bd
       0.08727514 -0.083642736 -0.022275439 -0.1064025
000300 86 c7 c2 bc 3d d6 75 3d 82 2f a0 bd 6a da 91 3d
       -0.02377678 0.060018767 -0.078215614 0.07121737
000310 dd 41 07 3d 56 04 4d bc 1e 4a c8 3c fb 1b 23 be
       0.033021796 -0.012513241 0.024449404 -0.15928642
000320 56 c5 93 bc cf 04 d3 3d 63 43 99 bb 91 12 22 be
       -0.018038433 0.103036515 -0.0046772226 -0.15827395
000330 27 5e 0d bd 2d 25 28 bd 95 ac af bd e5 42 c3 bd
       -0.03451362 -0.04105108 -0.08577839 -0.095342435
000340 9e dd ac 3d 96 c9 0a bd 34 ff 00 bd 0f 46 f4 3d
       0.084407076 -0.033883654 -0.03149338 0.11927425
000350 f7 4a 42 3e 41 e4 81 3e f3 ea 78 3e ed a5 1a 3e
       0.1897391 0.25369456 0.24308376 0.15102358
000360 37 ba f5 3d 08 84 0e 3d 59 73 bb bd 38 3c 05 be
       0.11998408 0.034793884 -0.0915286 -0.13011253
000370 55 cd 5d be 66 af ae 3d f2 ce c8 3d 62 9f 6a 3d
       -0.21660359 0.08529548 0.09805097 0.057280906
000380 73 58 63 ba 70 15 a3 bd 7e 4d cc bc b2 63 90 3d
       -0.0008672543 -0.07963073 -0.024939295 0.07050265
000390 9f a0 c2 3c 05 d4 5b 3e a3 27 a2 3c 49 2c 6a bb
       0.02375823 0.21467598 0.01979429 -0.0035731962
0003a0 e6 db 57 3d 67 51 64 bd 62 de f3 bb c3 60 a9 bd
       0.052699946 -0.055741694 -0.0074422816 -0.08270409
0003b0 6f 4e 02 bd c2 d7 9b 3d e8 7d 2e 3d 33 03 03 3e
       -0.03181308 0.07609512 0.042600542 0.12794189
0003c0 f8 e5 cf 3d 99 9c 12 3d 69 d3 af 3d e4 ce bd 3d
       0.10151285 0.035793874 0.08585245 0.09267977
0003d0 d4 eb 08 3d b7 73 e4 3d 58 1b 23 3e 1f ca c4 bd
       0.03342803 0.11154883 0.159284 -0.09608864
0003e0 34 63 2e be 8d 50 f0 3d 82 66 03 3d ec ac 11 bc
       -0.1703003 0.11734114 0.03208018 -0.008891325
0003f0 83 73 08 bd 33 f3 89 bd 30 3c 3f bc db e8 6d 3e
       -0.033313286 -0.0673584 -0.011672065 0.23233359

bias f4 [128]
000000 12 26 83 be f9 22 d1 3d c6 3c b5 3c 06 90 df 3a
       -0.25614983 0.10211749 0.022123706 0.0017056472
000010 3c b7 8a bd 9c 45 59 bd 96 86 16 bd 1b 27 02 be
       -0.067732304 -0.0530449 -0.036749445 -0.1271023
000020 11 18 b8 3d d1 13 dd bd c0 6d 09 be e5 68 b7 bc
       0.08988965 -0.10794795 -0.13420773 -0.022388885
000030 4a 2a 88 3d 2a d3 0d be 0e b1 36 bd ea 23 83 bd
       0.06648691 -0.13850084 -0.044602446 -0.064033344
000040 91 ee 2b be 0f ac ba 3b c7 b2 f6 3d cd 02 83 3c
       -0.16790225 0.0056967805 0.12045818 0.015992546
000050 85 a4 f2 bd 5d 3b 13 3e 9e 55 42 be 53 78 03 bd
       -0.11847786 0.14378114 -0.18977973 -0.032097172
000060 58 9c fe bd e7 81 f6 bd 40 cb a4 bd b4 81 19 3e
       -0.12432164 -0.12036496 -0.08046579 0.14990884
000070 61 74 1b 3c 9c d8 af 3c 4d 52 84 bd 7c d2 8e 3c
       0.009488196 0.021465592 -0.0646101 0.017434351
000080 7e 73 6f 3d ab c7 52 3e 90 81 39 bb dc b3 cd bd
       0.05845975 0.2058398 -0.0028305985 -0.10044071
000090 ef 35 be 3c ea b1 fe bd c5 48 38 3e 72 16 07 be
       0.023219077 -0.12436278 0.1799651 -0.13192156
0000a0 71 9f c1 3d 84 38 73 be d1 97 f4 bd 15 7b ba bc
       0.09454239 -0.23752028 -0.11943019 -0.022763768
0000b0 51 59 3c bd ef dd f9 3c cc 96 98 bc 42 57 24 be
       -0.045983616 0.030501334 -0.018626593 -0.16048911
0000c0 1b a0 2d bd 49 41 48 bd 9f 23 b9 bd e5 9d 21 3e
       -0.042389017 -0.048890386 -0.09039997 0.15782888
0000d0 14 aa 50 bd 58 5b 8b bd c2 aa d3 3d bd 30 d6 3d
       -0.05094345 -0.06804532 0.10335304 0.10458515
0000e0 76 62 cc 3b d2 ce 06 be d0 99 6b bd d0 d4 47 be
       0.0062373234 -0.13164833 -0.057519734 -0.19514775
0000f0 83 57 ac bd e8 2e 29 3e 94 7c 43 bd c4 8e b6 bd
       -0.08415129 0.165218 -0.04772623 -0.08913949
000100 83 6a a5 bd 61 5d d7 bd 5c 0e 2e 3e f4 23 e4 bd
       -0.08076956 -0.105158575 0.16997665 -0.1113967
000110 06 8c 87 3e 8e 26 35 bd 98 fa 6d bc 55 74 3c be
       0.26474017 -0.04422622 -0.014525078 -0.18403752
000120 b1 27 2c be 36 98 2e 3d 5c 57 82 3d ea ae 27 be
       -0.16812016 0.04262563 0.06364319 -0.16375318
000130 53 12 e7 3d 0e fe be 3d e6 a3 fb 3c 7e 4d 79 bc
       0.11282792 0.09325801 0.030717801 -0.0152162295
000140 6b 44 1a be 3c ac 02 be e1 b0 05 bd 0a 8e 09 bd
       -0.15065162 -0.12761015 -0.032639388 -0.033582725
000150 14 d1 0f 3e 97 2f 07 3d 60 b1 02 bd 4a 87 bb bd
       0.140446 0.03300437 -0.03190744 -0.09156664
000160 5a 87 b8 bd af b6 f0 bd b1 0c a1 3d a3 ce 80 bd
       -0.09010191 -0.11753594 0.07863749 -0.06289413
000170 02 7a 31 be 8a d1 db bd 1e 70 af 3c f5 57 3b 3d
       -0.17331699 -0.10733326 0.021415766 0.04573818
000180 a2 81 0f bd 76 03 4f be 17 36 66 3e 93 55 6d be
       -0.035035737 -0.20216164 0.22481571 -0.23177175
000190 cb b2 a6 bc 43 ed 1a be ea 03 34 bd 98 f7 64 3e
       -0.020348927 -0.1512957 -0.043949045 0.22360075
0001a0 e4 4f 90 bd 91 45 6a bd 45 86 37 bd 19 50 2d 3e
       -0.07046488 -0.05719525 -0.044805784 0.16925086
0001b0 ed 3f 0b be 6d 2d 0d be 59 3f 33 be 21 c9 0c be
       -0.13598605 -0.1378686 -0.17504634 -0.137486
0001c0 42 4c 79 bb 17 ba 8a be 6d 74 7e 3d 1c ff 36 be
       -0.0038039838 -0.270951 0.06212275 -0.17870754
0001d0 d7 8e 8f be 06 21 b7 bd 51 63 c7 3d 4a aa 7b be
       -0.28038666 -0.089418456 0.0973574 -0.24576679
0001e0 28 d9 15 3e 5e e6 ae 3d b5 39 41 3d 6d a6 49 3d
       0.1463362 0.08540033 0.047174174 0.04923098
0001f0 a5 20 9b 3e 85 a9 3b bb 36 24 6e 3c 89 67 90 bc
       0.30298343 -0.0028634977 0.014535001 -0.017627494

weight f4 [128, 128]
000000 1e 38 50 be c4 79 47 3e ae 15 32 3e 1a 12 d2 3d
       -0.20333907 0.19480044 0.17391083 0.10257359
000010 8a 74 9d bd b1 3e a4 bd b7 6d 8c be a0 65 2b be
       -0.07688244 -0.0801977 -0.27427456 -0.16737986
000020 1a b4 e1 3e 64 49 6a bd 7d a6 02 3a b7 5b 49 3e
       0.4408272 -0.057198897 0.0004983915 0.19663893
000030 01 bb f6 bd 94 a3 a7 3e 77 6c 64 bc 16 17 8c be
       -0.12047387 0.32741988 -0.013941876 -0.27361363
000040 22 69 77 3d 3a c9 45 bd 0d c4 7a bd 42 da 89 3d
       0.060402997 -0.048287608 -0.061222125 0.067310825
000050 a7 fc 05 bd 41 6b 99 3d a7 5a 9a 3b fd 7d 8d bd
       -0.03271165 0.0749116 0.0047105136 -0.06908796
000060 3c ab c4 bc 2c 2d 65 3d 35 1e a1 3e 35 9b 9f be
       -0.024007432 0.055951282 0.3146836 -0.311731
000070 cc 84 02 3d 7b 53 9d 3d 18 0f 28 be 87 72 92 3e
       0.031864926 0.07681938 -0.16412008 0.28603002
000080 aa d3 a5 3e 88 26 b7 bd 05 08 40 3e 4f dc d8 bc
       0.3238805 -0.08942896 0.18753059 -0.026472239
000090 f2 0e 01 3e ac ed 52 3d cd 01 0d bf 60 9d 8f 3e
       0.12603357 0.051496193 -0.5508087 0.28049755
0000a0 bf 73 37 be fe 75 42 3e 07 2f 51 3e 60 52 eb be
       -0.17915247 0.18990323 0.20428096 -0.45961285
0000b0 12 90 29 3d d2 4e a2 3e 28 a2 63 3e 0c 75 6c 3c
       0.04139716 0.3170076 0.22229826 0.014432203
0000c0 08 56 90 3e bc a4 a4 3d 9d 6f 83 3e 74 03 9d 3e
       0.28190637 0.08039233 0.25671092 0.30666697
0000d0 3c 81 fa 3b 5d 29 14 bd b4 19 84 3e d8 ea e4 3e
       0.0076448005 -0.03617226 0.2580086 0.44710422
0000e0 d4 a4 82 be bf a2 be bc 10 f7 18 bd 15 14 b2 be
       -0.2551638 -0.023270963 -0.037344992 -0.34780946
0000f0 92 fa c8 3d c5 7f 2c bf 67 08 79 be ff 3c 82 be
       0.098134175 -0.6738246 -0.24319611 -0.2543716
000100 82 d4 c3 3d 19 50 36 3e 2e 1c 9d 3e 89 bc 17 3e
       0.09562017 0.17803992 0.30685562 0.14818014
000110 63 db 8b be b4 60 ea 3e 1f 0f 28 bd 11 19 18 bf
       -0.27315816 0.45776904 -0.041030046 -0.5941325
000120 d3 23 b4 bc af 24 07 be 9e a5 8b 3b c0 04 26 3e
       -0.021989739 -0.13197587 0.0042616865 0.1621275
000130 c8 fb c4 3d e5 ef 05 3d 90 ca 9c 3d 1e a7 00 3e
       0.09618336 0.032699484 0.07655823 0.1256375
000140 31 d4 6f 3d 8c 32 64 3d db 16 98 3d 1f e7 ae 3d
       0.05855197 0.055712268 0.07426234 0.085401766
000150 47 b5 82 3d e3 19 74 be 47 dc 14 bd 06 0b 76 3e
       0.06382232 -0.23838 -0.036342885 0.24027643
000160 8d 4d a8 3e 2a 75 67 3c e9 dd 70 3e b3 68 0c 3e
       0.32871667 0.014127055 0.23522152 0.13711815
000170 91 74 b2 3d a3 52 87 be b3 25 1b bf 9f 86 56 bd
       0.087136395 -0.26430234 -0.606044 -0.05237448
000180 df 18 21 3e 63 0e 61 be fd 97 9e 3e 03 8b a9 3b
       0.15732144 -0.21978144 0.30975333 0.005174042
000190 5c 90 5a 3d 65 34 30 bd f0 a3 90 be 45 a7 b8 bc
       0.053360328 -0.043018717 -0.28250074 -0.022540698
0001a0 5d 8d 58 bf 89 43 94 3d fe 05 99 3e 37 12 c3 be
       -0.84590703 0.07239444 0.29887384 -0.38099834
0001b0 2a 3d 3a be 28 c0 22 3e 20 07 62 3d b8 a3 8d 3e
       -0.18187395 0.15893614 0.055182576 0.2766397
0001c0 51 1e d1 3d 31 74 8c be 18 4d a3 bd 37 78 53 bd
       0.102108605 -0.27432397 -0.07973689 -0.051628318
0001d0 2b e8 83 be 59 4b 70 3e 3f d8 61 bd fb 6c 08 3e
       -0.25763068 0.23466243 -0.05513787 0.13322823
0001e0 9f 37 87 3e 84 5c d6 bc 6e 5d 4b be 5c f5 b4 3d
       0.26409623 -0.026167162 -0.1985986 0.08835861
0001f0 58 51 9c be 3d a0 9a 3e a4 23 0a bf 8c ae 32 3e
       -0.3053081 0.30200377 -0.53960633 0.17449397
000200 f6 18 e8 3d 4d 03 d5 be 89 a6 d3 bd dc b9 83 bc
       0.11332886 -0.4160408 -0.103344984 -0.016079836
000210 5d bc 08 3e b2 79 82 3d 71 fb 51 be ff 1e 72 3e
       0.13353105 0.06370868 -0.20506074 0.23644637
000220 d0 41 72 bc 14 92 8a 3e 17 71 8b 3e aa 00 af 3a
       -0.014786199 0.27064574 0.27234718 0.0013351638
000230 06 1e 55 bd 6d 25 12 3e d5 e3 3a 3d 49 ec 88 3e
       -0.052030586 0.1427209 0.045627434 0.2674277
000240 2d 3b 28 bc 25 d9 3e 3e 4b 54 ca be b2 2a 50 3e
       -0.010268015 0.18637522 -0.39517435 0.20328787
000250 9b 03 92 bc 70 75 96 bd 20 30 9b ba 7b 60 2b bc
       -0.017823985 -0.07346618 -0.0011839904 -0.010460014
000260 ff ae c7 bc bb 4f 02 bc 45 ed f7 3c 3f 48 04 be
       -0.024375437 -0.00795358 0.030264506 -0.12918185
000270 f4 91 f3 3d e3 9b d7 bd b4 05 df 3d 14 d2 51 3e
       0.11893073 -0.1052778 0.1088976 0.20490295
000280 cd e3 71 be 52 d6 08 bf 1d 64 19 3e 40 61 6f bd
       -0.23622055 -0.53452027 0.14979596 -0.058442354
000290 9a 06 8f bd 1a 49 a1 3e 5f 43 4d be e7 aa be 3d
       -0.06983681 0.31501085 -0.20045231 0.09309941
0002a0 d1 7e 2b be fb d9 95 3d 93 80 3b 3e bc cc 75 be
       -0.16747595 0.07316967 0.18310766 -0.24003881
0002b0 9d 61 89 bc 99 b6 ad 3e 41 7a 59 3e b6 5e a6 3e
       -0.016770178 0.33928373 0.21238042 0.32494134
0002c0 37 0b c9 3c c5 66 9e 3d 7a 38 81 bd 80 7d 0b be
       0.02454148 0.077344455 -0.063096 -0.13622093
0002d0 61 0c cf 3c 62 ec c7 3e ef 59 50 bd 07 47 0d bf
       0.025274457 0.39047533 -0.050867017 -0.55186504
0002e0 a7 7f b8 bd 80 b1 35 3e 4d 18 66 be 73 73 5e 3e
       -0.09008723 0.17743492 -0.22470208 0.21723728
0002f0 96 5d c1 3e 01 ed 24 be f7 70 cf 3d 17 8e 18 3c
       0.37766713 -0.16106035 0.10128968 0.009311221
000300 9a 5e 61 3a db 38 2c 3e 92 fa 53 be c3 bc 9d 3e
       0.00085971656 0.16818564 -0.20701054 0.30808076
000310 be b7 6d be 8c 2a 7f bd de 99 5d 3d 04 74 48 be
       -0.23214623 -0.062296435 0.054101817 -0.19575506
000320 3d b6 41 3c 0a 9c 28 be 2c 6c 80 be dd 9e 79 bd
       0.011823234 -0.16465774 -0.2508253 -0.06094252
000330 16 70 56 be a6 33 c0 be c6 65 66 3c 36 d3 28 3d
       -0.20941195 -0.37539405 0.014062351 0.04121705
000340 93 34 95 3d 45 fb a5 bc a6 3c 55 bc 6c eb 86 3d
       0.07285418 -0.020261416 -0.013014948 0.06587872
000350 9c 37 32 be 8c 31 51 be 8a e0 88 3e 83 b0 5d 3e
       -0.17404026 -0.20429057 0.2673381 0.21649365
000360 0f 03 8d 3c 84 6e f7 3e eb 27 d0 bd 94 4c e7 be
       0.017213373 0.48326504 -0.10163864 -0.45175612
000370 74 b8 43 3e b6 fe 0f 3e 8c 27 5c bd 65 f9 75 be
       0.19113332 0.14062008 -0.053748652 -0.24020918
000380 a1 95 db bd b2 0c 09 3d 53 c3 d4 be 36 10 88 3e
       -0.10721899 0.033459373 -0.4155527 0.26574868
000390 a2 9b 7c ba f7 96 12 3e 59 29 00 3e f2 da 03 be
       -0.0009636228 0.14315401 0.12515773 -0.1287649
0003a0 c8 66 6b bc 68 a2 81 3e e2 e9 a8 3c 0a 51 1b bf
       -0.014367767 0.2531922 0.020619337 -0.6067053
0003b0 46 e2 4e 3e 70 57 5c bd 72 64 b1 3d 62 12 55 bc
       0.20203504 -0.053794324 0.086617365 -0.013004871
0003c0 2b c9 cf 3d b3 c4 48 3e f9 20 1e bd 63 c5 d4 3e
       0.101457916 0.19606285 -0.038605664 0.41556844
0003d0 52 32 2f bd 73 68 93 3d 30 22 22 bd b7 10 9f 3e
       -0.0427726 0.071976565 -0.039583385 0.3106744
0003e0 41 db a4 3d 7c 3e bd 3e 60 98 29 3e 28 de ec be
       0.08049632 0.36961734 0.16562033 -0.46263242
0003f0 65 7a 47 be 41 91 9e 3d 1a 32 ac be 62 1a 8a 3d
       -0.19480284 0.07742549 -0.33631974 0.06743313

bias f4 [128]
000000 28 67 40 bc 46 16 53 3e 16 57 f2 3d 1d 87 10 be
       -0.011743344 0.20613965 0.118330166 -0.14114042
000010 7f e2 5b 3e b6 c6 80 3e 71 73 22 3e bd 53 18 be
       0.2147312 0.25151604 0.1586435 -0.14875694
000020 7c bb 29 ba 69 89 98 3c 18 96 44 3e e7 7b 0c bc
       -0.0006474776 0.01862021 0.19197881 -0.0085744625
000030 fc d0 87 be 86 f8 3d bd f2 7d 60 3e 01 38 b0 3d
       -0.2652663 -0.04637959 0.21923044 0.08604432
000040 c8 04 e3 bd 04 5c 06 be 7c 06 ee bd 8f de 09 be
       -0.11084896 -0.13121039 -0.116223305 -0.13463806
000050 f4 84 34 3d 96 59 16 3e fd 6b e9 bd 64 4c 3a be
       0.044072106 0.14682612 -0.1139755 -0.18193203
000060 a2 75 a4 bd f1 da b9 bd 38 78 e4 3d 10 22 c1 bd
       -0.08030249 -0.09074963 0.111557424 -0.09430325
000070 e0 5a 2f be 9d fb 17 bd 55 a0 2b 3e 2b e0 be be
       -0.1712451 -0.03710519 0.1676038 -0.37280402
000080 7d 65 8e be b7 f9 9c 3e e4 b1 5b 3e b8 53 0a 3d
       -0.27811804 0.30659267 0.21454579 0.033771247
000090 ef 20 af 3d 4c 13 1b be 6b 9b a8 3e 8c ce f6 bd
       0.085512035 -0.1514408 0.32931075 -0.120511144
0000a0 aa e9 b8 3d d4 2e 1f 3e 11 7a 97 bd be 4f f4 3c
       0.09028943 0.15545207 -0.07396329 0.02982318
0000b0 94 91 93 bd fa 4d e4 bb a0 2f 86 3e 10 c6 de 3d
       -0.07205501 -0.0069673033 0.2620821 0.10877621
0000c0 1a bd 01 3e 34 de 46 3d d1 09 42 bb 9b 88 42 bd
       0.12669793 0.048551753 -0.0029607902 -0.04749356
0000d0 5b e1 6d 3d 7b 4c 17 be d5 98 f0 3d 7e 28 75 be
       0.058076244 -0.14775269 0.117479004 -0.23941228
0000e0 36 c0 b2 bd cb d4 da bd 31 f2 f8 bc e0 2d 08 bb
       -0.087280676 -0.10685118 -0.030388923 -0.0020779297
0000f0 ab dc c5 3d 64 65 64 3e f3 af 38 3e 94 39 d6 bd
       0.0966123 0.22304302 0.1803587 -0.10460201
000100 20 41 a1 bd 3b 97 81 bb a2 f9 f5 bb f6 98 b2 3e
       -0.0787375 -0.0039547957 -0.007506565 0.34882325
000110 8e b2 57 bd 7e 9a cd 3e 32 83 d6 bd a3 01 77 3e
       -0.052660517 0.4015693 -0.10474242 0.24121718
000120 8c f9 38 3e 73 e2 02 3e 3a 5f 3d 3e 4f 68 3e 3d
       0.18063945 0.12781696 0.18493357 0.046486195
000130 c0 a8 23 3e db 64 aa 3d 0c c2 4a 3e 92 80 52 be
       0.15982342 0.08320018 0.19800586 -0.20556858
000140 67 44 00 be b7 7f 86 3e a1 df 69 37 4b 87 a8 3e
       -0.12526093 0.26269314 1.393995e-05 0.3291572
000150 2a 4e 8a bd e1 37 e4 3d 29 19 67 3e 84 ae f0 3c
       -0.0675319 0.111434706 0.22568192 0.02938009
000160 52 05 da bc f2 c3 de 3d 80 e1 11 3e 26 00 1f be
       -0.026613865 0.10877217 0.14246178 -0.155274
000170 64 b3 00 3e 4c a3 d3 bc 06 c1 cc bd 80 99 05 3e
       0.12568432 -0.025834702 -0.09997754 0.13046837
000180 b0 49 44 be 01 fa e6 bd 61 d3 52 3e 02 2a 5a bd
       -0.19168735 -0.11278153 0.20588447 -0.053262718
000190 63 9f ac bd 8a c0 44 bd 43 7e 6a 3e e6 b8 03 be
       -0.08428838 -0.048035182 0.22899728 -0.12863502
0001a0 dc 79 41 be 60 a1 9b 3d 17 6a b2 3e aa ef 5e be
       -0.18894142 0.07599139 0.34846565 -0.21771112
0001b0 c2 24 f1 3c 1d cc 34 be 33 f6 6d be 69 45 60 3d
       0.029436473 -0.17655988 -0.23238449 0.054753695
0001c0 34 d2 82 bd 0d f3 80 bc e3 73 fa bc 9d a0 ec 3c
       -0.06387749 -0.015740896 -0.030572837 0.02888518
0001d0 18 30 06 bc 94 39 ba 3d 4f 07 43 bd 9d 95 2b 3e
       -0.008190177 0.090930134 -0.047614392 0.16756292
0001e0 a4 e1 06 3d 43 37 50 3d df 40 d9 3e 4a 70 c8 3d
       0.03293003 0.05083395 0.42432305 0.097870424
0001f0 dd 77 36 be ce df a2 3e 83 e0 82 be 4d 7d 12 3e
       -0.17819162 0.31811374 -0.25561914 0.14305611

weight f4 [10, 128]
000000 f4 51 58 3e bc 81 0b 3d e8 3d 23 bd 92 58 fb be
       0.21125013 0.03405927 -0.03985396 -0.4909101
000010 c8 6f 46 be fb 37 35 3e 07 2f 84 3e f0 a5 8b bc
       -0.19378579 0.17697136 0.2581713 -0.017046899
000020 eb 7c 50 be 48 68 7f be 74 32 2d bf e3 87 c5 3d
       -0.20360152 -0.24942124 -0.6765511 0.09645059
000030 52 90 19 3e e2 a3 c9 3d ce 68 74 3e 35 2a f6 3d
       0.1499646 0.09845711 0.23868105 0.12019769
000040 88 66 87 3c 8c e4 bd be 20 d8 3b 3e e9 b0 03 3e
       0.016528383 -0.3708843 0.18344164 0.12860455
000050 df 36 d1 be 9b 3b 0b bf 35 5b 87 3e c9 de a2 3d
       -0.40862176 -0.54387826 0.26436773 0.07952649
000060 ca 9b 02 bf db f9 20 3d ed 05 bb 3d d7 09 bb 3c
       -0.51018965 0.03930078 0.0913199 0.02283184
000070 09 44 d5 39 a7 97 14 bc be 11 1b bf e8 d4 48 be
       0.00040677216 -0.00906936 -0.6057395 -0.19612467
000080 2b 90 1e 3e 43 94 9a 3e a0 92 2c be aa 96 91 3d
       0.15484683 0.3019124 -0.16852808 0.07108815
000090 f8 7f 12 3d 36 b1 e8 3e 05 28 c5 be 8d 5e 19 bf
       0.03576657 0.454477 -0.38507095 -0.599099
0000a0 12 75 ae 3e e8 8d 25 bd e7 d8 97 bd 4e 4c 23 bf
       0.34073693 -0.040418535 -0.07414418 -0.63788307
0000b0 cc 43 f0 3d 38 82 f3 ba 41 1f 99 be 72 0b 62 be
       0.11731681 -0.0018578237 -0.29906657 -0.22074679
0000c0 0c 7f 20 3e 38 3d 39 3e e0 a2 8f 3d a1 ec 5a bd
       0.15673465 0.1808976 0.07013488 -0.053448323
0000d0 5d d8 14 bf 10 20 5a be ca 6c 1d be 80 f6 4b 3e
       -0.58142644 -0.21301293 -0.15373531 0.19918251
0000e0 0f 86 f5 3b 87 1e aa be 42 6b b3 3d af 92 1b 3d
       0.0074927877 -0.33226416 0.08760692 0.037981685
0000f0 66 d2 55 3e 49 30 84 bd ac 40 82 3d 86 e8 73 3e
       0.20881042 -0.06454522 0.063599914 0.2381917
000100 f6 bf 90 bb 63 df 87 3e db cf 02 3e 83 f5 34 3d
       -0.004417415 0.26537618 0.12774603 0.04417945
000110 7f ea b9 be 18 0e a5 be cd 33 46 3d dd c0 3e be
       -0.3631172 -0.32237315 0.048389245 -0.18628259
000120 e5 ed a9 3e 81 8f fd 3d 5a 37 9e bd f2 7f 13 3d
       0.33189312 0.12380887 -0.07725401 0.03601069
000130 e6 d5 11 bf 7c e4 e8 bd f2 7e 42 3e 19 33 42 3b
       -0.5696701 -0.11371705 0.18993738 0.0029632507
000140 c7 eb 9b 3d d3 ff 17 3e 42 83 64 3d 5a 04 ce be
       0.0761333 0.14843683 0.05578924 -0.40237695
000150 1a f3 d2 bd cc 9c 3f 3e f1 ac 17 bf 8b 78 9d 3d
       -0.10300274 0.18712157 -0.5924826 0.07689007
000160 ad 76 4b bd 88 7c 3c 3e 3e 10 52 3e ba fc 61 3e
       -0.049673725 0.1840688 0.20514008 0.22069064
000170 76 32 cc be 4c 69 34 3d fc bf 5d bd 63 6e a4 be
       -0.3988225 0.04404573 -0.05413817 -0.32115468
000180 5e 0c 40 3e 22 3c bd 3d a0 06 ff be 76 51 da be
       0.18754718 0.09239985 -0.49809742 -0.42640275
000190 0a cf d1 3e 81 cb a9 be 0e 4c dc 3d 29 a2 6e 3d
       0.4097827 -0.33163074 0.10756694 0.058260117
0001a0 f1 3b 78 3d 55 af a0 3e 43 67 aa bc c3 ca 46 3d
       0.06060404 0.31383768 -0.020801192 0.048533212
0001b0 9d 2b f8 3d 9d 96 32 be 87 9c 97 3e f5 cb 44 bc
       0.121176936 -0.17440267 0.29611608 -0.012011518
0001c0 c4 47 15 bf 8d 2e af bd c8 6a 81 3e 4b d5 9d be
       -0.5831263 -0.08553801 0.2527678 -0.30826792
0001d0 f3 58 ef 3e 58 d2 66 3e 2f cd a4 bd 70 ae 26 be
       0.4674755 0.22541177 -0.08046948 -0.1627748
0001e0 ca 31 47 3d 84 fc 3e 3e 6e 2a f3 be 20 2e 03 bd
       0.048631467 0.18651015 -0.4749331 -0.03202641
0001f0 99 e7 18 bf 13 0f d1 3c db 22 7b be 24 27 10 bf
       -0.5972839 0.025519883 -0.24525015 -0.56309724
000200 04 0e 45 be 61 54 44 be 4f 6c cc be 63 a9 29 3e
       -0.19243628 -0.19172813 -0.39926383 0.16568522
000210 63 db 5f be db b6 0d 3e 53 a1 26 bf 1f cd 41 be
       -0.21861033 0.13839285 -0.6508991 -0.18925904
000220 de 58 65 be 6c 1d 2d be 48 d0 84 bd b8 a3 1b 3d
       -0.22397181 -0.16905755 -0.06485039 0.03799793
000230 16 c1 80 bc 72 09 2d 3c f7 8b 87 be 34 93 35 bf
       -0.01571707 0.010561334 -0.26473972 -0.7092774
000240 4d 50 84 3c ed e2 f6 3d ea db f8 be 8c b4 b9 3e
       0.016151572 0.120550014 -0.4860528 0.3627056
000250 a1 87 d9 be 02 00 32 3e b6 b1 7a be 4b cf c3 bc
       -0.4248629 0.17382815 -0.24481854 -0.023902556
000260 fe 77 ad 3e b8 c6 0c 3e 1e ab 83 be 1d 11 7d bd
       0.3388061 0.1374768 -0.2571649 -0.0617839
000270 dd 8e c1 bc ed 56 cf 3d eb 37 6b 3d 9c 9c 43 3e
       -0.023627693 0.10124002 0.057426374 0.1910271
000280 38 56 87 be d9 ce 4c 3e 2d 04 fd 3d 5f ae e6 be
       -0.26432967 0.20000781 0.12354312 -0.4505491
000290 7d f1 a6 be c5 0a 8c be b5 ad 65 bd 50 c9 89 3e
       -0.32606116 -0.27351967 -0.056073863 0.26911402
0002a0 49 db 8e 3e ac 7b 2b 3e 83 0f 7f bb 0c 17 cf be
       0.27901676 0.16746396 -0.0038919158 -0.4044727
0002b0 ef 89 20 be 42 84 84 3d 9d 7c 57 bc 51 0a 89 be
       -0.15677617 0.06470539 -0.013152269 -0.26765683
0002c0 17 d0 00 bf 4b ec ef 3c de 48 28 3d a7 79 90 bc
       -0.5031752 0.029287478 0.041085117 -0.017636133
0002d0 b5 d1 53 bc 83 a0 03 3e ea f8 11 be 82 c9 e2 3c
       -0.012928416 0.12854199 -0.1425511 0.027683977
0002e0 2e 59 55 3e 0f 55 50 3c 08 d8 48 3e f6 a8 ae 3e
       0.208348 0.012715592 0.1961366 0.34113282
0002f0 d5 d4 3f 3e 95 c2 43 be c7 32 39 bf e6 ac 25 bb
       0.18733533 -0.19117196 -0.72343105 -0.0025280057
000300 1f 96 9e bd ac f4 1b be 07 cf 4f bf 3d 30 7e 3c
       -0.07743477 -0.15230054 -0.81175274 0.015514431
000310 25 78 07 3e c0 d2 8f bc 90 41 8e 3d 94 50 ac bc
       0.13229425 -0.017556548 0.06946099 -0.021034516
000320 94 a1 fd bd ed d3 db bd ea e5 42 3e f1 98 bc be
       -0.12384334 -0.10733781 0.19033018 -0.36835435
000330 16 00 19 3e 56 66 76 3d a6 70 f8 be 68 8d 94 3e
       0.14941439 0.06015619 -0.48523444 0.29014134
000340 04 bb 0d 3e a1 a3 16 3e 68 47 94 3d 39 47 f1 bd
       0.13840872 0.14710857 0.07240182 -0.11781163
000350 0c aa e3 bd 45 17 f8 be 30 58 ef be 47 60 ef bc
       -0.11116418 -0.48455253 -0.4674697 -0.029220713
000360 61 00 74 bd 76 bb 9b bd c5 32 72 be 2b 53 f6 3e
       -0.059570674 -0.07604115 -0.2365218 0.48110327
000370 fc 66 a7 3d 77 f1 2a bf 17 f8 59 bd d4 5f a8 3d
       0.081739396 -0.66774696 -0.053215113 0.08221403
000380 5e c0 33 bf f4 ec b3 be b2 d7 cc 3d 98 e1 66 3e
       -0.70215404 -0.35141718 0.10002078 0.22546995
000390 c4 03 d9 bd 48 8f 17 3e 7f 7e c0 be 9a ad ff 3c
       -0.10596421 0.14800751 -0.3759651 0.03121071
0003a0 27 f3 ab bd a3 04 56 be 08 9b 31 be 57 59 f2 3e
       -0.08395987 -0.20900206 -0.17344296 0.47333786
0003b0 a7 07 b7 be d4 01 b9 3e 6a 0b 8f bc 9d 3c fb bc
       -0.35748026 0.36134207 -0.017461497 -0.030668551
0003c0 1e 77 a1 3e a9 7e 18 3e 33 64 31 bc c5 6c ff bd
       0.31536192 0.14892067 -0.010827112 -0.12471918
0003d0 6e 8f 1d 3f 80 0d a7 3d 51 4d f6 3a c0 b7 66 bd
       0.6154698 0.08156872 0.0018791353 -0.05632758
0003e0 96 8f 96 3d 34 93 fb be b3 e1 05 bf bc 6f ea be
       0.073516056 -0.49135745 -0.52297515 -0.45788372
0003f0 26 ac f9 be 28 78 46 3e eb 96 82 3e 0a df bf bc
       -0.4876415 0.19381773 0.25505766 -0.023421783

bias f4 [10]
000000 a5 2d 52 bd 8e c0 6d be aa 29 f4 bc b4 b9 36 be
       -0.05131306 -0.23217985 -0.029805023 -0.17844278
000010 69 ff 41 bd 46 a5 42 bd b6 dc af bc d7 0d 0a be
       -0.04736272 -0.0475209 -0.021467548 -0.13481842
000020 26 ff 86 3e 5a 3e f6 3d
       0.26366538 0.12023611
