models/model_9887.pth (torch, 381933 bytes, 8 tensors)

weight f4 [32, 1, 3, 3]
-0.36954266 -0.1679325 -0.22539724 -0.15802129 0.47065297 0.7369602 -0.11006832 0.029017996
0.58384097 -0.0065929093 0.14263166 0.6070723 -0.3011506 0.23161319 0.4487009 -0.6747134
-0.437836 0.35722643 0.18542035 0.28053245 0.46729326 0.11421335 0.44845536 0.27184144
-0.45024323 -0.28905675 -0.46498227 0.20457092 -0.22992253 -0.17829049 -0.057010382 -0.10716066
-0.281384 -0.25466102 0.12038067 -0.0022753477 0.096878715 0.59029144 -0.33952987 0.62804
0.48705965 0.4635959 -0.10787367 -0.11134955 -0.24965519 -0.14211808 0.14180312 -0.05408164
0.30851716 0.052723773 0.07206018 0.63598585 0.28997755 0.110327415 -0.56869227 -0.11687667
0.077627674 0.3473626 -0.089447044 -0.169319 0.57261634 0.3816515 0.3307424 0.41314793
0.28627926 0.19992016 0.76428616 0.057878207 -0.47372922 0.311782 0.035873525 -0.57205105
-0.16726996 0.44975033 -0.2509705 -0.085657455 0.50713825 -0.22329435 0.0038048243 -0.05814988
-0.4869348 0.01774065 -0.22153129 0.23260169 0.5761337 0.51023996 0.007615374 0.39536864
0.12705927 0.0476049 -0.05952642 -0.045199778 -0.037602276 0.224786 -0.23958445 -0.14900324
-0.15707472 0.16625768 -0.19480729 0.0010553264 0.10047715 -0.004465951 -0.15349291 0.54165864
0.27036232 0.24609907 0.24050215 -0.065933466 -0.023655402 0.23947084 -0.2540127 -0.15508378
-0.22239871 0.18604867 -0.13994114 0.014303803 -0.30812383 0.27884036 0.032393485 -0.9642861
0.18824081 0.03469145 -0.7724263 0.024343705 -0.18852387 -1.0143235 -0.17584425 -0.2688793
0.21792586 -0.2335037 0.28861535 0.1812909 0.085004054 0.292563 0.57655704 0.13172865
0.58612823 0.43477446 0.09589794 0.123404115 0.36297643 -0.29555002 -0.5228288 -0.4406658
0.1517011 0.7079187 0.48978683 0.056048404 -0.087745145 0.1651191 -0.6201298 -0.57552636
-0.48508003 -0.15425083 0.27704594 0.45933962 -0.44147345 0.30466244 0.69230175 -0.68334013
-0.38355982 0.6310078 -0.5754093 -0.5616398 -0.5582653 0.15683429 -0.36146706 -0.09329367
0.80183727 0.34414336 0.11944932 0.18612108 -0.062638424 -0.87643874 -0.05422081 -0.4231036
-0.75377923 -0.5326126 -0.5575366 -0.4255634 0.5729504 -0.11624279 0.34188795 0.21484984
-0.13049272 0.24477473 -0.02287555 -0.21654938 0.12963688 -0.3620245 -0.3950128 0.38796845
-0.17786114 -0.13193369 -0.17746495 0.4333704 0.5688225 0.2874328 0.2936248 0.17744602
0.26380098 0.34657112 0.58049685 0.46277002 -0.3006983 0.17370458 -0.27786145 -0.19226435
-0.7253338 -0.567238 -0.21593043 -0.02387193 -0.31712002 0.32613146 0.72522706 0.84448135
-0.3439345 -0.05243751 0.38654414 0.37994945 0.2528643 0.49193764 0.38489082 0.28715724
-0.5196325 0.13133374 0.14156866 0.013458893 -0.5273847 -0.078370936 0.30922672 -0.46666005
0.51891834 0.8711225 -0.44378868 0.12482941 0.61027414 -0.35382792 0.48043662 0.120487764
-0.12217118 0.27166164 0.07858892 0.17901437 -0.35094503 -0.40564692 0.39996517 0.12051882
-0.57894164 0.82559955 0.65198094 -0.05687837 0.05941881 -0.19320965 -0.11154056 0.03590065
00000000: b234 bdbe 7ff6 2bbe 89ce 66be 55d0 21be
00000010: 6df9 f03e 6ca9 3c3f 806b e1bd 26b7 ed3c
00000020: 9a76 153f 5509 d8bb 090e 123e 1769 1b3f
00000030: 6930 9abe 022c 6d3e 20bc e53e 04ba 2cbf
00000040: 0a2c e0be 62e6 b63e d5de 3d3e f3a1 8f3e
00000050: 1041 ef3e b0e8 e93d f19b e53e cd2e 8b3e
00000060: 4886 e6be 3fff 93be 2812 eebe 0a7b 513e
00000070: d070 6bbe c891 36be b883 69bd 0c77 dbbd
00000080: 9011 90be ee62 82be 248a f63d 001e 15bb
00000090: 5968 c63d 571d 173f dcd6 adbe 3bc7 203f
000000a0: e25f f93e 715c ed3e dfec dcbd 3c0b e4bd
000000b0: 9ca5 7fbe 6787 11be d634 113e b684 5dbd
000000c0: f6f5 9d3e e2f4 573d 4a94 933d f8cf 223f
000000d0: f077 943e 57f3 e13d d195 11bf 095d efbd
000000e0: 42fb 9e3d 83d9 b13e 0330 b7bd f661 2dbe
000000f0: fc96 123f d367 c33e 1157 a93e 2088 d33e
00000100: 3293 923e dfb7 4c3e 42a8 433f b311 6d3d
00000110: a38c f2be e4a1 9f3e 1ef0 123d f071 12bf
00000120: d148 2bbe ad45 e63e 357f 80be 2d6d afbd
00000130: d0d3 013f 46a7 64be 5c5a 793b 922e 6ebd
00000140: 854f f9be d754 913c 19d9 62be 232f 6e3e
00000150: 807d 133f 169f 023f 638a f93b c26d ca3e
00000160: d31b 023e 5bfd 423d fad1 73bd 6723 39bd
00000170: d804 1abd 4d2e 663e a055 75be 4e94 18be
00000180: 32d8 20be 743f 2a3e 907b 47be e152 8a3a
00000190: f7c6 cd3d 1d57 92bb 3f2d 1dbe 24aa 0a3f
000001a0: ee6c 8a3e 6501 7c3e 3246 763e 2008 87bd
000001b0: f9c8 c1bc d837 753e f40d 82be 48ce 1ebe
000001c0: 7dbc 63be 8b83 3e3e bb4c 0fbe 805a 6a3c
000001d0: 68c2 9dbe 2ac4 8e3e 08af 043d 74db 76bf
000001e0: 33c2 403e 9f18 0e3d bbbd 45bf 736c c73c
000001f0: 670c 41be 5ad5 81bf 8410 34be 8caa 89be
00000200: f527 5f3e 981b 6fbe 64c5 933e 52a4 393e
00000210: 9b16 ae3d d1ca 953e 3e99 133f e0e3 063e
00000220: 800c 163f c29a de3e 2466 c43d 4cbb fc3d
00000230: 0cd8 b93e 5552 97be 1cd8 05bf f39e e1be
00000240: 8857 1b3e 293a 353f 57c5 fa3e 0393 653d
00000250: bab3 b3bd fb14 293e d4c0 1ebf b255 13bf
00000260: 695c f8be eef3 1dbe f7d8 8d3e 902e eb3e
00000270: cf08 e2be b7fc 9b3e b03a 313f 61ef 2ebf
00000280: f461 c4be ba89 213f 064e 13bf a0c7 0fbf
00000290: 7aea 0ebf 2b99 203e 3612 b9be c010 bfbd
000002a0: 3545 4d3f 8f33 b03e d8a1 f43d 8696 3e3e
000002b0: 9348 80bd 4a5e 60bf a416 5ebd 09a1 d8be
000002c0: adf7 40bf 4d59 08bf b8ba 0ebf 72e3 d9be
000002d0: e1ac 123f b310 eebd f00b af3e 9901 5c3e
000002e0: e29f 05be 3aa6 7a3e 8165 bbbc 1fbf 5dbe
000002f0: 88bf 043e 465b b9be 1e3f cabe cda3 c63e
00000300: 3b21 36be a019 07be 5fb9 35be bae2 dd3e
00000310: 5a9e 113f 642a 933e fd55 963e 69b4 353e
00000320: ec10 873e c571 b13e 719b 143f 31f0 ec3e
00000330: 21f5 99be 9ddf 313e db43 8ebe f2e0 44be
00000340: 7aaf 39bf 8236 11bf de1c 5dbe 118f c3bc
00000350: 8e5d a2be b4fa a63e 7ba8 393f ee2f 583f
00000360: 2f18 b0be b7c8 56bd 1de9 c53e bc88 c23e
00000370: 6e77 813e 40df fb3e 6910 c53e 4606 933e
00000380: a306 05bf 5a7c 063e 60f7 103e b082 5c3c
00000390: af02 07bf f180 a0bd f752 9e3e 11ee eebe
000003a0: d5d7 043f e201 5f3f 4538 e3be 90a6 ff3d
000003b0: ed3a 1c3f ef28 b5be cafb f53e 4ac2 f63d
000003c0: e234 fabd 3c17 8b3e 3af3 a03d 8b4f 373e
000003d0: 11af b3be f4b0 cfbe 3cc8 cc3e 92d2 f63d
000003e0: 8535 14bf 7e5a 533f 39e8 263f 4bf9 68bd
000003f0: 2361 733d c0d8 45be 616f e4bd 8f0c 133d

bias f4 [32]
-0.032404058 -0.0061721173 -0.041490145 -0.25363326 -0.12444696 -0.03395411 -0.012856256 -0.0053528314
-0.002223134 -0.41900873 -0.23740762 -0.31592917 -0.23886691 0.6077581 -0.074919306 0.0011871735
0.16995023 -0.017453847 0.38655052 0.7653342 -0.21422766 -0.011183129 -0.2233164 0.08892671
-0.069100775 -0.12252559 -0.06964731 -0.021399109 -0.097543195 -0.033375233 -0.038900457 -0.23853338
00000000: 1eba 04bd 793f cabb 92f1 29bd 38dc 81be
00000010: 0cde febd 7713 0bbd 0ca3 52bc ce66 afbb
00000020: 00b2 11bb 5088 d6be fc1a 73be 78c1 a1be
00000030: 8799 74be 0996 1b3f 4b6f 99bd ef9a 9b3a
00000040: 6f07 2e3e 5ffb 8ebc f3e9 c53e f1ec 433f
00000050: 7f5e 5bbe 7139 37bc 0ead 64be 351f b63d
00000060: b584 8dbd b2ee fabd 40a3 8ebd 2f4d afbc
00000070: bac4 c7bd 78b4 08bd 1656 1fbd 1842 74be

weight f4 [64, 32, 3, 3]
0.021902729 -0.048606567 0.14103302 -0.118704 0.0034074546 -0.08380337 -0.11952747 -0.21973556
0.00057371595 -0.10116537 -0.15089673 -0.080817536 -0.1084484 0.046653975 -0.2463615 -0.102970034
-0.13073765 0.13757762 -0.11839044 -0.2952023 -0.004772711 -0.05994129 0.03697363 -0.013821036
-0.0505347 -0.11297185 0.10108486 -0.039363027 0.04342593 -0.017721325 0.03783707 0.057451498
-0.000523217 0.011472385 -0.050910786 0.05042812 -0.015986187 -0.053408857 -0.0320903 0.024226962
-0.07255787 0.07622667 -0.22876379 -0.11050824 0.15830728 -0.15497178 0.08671365 -0.015528565
-0.048839312 -0.011867966 0.12059436 -0.16667399 -0.2706881 -0.0058318544 0.07817834 -0.04442966
-0.04301567 -0.11211088 -0.20164621 0.22165237 -0.14953378 -0.5296092 -0.24239638 -0.08597162
-0.080931656 0.046151947 0.027129201 -0.12341402 0.1643093 -0.09788645 -0.17477746 -0.11666615
0.21902461 0.062331155 0.37336725 0.016954092 -0.08916468 0.20260401 -0.21946429 -0.04330739
0.051451683 0.0676456 -0.106239244 0.018097278 0.015287942 -0.039590552 0.1161564 -0.19986796
-0.20416735 -0.007347964 0.0035203367 -0.029891044 -0.029736428 0.045804467 0.040991332 0.017375894
-0.012121935 0.046044786 -0.033958267 -0.10396197 -0.08507022 0.015360399 0.050308276 0.0068238834
0.21402484 -0.12640981 -0.18689731 0.01676401 0.013403159 0.03875338 -0.027354434 0.036396686
0.022677125 0.015928762 0.030706603 -0.05299659 -0.04519516 -0.2257135 -0.045426205 -0.17897522
0.024649706 -0.037495863 0.0029434378 -0.119621255 0.07742734 -0.5353492 0.09659589 -0.057415783
0.01344836 -0.13798414 -0.06341593 0.0073849293 -0.13983496 -0.31177348 0.025559412 0.21342784
-0.15829015 0.03572312 -0.09738431 0.06889503 -0.3750765 0.06598179 0.0014306273 0.29428646
0.28849697 -0.31970376 -0.07120861 0.01896559 0.01378336 -0.50664055 0.05533006 0.045625005
0.30608612 -0.17234205 -0.045617096 -0.05015326 -0.24180822 0.09223687 -0.06725438 -0.16401915
-0.14393106 0.19541325 0.045606736 0.1002703 -0.011060954 0.029842727 -0.14511707 0.13634434
-0.032044224 -0.09726763 -0.44733268 -0.13854602 -0.0751471 -0.071893066 0.068474606 -0.070886284
-0.45684054 -0.08658325 0.04821388 -0.42763624 -0.005316468 -0.23411001 -0.14356603 -0.027915275
0.06845255 -0.09705243 -0.10547142 -0.21467048 0.13766542 -0.023443842 -0.0022044254 -0.068752624
-0.010096095 -0.076653995 0.11098821 -0.05324212 -0.3260436 -0.28031805 -0.05546485 -0.118395954
0.059303932 0.004840434 0.04044953 0.09328398 -0.21644145 -0.14661232 0.0604856 0.12055079
0.16359043 0.052135583 -0.145921 -0.2199086 0.07339903 -0.15322581 -0.2862561 -0.269617
0.04124262 -0.114583835 0.06290743 -0.05670449 -0.0039445986 0.057613377 -0.08889197 -0.23295851
-0.061679255 0.025787571 -0.13755745 -0.13191125 -0.1325101 0.09920833 0.033875104 -0.21395206
-0.28456163 -0.018633723 -0.08581677 -0.05701381 0.034264334 -0.12125603 0.0654287 0.035520785
-0.06432896 -0.26611042 0.10151643 0.09294766 0.08070983 -0.1228088 -0.044806603 -0.23440659
0.3351272 -0.14870678 -0.324641 0.0058366153 0.07267423 0.0727873 -0.10134749 -0.058972802
00000000: 5a6d b33c ae17 47bd f66a 103e 151b f3bd
00000010: 9a4f 5f3b 1aa1 abbd d1ca f4bd 5c02 61be
00000020: 6d65 163a ca2f cfbd ac84 1abe aa83 a5bd
00000030: 321a debd 3d18 3f3d 3046 7cbe f4e1 d2bd
00000040: 17e0 05be 26e1 0c3e b076 f2bd c224 97be
00000050: 6764 9cbb 0085 75bd a971 173d a071 62bc
00000060: 79fd 4ebd c95d e7bd 9405 cf3d 203b 21bd
00000070: 63df 313d 502c 91bc 0bfb 1a3d 4352 6b3d
00000080: 8028 09ba acf6 3b3c d487 50bd b78d 4e3d
00000090: 77f5 82bc 3fc3 5abd 1e71 03bd 9f77 c63c
000000a0: 3899 94bd ba1c 9c3d 0e41 6abe 2552 e2bd
000000b0: 4e1b 223e ecb0 1ebe ed96 b13d 866b 7ebc
000000c0: bb0b 48bd db71 42bc 2dfa f63d 96ac 2abe
000000d0: a197 8abe 2419 bfbb f71b a03d e0fb 35bd
000000e0: 3331 30bd 649a e5bd 587c 4ebe d7f8 623e
000000f0: 621f 19be 7894 07bf c236 78be e411 b0bd
00000100: 7fbf a5bd d309 3d3d 0f3e de3c 7dc0 fcbd
00000110: b240 283e b178 c8bd ddf8 32be aaee eebd
00000120: fd47 603e f44e 7f3d fe29 bf3e 4fe3 8a3c
00000130: f99b b6bd 6d77 4f3e 3fbb 60be 1763 31bd
00000140: 00bf 523d c789 8a3d f693 d9bd be40 943c
00000150: 477a 7a3c b429 22bd 68e3 ed3d 30aa 4cbe
00000160: 3f11 51be 31c7 f0bb 73b5 663b 10de f4bc
00000170: cf99 f3bc 779d 3b3d 87e6 273d e457 8e3c
00000180: 159b 46bc 7599 3c3d d317 0bbd 03ea d4bd
00000190: 4c39 aebd 2faa 7b3c 0d10 4e3d e29a df3b
000001a0: 5429 5b3e 9371 01be 0262 3fbe ad54 893c
000001b0: ec98 5b3c ddbb 1e3d 6816 e0bc b114 153d
000001c0: 61c5 b93c 097d 823c 6a8c fb3c f412 59bd
000001d0: 8f1e 39bd 7121 67be d410 3abd 4845 37be
000001e0: 2eee c93c 4395 19bd b1e6 403b fdfb f4bd
000001f0: 3a92 9e3d a50c 09bf 11d4 c53d d02c 6bbd
00000200: 8356 5c3c b74b 0dbe 36e0 81bd 47fd f13b
00000210: e530 0fbe c6a0 9fbe f961 d13c d48c 5a3e
00000220: d016 22be 6852 123d 6d71 c7bd d618 8d3d
00000230: 070a c0be 7621 873d e383 bb3a b7ac 963e
00000240: e0b5 933e 36b0 a3be d2d5 91bd ba5d 9b3c
00000250: 9ad3 613c 32b3 01bf c6a1 623d 49e1 3a3d
00000260: 52b7 9c3e 6f7a 30be fed8 3abd 816d 4dbd
00000270: 939c 77be afe6 bc3d aabc 89bd a3f4 27be
00000280: aa62 13be 691a 483e 21ce 3a3d 845a cd3d
00000290: 0139 35bc bc78 f43c 9299 14be da9d 0b3e
000002a0: ce40 03bd 4034 c7bd ca08 e5be 02df 0dbe
000002b0: b9e6 99bd ac3c 93bd 6a3c 8c3d d42c 91bd
000002c0: 01e7 e9be 8f52 b1bd eb7b 453d 23f3 dabe
000002d0: c435 aebb 89ba 6fbe f902 13be 93ae e4bc
000002e0: da30 8c3d 6dc3 c6bd 6601 d8bd 94d2 5bbe
000002f0: 2af8 0c3e 4d0d c0bc 1f78 10bb 2dce 8cbd
00000300: 176a 25bc c5fc 9cbd c94d e33d 6914 5abd
00000310: 30ef a6be d985 8fbe 1c2f 63bd 9479 f2bd
00000320: aee8 723d 819c 9e3b 68ae 253d ac0b bf3d
00000330: d4a2 5dbe 8a21 16be c0bf 773d 55e3 f63d
00000340: 4084 273e 1f8c 553d 516c 15be b82f 61be
00000350: 3b52 963d 3ae7 1cbe 2990 92be 3d0b 8abe
00000360: 06ee 283d eeaa eabd 9cd5 803d f842 68bd
00000370: b141 81bb 01fc 6b3d fe0c b6bd ad8c 6ebe
00000380: 63a3 7cbd 7540 d33c dcdb 0cbe be13 07be
00000390: bab0 07be bd2d cb3d 9fc0 0a3d 4016 5bbe
000003a0: 10b2 91be c0a5 98bc b4c0 afbd 5087 69bd
000003b0: c258 0c3d 1555 f8bd 7bff 853d 3e7e 113d
000003c0: e7be 83bd a03f 88be d9e7 cf3d 585b be3d
000003d0: 324b a53d 2e83 fbbd 2187 37bd 4808 70be
000003e0: cb95 ab3e 9746 18be 5837 a6be 1441 bf3b
000003f0: 3ad6 943d 8211 953d 468f cfbd 778d 71bd

bias f4 [64]
-0.050984737 0.006896812 -0.18350019 -0.04106334 -0.014144254 -0.065072924 -0.054054663 -0.025216587
-0.082409896 -0.11336271 -0.137171 -0.14767896 -0.012647615 0.037613202 -0.18536717 -0.0922166
-0.050086223 -0.02191631 -0.16056761 -0.041673563 -0.09335487 -0.045185294 0.01709957 -0.058018073
-0.1502681 -0.06544281 -0.06512349 -0.0642346 -0.10306278 -0.18595192 -0.14815852 -0.008416374
-0.0390348 -0.0725888 -0.2754427 -0.09560593 0.017972507 -0.090004124 -0.0071889735 0.0021416282
0.0027684923 0.043378416 -0.141986 -0.011224541 -0.14829403 -0.09178759 -0.02126107 -0.12944579
-0.29306313 -0.020603849 -0.17110036 -0.08619202 -0.11800163 -0.13379209 -0.08271209 -0.13182275
-0.07154966 -0.25541946 -0.15718259 -0.110430986 0.022792915 -0.032711346 -0.19402845 -0.036185738
00000000: 5fd5 50bd a7fe e13b 79e7 3bbe 0832 28bd
00000010: 4dbd 67bc f444 85bd 6c68 5dbd 0493 cebc
00000020: 85c6 a8bd b52a e8bd 8e76 0cbe 2739 17be
00000030: f137 4fbc 4d10 1a3d e4d0 3dbe 0fdc bcbd
00000040: 3627 4dbd d589 b3bc d66b 24be e6b1 2abd
00000050: d730 bfbd 3714 39bd 6614 8c3c 5ca4 6dbd
00000060: e1df 19be e106 86bd 775f 85bd 6e8d 83bd
00000070: 9412 d3bd 2e6a 3ebe deb6 17be d5e4 09bc
00000080: f4e2 1fbd 70a9 94bd d306 8dbe 0bcd c3bd
00000090: 143b 933c 1554 b8bd 7b91 ebbb 8f5a 0c3b
000000a0: 986f 353b 91ad 313d c764 11be 23e7 37bc
000000b0: 64da 17be 22fb bbbd b22b aebc 708d 04be
000000c0: 5f0c 96be 67c9 a8bc ef34 2fbe 7185 b0bd
000000d0: d7aa f1bd cb00 09be f564 a9bd 8bfc 06be
000000e0: a188 92bd 57c6 82be 79f4 20be a429 e2bd
000000f0: 35b8 ba3c 55fc 05bd 65af 46be 7f37 14bd

weight f4 [128, 576]
0.019992221 0.03440813 0.013408519 0.00016365793 -0.013303432 -0.036507852 -0.047235742 -0.03519074
-0.028573817 0.038395207 0.004128379 -0.023463486 -0.0096330745 -0.018173702 -0.040739805 0.0052208025
-0.0077845724 -0.03921979 0.023488447 -0.04482822 0.028161531 -0.06615124 -0.037955888 -0.021661399
-0.045331948 0.011538692 0.03694321 0.03148026 0.010747196 0.02926499 0.02924557 -0.016368933
0.03406094 -0.0049768058 -0.04016042 0.032741975 -0.043118402 -0.035379387 -0.034129698 -0.026147274
-0.027711425 -0.008541541 -0.025457388 -0.035084147 -0.041484345 -0.022844933 -0.042259056 -0.044443086
-0.0003180749 0.010092854 -0.0040606135 -0.063482374 -0.020761307 -0.015948348 0.027243879 0.022765122
-0.071488634 -0.003336039 -0.033456188 0.0082588 -0.0058316686 0.00031785975 0.0050051394 -0.032542568
-0.0342566 -0.017045861 0.0061196256 0.027017782 -0.022878809 0.009578591 0.019389533 -0.043313984
-0.027204419 -0.018878305 -1.50830965e-05 -0.015903803 -0.041626077 -0.065999135 -0.0054072132 0.021438591
0.013104022 0.012852941 -0.058946945 -0.047553554 -0.025249697 -0.053440437 0.0037997556 0.0061338134
0.0014037344 0.033953343 -0.025501925 -0.011478153 0.026299335 -0.025714165 0.036928102 -0.011438916
-0.003593359 -0.06339763 0.00027634657 0.024746064 -0.028051283 0.0034533401 0.009695534 0.0022449114
-0.0034940604 0.017344043 0.0327557 -0.010769458 -0.06398086 -0.039378252 -0.035571553 -0.005039167
-0.026939696 0.0058364687 -0.047054395 -0.00660788 -0.056287903 -0.016328804 -0.06800639 -0.009626222
9.05809e-05 0.009849744 0.026951717 -0.050292023 0.019716136 -0.008442954 0.0058691525 0.0082378
-0.011109627 0.02102443 0.005521062 0.025131267 -0.026692983 -0.013424497 -0.016490731 0.002896237
-0.015870374 -0.027883682 0.032957375 -0.0091546485 -0.050715216 -0.0651497 -0.01316959 -0.03237663
-0.038956605 0.023610488 0.0022202039 0.023501659 -0.026102496 0.0076929787 -0.06293711 -0.022026302
-0.021471348 -0.02440795 0.009014279 -0.0330533 0.00015869198 -0.005647737 0.00598391 0.0111252
0.032525193 -0.04251578 0.035855744 -0.030079212 -0.022714652 -0.043219633 0.00488135 -0.031964235
-0.06795596 -0.024971213 -0.0051702857 0.027152028 -0.07222612 -0.0488664 -0.05040991 -0.034580924
-0.052637897 -0.014107272 -0.0013629657 -0.0073751984 0.018380323 -0.04390857 -0.028824927 0.007772638
-0.026693985 -0.024532558 -0.054145947 -0.031077916 -0.028568909 -0.052425925 -0.013342849 -0.026834587
0.0095837535 -0.0010240893 0.019712007 0.0024029522 -0.05204397 -0.050377563 -0.046167303 -0.04446801
0.028692707 -0.051677983 0.0036488224 -0.04159609 -0.06785922 -0.01558994 -0.014435721 0.035061803
-0.062049653 0.004782067 -0.04647156 -0.008949845 -0.023754135 -0.045943767 -0.010135966 -0.026160497
-0.02487451 -0.06450815 -0.021702206 -0.058088284 -0.015031238 -0.017964898 0.02021912 -0.026418498
-0.04146287 0.025512759 0.03497331 0.0014216831 -0.010849612 -0.02270217 -0.057100646 -0.0145590305
-0.042102832 -0.035949692 0.030137975 -0.0033030442 -0.039658196 -0.019045925 0.009599093 -0.022909028
-0.05290034 -0.008178207 0.018381936 -0.030577632 -0.016675944 -0.042045068 0.01992798 -0.010849455
-0.0031315503 0.003177489 -0.05070704 -0.018770397 -0.02782765 -0.01466218 0.020412304 0.030481944
00000000: bac6 a33c 8aef 0c3d 68af 5b3c 979b 2b39
00000010: a3f6 59bc 4289 15bd 447a 41bd 2a24 10bd
00000020: a313 eabc 4b44 1d3d 5a47 873b 7f36 c0bc
00000030: 0bd4 1dbc 04e1 94bc c8de 26bd 4413 ab3b
00000040: ba15 ffbb eea4 20bd d86a c03c cc9d 37bd
00000050: 03b3 e63c 4d7a 87bd a277 1bbd 3f73 b1bc
00000060: fead 39bd c80c 3d3c c351 173d 72f1 003d
00000070: 0215 303c 22bd ef3c 6894 ef3c 2418 86bc
00000080: 7c83 0b3d 7914 a3bb 417f 24bd 731c 063d
00000090: ec9c 30bd fae9 10bd 95cb 0bbd cf32 d6bc
000000a0: 1203 e3bc d2f1 0bbc 038c d0bc 65b4 0fbd
000000b0: 7deb 29bd 4c25 bbbc d517 2dbd f409 36bd
000000c0: 4ac3 a6b9 7f5c 253c e50e 85bb 0c03 82bd
000000d0: 9e13 aabc 1ca6 82bc 8e2e df3c ec7d ba3c
000000e0: a268 92bd 72a1 5abb 5b09 09bd eb4f 073c
000000f0: 9517 bfbb 6aa6 a639 2702 a43b 5b4b 05bd
00000100: a650 0cbd c3a3 8bbc 2487 c83b 6554 dd3c
00000110: 576c bbbc 86ef 1c3c ccd6 9e3c 016a 31bd
00000120: cddb debc ada6 9abc 680d 7db7 b148 82bc
00000130: 1b80 2abd 8e2a 87bd fe2e b1bb fc9f af3c
00000140: 40b2 563c 2495 523c 5a72 71bd 84c7 42bd
00000150: 74d8 cebc 5ce4 5abd 5205 793b 28fe c83b
00000160: 83fd b73a a912 0b3d 6ae9 d0bc dd0e 3cbc
00000170: b471 d73c 83a6 d2bc ec41 173d 4b6a 3bbc
00000180: 8f7e 6bbb 9ed6 81bd 9ce2 9039 42b8 ca3c
00000190: cecb e5bc 6f51 623b 04da 1e3c 5d1f 133b
000001a0: 9bfc 64bb 1815 8e3c d72a 063d 6172 30bc
000001b0: 6608 83bd 174b 21bd 7ab3 11bd 991f a5bb
000001c0: a3b0 dcbc d93f bf3b 1cbc 40bd ea86 d8bb
000001d0: 258e 66bd fcc3 85bc ef46 8bbd 4db7 1dbc
000001e0: 40f6 bd38 d260 213c d9c9 dc3c 02ff 4dbd
000001f0: bc83 a13c 5154 0abc 0552 c03b d6f7 063c
00000200: 2705 36bc 6d3b ac3c 06ea b43b 16e0 cd3c
00000210: 3eab dabc 6cf2 5bbc 9217 87bc cbce 3d3b
00000220: 9602 82bc 526c e4bc 50fe 063d 61fd 15bc
00000230: c2ba 4fbd 356d 85bd 44c5 57bc 5b9d 04bd
00000240: f690 1fbd c86a c13c d780 113b 8d86 c03c
00000250: e7d4 d5bc 6215 fc3b 2ce5 80bd 8170 b4bc
00000260: aee4 afbc 2ef3 c7bc a0b0 133c e662 07bd
00000270: 8e66 2639 a710 b9bb ad14 c43b 7946 363c
00000280: 2339 053d 0725 2ebd 79dd 123d ae68 f6bc
00000290: 1414 babc 1207 31bd bbf3 9f3b eeec 02bd
000002a0: 7f2c 8bbd 6e90 ccbc 806b a9bb ee6d de3c
000002b0: 4aeb 93bd 2228 48bd 9f7a 4ebd baa4 0dbd
000002c0: d69a 57bd 3022 67bc 8aa5 b2ba a6ab f1bb
000002d0: 5592 963c 79d9 33bd 4122 ecbc 9db1 fe3b
000002e0: 58ad dabc 81f8 c8bc 24c8 5dbd 1d97 febc
000002f0: 5809 eabc 91bc 56bd f79b 5abc 35d4 dbbc
00000300: 2d05 1d3c bc3a 86ba 137b a13c d97a 1d3b
00000310: 0f2c 55bd b458 4ebd ed19 3dbd 1724 36bd
00000320: f80c eb3c 4bac 53bd 1521 6f3b a960 2abd
00000330: c6f9 8abd f36c 7fbc cd83 6cbc f79c 0f3d
00000340: c727 7ebd e3b2 9c3b f658 3ebd 5fa2 12bc
00000350: 0898 c2bc 882f 3cbd 5311 26bc 8a4e d6bc
00000360: a1c5 cbbc d91c 84bd d3c8 b1bc fbed 6dbd
00000370: 9545 76bc 1f2b 93bc 91a2 a53c 9b6b d8bc
00000380: f8d4 29bd 2200 d13c 2c40 0f3d c557 ba3a
00000390: 92c2 31bc e7f9 b9bc 5ee2 69bd 0089 6ebc
000003a0: 0574 2cbd fc3f 13bd eae3 f63c e377 58bb
000003b0: a270 22bd 3306 9cbc 8445 1d3c b7ab bbbc
000003c0: 07ae 58bd e3fd 05bc b795 963c f17d fabc
000003d0: fd9b 88bc 7337 2cbd 0140 a33c eac1 31bc
000003e0: b23a 4dbb 6b3d 503b 2fb2 4fbd 60c4 99bc
000003f0: d0f6 e3bc a439 70bc b437 a73c 45b5 f93c

bias f4 [128]
-0.008195372 -0.047953133 0.022128128 -0.023065528 0.029783223 -0.03965691 -0.02744539 0.09633183
0.038976688 0.12931268 0.062164694 0.12222202 0.09206214 0.21211538 -0.0050055673 0.027573358
0.011043116 -0.061483342 -0.0005838652 0.13249834 -0.11283127 0.0072975047 0.03859245 -0.009699381
-0.032308854 -0.15480413 -0.04091836 0.13624467 0.05693176 0.060401782 -0.040938504 -0.0072173723
0.018673271 -0.090669535 -0.07703548 0.022344423 0.034822647 -0.17449014 -0.021036927 0.12439055
-0.030815925 0.14536077 0.022780085 0.100219734 -0.1139757 0.021921711 -0.07178765 -0.05308188
-0.15540275 0.01732375 0.1492024 0.0999304 0.086139396 0.01232589 -0.014918866 -0.010165369
0.102973185 -0.039121438 -0.046637792 -0.037359543 -0.008818641 0.013305201 -0.10470353 -0.035073217
-0.0314592 -0.057115585 -0.05722716 -0.0007708388 -0.057477567 0.20267017 0.013391686 0.25009042
-0.14167503 -0.007454104 -0.021511244 0.019785145 -0.043580294 -0.011355929 0.009470421 -0.025564784
-0.029565206 -0.01912097 -0.07149064 -0.024489153 -0.008288796 -0.026099443 -0.026715495 -0.050519552
0.04505645 -0.06586495 -0.021619046 0.081060916 -0.023656283 -0.08431778 0.04138767 0.08623996
0.03357677 -0.004134429 -0.0441569 0.0035274164 0.023950849 -0.04815693 0.036493216 0.082001366
-0.21224141 0.03678257 -0.012512157 -0.036639404 -0.17850736 -0.06218304 -0.19735228 -0.03658978
-0.1941262 0.005854121 0.15836 -0.024012558 -0.14022283 -0.1614801 0.019026602 -0.058069237
-0.044584256 -0.036233976 -0.013815051 0.031290025 0.012427206 0.004534668 0.124111354 0.11880634
00000000: e245 06bc 816a 44bd 0c46 b53c ebf3 bcbc
00000010: f2fb f33c 496f 22bd 28d5 e0bc 9f49 c53d
00000020: 05a6 1f3d 8b6a 043e 68a0 7e3d 8a4f fa3d
00000030: 138b bc3d c634 593e be05 a4bb 86e1 e13c
00000040: 30ee 343c f5d5 7bbd 880e 19ba a5ad 073e
00000050: 1514 e7bd e81f ef3b 1e13 1e3d 27ea 1ebc
00000060: 4a56 04bd f984 1ebe 039a 27bd b983 0b3e
00000070: 4731 693d dc67 773d 22af 27bd b57f ecbb
00000080: b0f8 983c f3b0 b9bd c7c4 9dbd a70b b73c
00000090: 31a2 0e3d 8bad 32be a255 acbc 79c0 fe3d
000000a0: ae71 fcbc 74d9 143e 4d9d ba3c 0140 cd3d
000000b0: 186c e9bd 2995 b33c 6705 93bd 636c 59bd
000000c0: e621 1fbe 89ea 8d3c 84c8 183e 4fa8 cc3d
000000d0: da69 b03d 88f2 493c 426e 74bc a68c 26bc
000000e0: 9be3 d23d cd3d 20bd 4507 3fbd 5206 19bd
000000f0: 107c 10bc 0ffe 593c ce6e d6bd efa8 0fbd
00000100: 5ddb 00bd 08f2 69bd 0767 6abd 1e12 4aba
00000110: 996d 6bbd c588 4f3e cd68 5b3c da0b 803e
00000120: 4213 11be 8e41 f4bb 5938 b0bc 7514 a23c
00000130: 4081 32bd 380e 3abc d329 1b3c 3d6d d1bc
00000140: bb32 f2bc 95a3 9cbc af69 92bd 7a9d c8bc
00000150: bbcd 07bc 80ce d5bc 74da dabc 97ed 4ebd
00000160: 1d8d 383d 34e4 86bd 6d1a b1bc 4403 a63d
00000170: d2ca c1bc cdae acbd 1e86 293d 939e b03d
00000180: cc87 093d 1b7a 87bb dedd 34bd 3a2c 673b
00000190: 9234 c43c 3340 45bd e979 153d 55f0 a73d
000001a0: d055 59be 52a9 163d caff 4cbc 3313 16bd
000001b0: a2ca 36be a5b3 7ebd b716 4abe 2adf 15bd
000001c0: 05c9 46be edd3 bf3b 2029 223e fcb5 c4bc
000001d0: 9396 0fbe 0a5b 25be addd 9b3c 02da 6dbd
000001e0: fb9d 36bd 146a 14bd 8658 62bc f829 003d
000001f0: 7b9b 4b3c 8d97 943b 182e fe3d bd50 f33d

weight f4 [10, 128]
-0.06504147 0.016632963 -0.0191214 0.032959584 0.16912904 -0.0005611018 0.01643016 0.13076879
0.20287377 0.19479093 0.062780455 0.12338443 0.07083854 -0.057793394 -0.0920401 0.08217482
0.008531277 -0.0040621515 -0.04445524 -0.49780858 0.095063336 0.14552024 -0.58063257 -0.010948976
-0.06066375 0.12061794 0.04144268 0.11863553 -0.029167028 -0.048497457 -0.036696594 0.0101663135
0.032294847 -0.035354473 0.034156013 -0.03710444 -0.43533957 -0.00954166 0.06965064 -0.11998685
-0.015126752 -0.18962109 0.091893494 -0.09837426 -0.0032793195 0.013429373 -0.27172077 -0.25403896
0.02789737 -0.05819505 -0.22026566 0.043190032 0.042876802 -0.42965496 0.101759955 -0.07600303
0.18309018 0.06893627 -0.038909364 0.044365916 -0.085772336 -0.11901337 -0.033551484 -0.020863885
0.19752295 0.03221136 0.12460563 0.0030838074 -0.07420133 0.14898673 -0.008960808 0.22726348
0.09639224 -0.2527848 0.013883149 -0.071053974 -0.056428198 0.21554068 -0.08148078 0.08215664
0.020305553 -0.056211334 0.07710497 -0.35834983 -0.003276524 0.14408706 -0.34341952 0.014763316
0.0187686 -0.027638586 0.03516147 0.15664876 -0.08045988 0.19184448 -0.0065113814 -0.10454948
-0.033297934 0.07399674 -0.31210852 -0.0061061727 0.04493247 -0.027436195 0.11513166 0.16549698
-0.08461624 0.1231152 0.011887371 0.0921874 -0.17812729 -0.13292393 -0.29967436 -0.068734
-0.4606564 -0.067777805 0.05978012 0.041947916 -0.31337044 0.16232891 -0.04826296 0.02937
0.07103819 0.0424126 -0.07222268 -0.063591 0.12262024 -0.019808915 -0.016629836 -0.25452113
-0.08794409 0.058951296 -0.076207526 -0.05615474 0.19510283 -0.014941954 0.08467052 -0.2151564
-0.06037939 -0.31395113 0.012986866 -0.081560574 0.19263302 -0.29662666 -0.16928318 0.026402313
-0.024818437 -0.07093827 0.045893542 -0.05615076 -0.3175032 -0.2524707 -0.0841853 -0.053548392
0.054683812 0.3224691 -0.23298295 0.041675698 -0.09268586 -0.033370577 0.06644977 0.088408254
0.03667616 0.08053029 -0.077470936 0.010287312 -0.21930335 -0.20391253 -0.022962926 -0.32452664
0.03112118 0.18758763 -0.19263816 0.04770424 0.16782948 -0.004975841 -0.055734217 0.06736377
0.0018659685 -0.009929653 0.074907534 -0.15588331 -0.06545901 0.19521368 -0.09953039 -0.27187124
-0.12743193 -0.06057322 -0.06403369 0.066519246 -0.06149936 -0.20954551 0.12592211 -0.00778615
0.26193458 0.018996099 0.20084105 -0.029168835 -0.027621394 0.032075446 0.019433254 0.2212011
-0.07580774 0.09556236 -0.06654279 0.06116913 -0.054997597 -0.13224773 -0.07293072 -0.01175323
0.09537537 -0.032133374 0.17437173 0.018981071 0.06702442 -0.31586215 0.05800116 0.07028664
-0.092416495 0.05140446 0.059136704 -0.3207262 -0.029827943 0.13033614 0.176816 0.06569872
0.072035134 -0.3037325 0.023330124 0.0016204531 -0.08098927 0.052093904 -0.30687645 0.14252737
0.13116166 -0.092073224 -0.07622207 0.03268519 0.063345894 0.25506815 -0.1780608 -0.042779174
0.124331325 -0.080792755 -0.3435311 0.09292791 -0.20641468 0.19763856 0.073318 0.031262558
0.040272623 0.051105745 0.06665634 0.1927115 0.16673774 0.048168875 -0.105262354 -0.3302957
00000000: 7634 85bd da41 883c 7ba4 9cbc a100 073d
00000010: 2a30 2d3e e816 13ba 8b98 863c 41e8 053e
00000020: 24be 4f3e 4677 473e 0a93 803d fab0 fc3d
00000030: cc13 913d c4b8 6cbd 857f bcbd 464b a83d
00000040: c5c6 0b3c cc1b 85bb b316 36bd c4e0 febe
00000050: 91b0 c23d 4203 153e 56a4 14bf 5563 33bc
00000060: 8d7a 78bd 8a06 f73d cdbf 293d 2ff7 f23d
00000070: b1ef eebc 45a5 46bd 2b4f 16bd 9c90 263c
00000080: 9a47 043d dacf 10bd 2de7 0b3d d3fa 17bd
00000090: d4e4 debe 9f54 1cbc ffa4 8e3d aabb f5bd
000000a0: 32d6 77bc 082c 42be a832 bc3d 7278 c9bd
000000b0: dae9 56bb df06 5c3c fc1e 8bbe 6511 82be
000000c0: 0689 e43c ef5d 6ebd 528d 61be 08e8 303d
000000d0: 969f 2f3d bcfb dbbe 8667 d03d 7aa7 9bbd
000000e0: fe7b 3b3e 762e 8d3d 6d5f 1fbd 09b9 353d
000000f0: 68a9 afbd 48bd f3bd 486d 09bd bdea aabc
00000100: 7543 4a3e 0ff0 033d 3d31 ff3d b419 4a3b
00000110: def6 97bd fa8f 183e 5ad0 12bc c2b7 683e
00000120: 4b69 c53d 026d 81be 2676 633c bf84 91bd
00000130: 4121 67bd b2b6 5c3e 65df a6bd be41 a83d
00000140: d557 a63c db3d 66bd 36e9 9d3d a179 b7be
00000150: f3ba 56bb 8f8b 133e afd4 afbe d6e1 713c
00000160: 9bc0 993c 516a e2bc 7905 103d 8868 203e
00000170: 26c8 a4bd e172 443e 6d5d d5bb 0a1e d6bd
00000180: 6a63 08bd 9a8b 973d b0cc 9fbe 4a16 c8bb
00000190: 1c0b 383d dfc1 e0bc 26ca eb3d 0a78 293e
000001a0: 474b adbd d223 fc3d 3fc3 423c bfcc bc3d
000001b0: 0067 36be 361d 08be eb6e 99be 69c4 8cbd
000001c0: 28db ebbe 17cf 8abd 00dc 743d 94d1 2b3d
000001d0: 1772 a0be 8d39 263e 62af 45bd 5b99 f03c
000001e0: 787c 913d d6b8 2d3d 7ce9 93bd 003c 82bd
000001f0: 5220 fb3d 4e46 a2bc 4b3b 88bc 9850 82be
00000200: 081c b4bd ea76 713d b112 9cbd 8302 66bd
00000210: 09c9 473e 19cf 74bc bd67 ad3d f651 5cbe
00000220: 6150 77bd 34be a0be ddc6 543c 3b09 a7bd
00000230: 9741 453e 73df 97be 9258 2dbe aa49 d83c
00000240: 0950 cbbc 1548 91bd defa 3b3d 57fe 65bd
00000250: c88f a2be d743 81be 5869 acbd 8f55 5bbd
00000260: 22fc 5f3d ab1a a53e 1593 6ebe 23b4 2a3d
00000270: 16d2 bdbd 96af 08bd d116 883d 630f b53d
00000280: be39 163d 11ed a43d 15a9 9ebd 1d8c 283c
00000290: 0f91 60be 72ce 50be bf1c bcbc 5b28 a6be
000002a0: d8f1 fe3c f916 403e f042 45be 8565 433d
000002b0: 7edb 2b3e 610c a3bb 9049 64bd 04f6 893d
000002c0: 8393 f43a fcaf 22bc 1f69 993d e09f 1fbe
000002d0: 600f 86bd 18e6 473e 97d6 cbbd b532 8bbe
000002e0: 847d 02be a01b 78bd 1824 83bd 3e3b 883d
000002f0: c1e6 7bbd 1993 56be baf1 003e f622 ffbb
00000300: 4a1c 863e b59d 9b3c 47a9 4d3e 7bf3 eebc
00000310: 4346 e2bc 8b61 033d 7d32 9f3c 8b82 623e
00000320: 1741 9bbd 33b6 c33d 9647 88bd 7b8c 7a3d
00000330: 2945 61bd f36b 07be b45c 95bd 9f90 40bc
00000340: 2954 c33d 499e 03bd 818e 323e 317e 9b3c
00000350: 1944 893d afb8 a1be a092 6d3d 71f2 8f3d
00000360: dc44 bdbd 7c8d 523d 5439 723d 3936 a4be
00000370: bb59 f4bc d676 053e 410f 353e 0d8d 863d
00000380: 2887 933d d482 9bbe d11e bf3c 6265 d43a
00000390: b4dd a5bd 6b60 553d e91e 9dbe b2f2 113e
000003a0: 3e4f 063e e390 bcbd 511a 9cbd e8e0 053d
000003b0: 7ebb 813d 4b98 823e 9255 36be 3739 2fbd
000003c0: 6ca1 fe3d ac76 a5bd 4fe3 afbe fd50 be3d
000003d0: 5f5e 53be c361 4a3e bf27 963d 2b0d 003d
000003e0: e8f4 243d 4254 513d 1f83 883d 2a56 453e
000003f0: 4cbd 2a3e ba4c 453d ca93 d7bd 851c a9be

bias f4 [10]
-0.06073425 -0.0815852 -0.0488675 -0.18704039 -0.1112377 0.039816916 0.02020685 0.010482043
0.20928219 0.08064179
00000000: 7ac4 78bd 2416 a7bd 4a29 48bd 8487 3fbe
00000010: 97d0 e3bd 1017 233d d688 a53c e0bc 2b3c
00000020: 124e 563e 8627 a53d
