models/model_9738.pth (torch, 274159 bytes, 6 tensors)

weight f4 [32, 1, 3, 3]
0	0xbe2da858	-0.1695875
1	0xbedae0b7	-0.4274957
2	0xbe377dd9	-0.17919101
3	0x3f6e733f	0.931446
4	0x3f34068e	0.703225
5	0x3f1a4496	0.60260904
6	0xbf10c6e1	-0.56553465
7	0xbedd221a	-0.4319008
8	0xbde4dd6c	-0.11175045
9	0xbe80bff1	-0.2514644
10	0x3ea48a0f	0.3213658
11	0x3f759b0d	0.95939714
12	0xbf833775	-1.0251299
13	0xbe48149a	-0.19539109
14	0x3e9f5c3c	0.31125057
15	0xbf78ecaf	-0.9723615
16	0xbf7d9900	-0.99061584
17	0xbe0446c3	-0.12917618
18	0x3f360653	0.711034
19	0x3f4bc72b	0.7960078
20	0x3caa7342	0.020806912
21	0x3e89b6e0	0.26897335
22	0xbe1e9e30	-0.15490031
23	0xbf9b76bf	-1.2145613
24	0xbf312812	-0.6920177
25	0xbf6ef197	-0.93337387
26	0xbf15ca6c	-0.58511996
27	0x3e1378a6	0.14401492
28	0x3e731b39	0.23740853
29	0x3eae3e35	0.34031835
30	0x3eab5f77	0.3347127
31	0xbe928f81	-0.2862511
32	0x3e5f3a42	0.21799567
33	0x3ea13068	0.31482244
34	0xbe0dcd38	-0.13847816
35	0xbe3ab02e	-0.1823127
36	0x3e869e77	0.26292774
37	0x3f355ae7	0.7084183
38	0x3f30ace6	0.6901382
39	0xbf97549a	-1.1822693
40	0xbf363d96	-0.7118772
41	0xbf7b0f3e	-0.9807013
42	0x3e4ef72a	0.20211473
43	0x3e525dd8	0.20543611
44	0xbf144f72	-0.57933724
45	0xbf7c122b	-0.9846522
46	0xbe6730ff	-0.22577284
47	0x3f48db9e	0.7846011
48	0xbea34592	-0.31889015
49	0x3eb8d2a0	0.36098194
50	0x3ec64327	0.38723108
51	0x3e6442f8	0.22291172
52	0x3f1d9c92	0.6156703
53	0xbeba8b27	-0.3643429
54	0xbf2fdf7b	-0.6870038
55	0xbe4ffed3	-0.20312051
56	0xbed520fe	-0.41626734
57	0xbf2cae97	-0.674539
58	0xbefd964e	-0.49528736
59	0x3e817c84	0.2529031
60	0xbee38c29	-0.4444287
61	0xbe272090	-0.16321015
62	0xbf0fa664	-0.56113267
63	0xbe154797	-0.1457809
64	0xbe499917	-0.19687305
65	0x3f0fa4dd	0.56110936
66	0xbf1b900b	-0.6076667
67	0xbdcd176a	-0.100142315
68	0x3e5cfabd	0.21580024
69	0x3ed754a0	0.4205675
70	0x3e623c1c	0.22093242
71	0x3f1003a7	0.56255573
72	0xbe7722a4	-0.24134308
73	0xbedb28fe	-0.42804712
74	0xbc88cc0a	-0.016698856
75	0x3e90630d	0.2820057
76	0xbf3bda48	-0.73379946
77	0xbf244c67	-0.6417908
78	0x3f9ef693	1.2418998
79	0xbe13ce54	-0.14434177
80	0xbe809f4d	-0.25121537
81	0xbecfad07	-0.40561697
82	0x3f071389	0.52764183
83	0x3f14d886	0.5814289
84	0x3ecd8fc0	0.40148735
85	0x3e4a8b03	0.19779591
86	0xbefeb56f	-0.49747798
87	0x3e8e4eb7	0.2779443
88	0xbe07fe9e	-0.13280722
89	0xbf1210e1	-0.57057005
90	0x3e84d7d3	0.2594591
91	0xbe4e2c9c	-0.20134205
92	0x3e7caccc	0.24675292
93	0x3e428487	0.18995868
94	0xbd5979e8	-0.053094774
95	0x3ebad574	0.36490977
96	0x3f01c84b	0.5069625
97	0xbe1c34d8	-0.15254533
98	0x3e76d799	0.24105681
99	0x3eca9da1	0.39573386
100	0xbdd66b0f	-0.104696386
101	0xbebb5f55	-0.3659617
102	0x3da1b819	0.07896442
103	0x3e888df2	0.26670796
104	0x3f2b3d03	0.6688997
105	0x3e91cdae	0.28477234
106	0xbe86cc46	-0.26327723
107	0xbea84a28	-0.32869077
108	0x3e17ed40	0.14836597
109	0x3f4362c5	0.76322585
110	0xbee32b4e	-0.44368976
111	0xbedfff13	-0.43749294
112	0x3f059a65	0.5218871
113	0xbeb6a321	-0.35671332
114	0xbeac5dac	-0.33665216
115	0x3ef781d1	0.4834123
116	0x3ea6e8d5	0.32599512
117	0x3f286b3b	0.6578862
118	0x3f22eb94	0.63640714
119	0xbefe4f6f	-0.49669978
120	0xbe451b4e	-0.19248697
121	0x3f0c532c	0.5481441
122	0x3f10fb43	0.56633395
123	0xbf6471ed	-0.89236337
124	0xbe974856	-0.29547375
125	0x3eba7a3e	0.36421388
126	0xbf5fe25f	-0.8745479
127	0xbf20e4b6	-0.62848985
128	0xbf394d6d	-0.7238377
129	0x3dd75163	0.1051357
130	0x3dbc4394	0.09192577
131	0xbf4e47ab	-0.80578107
132	0x3f174e1a	0.5910355
133	0x3f06a686	0.52597845
134	0x3e9ba3ea	0.30398494
135	0xbf04e020	-0.5190449
136	0xbeb97b85	-0.3622705
137	0xbdd8e1b2	-0.10589923
138	0x3f042775	0.51622707
139	0x3f0aec7f	0.54267114
140	0x3f332ac6	0.6998714
141	0x3deeae9e	0.11654399
142	0xbea1bc51	-0.31588987
143	0xbf003f5a	-0.50096667
144	0x3f390cfd	0.72285444
145	0xbe2c4305	-0.16822441
146	0xbdeaab0c	-0.11458406
147	0x3f046b50	0.51726246
148	0x3e82320c	0.25428808
149	0x3e7bfb20	0.24607515
150	0xbe5b2a46	-0.21402845
151	0xbdd89a7b	-0.1057634
152	0x3f65380d	0.8953865
153	0x3e395aa6	0.18100986
154	0xbe309441	-0.17244054
155	0xbf37c5ce	-0.717862
156	0xbfa2abbe	-1.2708662
157	0xbf35a67e	-0.7095717
158	0xbec643b2	-0.38723522
159	0x3e530074	0.20605642
160	0x3f466019	0.77490383
161	0x3f84c6d5	1.0373179
162	0x3d8a54bc	0.06754443
163	0x3e93e6d0	0.28887033
164	0x3ecd5f67	0.4011185
165	0x3ea2da35	0.31807104
166	0x3d30e03d	0.0431826
167	0x3e4d37cb	0.20040815
168	0x3e5b4521	0.2141309
169	0x3ec62d11	0.38706258
170	0x3e3b52f3	0.18293361
171	0xbeaf71ac	-0.34266412
172	0xbf3e3918	-0.7430587
173	0xbf185659	-0.59506756
174	0xbe95e0d4	-0.29273093
175	0x3ebaf3dd	0.36514178
176	0x3e9d31df	0.3070211
177	0x3f3aae14	0.7292187
178	0x3ebda367	0.3703873
179	0x3e30ce71	0.17266251
180	0x3e8fc464	0.28079522
181	0x3ea61427	0.3243725
182	0x3e9785ad	0.29594174
183	0x3d0aef82	0.03391982
184	0xbe6a5227	-0.22882901
185	0xbd6c1f9a	-0.057647325
186	0x3e8accf1	0.27109483
187	0x3e089929	0.13339676
188	0x3f0f6f52	0.56029236
189	0xbe371ff8	-0.17883289
190	0xbddc4f84	-0.10757354
191	0x3f0f8b1e	0.5607165
192	0xbf2a0877	-0.66419166
193	0xbe7a7f41	-0.24462606
194	0x3ee70923	0.45124158
195	0xbf43dbee	-0.7650746
196	0xbeb3f984	-0.35151303
197	0x3f7dbe5c	0.9911859
198	0xbea6c6fe	-0.32573694
199	0xbd8bf7fc	-0.06834409
200	0xbde6a01c	-0.11261007
201	0x3ba902c0	0.0051577985
202	0x3e287680	0.16451454
203	0xbe9c547a	-0.305332
204	0x3c523500	0.012830019
205	0xbe2248cb	-0.15848081
206	0xbba55700	-0.0050457716
207	0x3e95be9f	0.29246995
208	0x3e94909b	0.29016575
209	0x3ea73ddb	0.3266438
210	0xbd091eb6	-0.033476554
211	0xbe12139f	-0.14265297
212	0x3da54a2b	0.08070787
213	0xbd9e23db	-0.07721683
214	0x3ebc721c	0.3680581
215	0xbe42e1b2	-0.19031408
216	0x3dee706b	0.11642536
217	0xbed97651	-0.4247308
218	0xbf223e7a	-0.6337658
219	0x3eb245ae	0.34818786
220	0xbe777a2d	-0.241677
221	0xbf2f81e3	-0.68557566
222	0x3f320062	0.69531834
223	0x3f0275f5	0.5096124
224	0x3da63960	0.08116412
225	0x3e9a0cca	0.30087882
226	0xbf16cd74	-0.58907247
227	0xbef0bd86	-0.47019595
228	0x3ec9952b	0.3937162
229	0x3e9f4f81	0.31115344
230	0xbe6df4c6	-0.23237905
231	0x3e2d0063	0.16894679
232	0x3f14558a	0.5794302
233	0x3e7ba3e7	0.24574243
234	0x3f7b1764	0.98082566
235	0xbed5452f	-0.41654345
236	0xbf2aed12	-0.6676799
237	0x3f0451bc	0.51687217
238	0xbf05a024	-0.5219748
239	0xbe512f20	-0.20428133
240	0x3d91ae0e	0.071132764
241	0xbe46142c	-0.19343632
242	0x3d7601b6	0.060060225
243	0x3ee5210e	0.4475178
244	0x3e8c17ed	0.27362004
245	0x3ed6e763	0.4197341
246	0xbed512fb	-0.41616043
247	0x3f14f3fb	0.58184785
248	0x3eced11c	0.40393913
249	0xbf1a0513	-0.6016399
250	0xbf214467	-0.62995
251	0xbf637aea	-0.88859427
252	0xbe3a4d54	-0.18193561
253	0x3f158216	0.5840162
254	0x3f536fc5	0.8259242
255	0xbd8164d3	-0.06318059

bias f4 [32]
0	0xbeaac571	-0.3335376
1	0xba711dba	-0.000919785
2	0xbaec9f52	-0.0018052852
3	0xbeef07d6	-0.46685666
4	0x3ce1771d	0.027522618
5	0xbe8bb52f	-0.2728667
6	0x3f3d2538	0.73884916
7	0xbe39182c	-0.18075627
8	0x3c871380	0.01648879
9	0xbe9eb6c5	-0.30998817
10	0xbea46ed1	-0.32115796
11	0xbd74b169	-0.059739504
12	0xbee2dffe	-0.44311517
13	0xbf131de5	-0.5746749
14	0xba2e17d9	-0.0006641127
15	0xb8913be0	-6.9252914e-05
16	0xbf76cc7c	-0.9640577
17	0x3bd90e87	0.0066240462
18	0xbf49b05b	-0.7878472
19	0x3b307bb3	0.00269292
20	0xbe2bb963	-0.16769938
21	0xbce8420c	-0.028351806
22	0xbe99aceb	-0.30014738
23	0xbe290226	-0.16504726
24	0xbe2a6696	-0.16640696
25	0xbe6e3ac4	-0.23264605
26	0xbc3c9f53	-0.011512595
27	0xbb971001	-0.004610062
28	0x3bbf3b7b	0.005835948
29	0xbea5b3c9	-0.32363728
30	0xbe93c090	-0.2885785
31	0xbe812fb5	-0.2523171

weight f4 [128, 512]
0	0x3e1b22fc	0.15150064
1	0xbd8b73f3	-0.06809225
2	0xbe9e8ae9	-0.30965355
3	0xbc90ee10	-0.017691642
4	0xbca70055	-0.0203859
5	0xbea36c85	-0.3191873
6	0xbe7111b8	-0.23541915
7	0x3e098099	0.13427962
8	0xbe1835b2	-0.14864233
9	0xbee33b38	-0.44381118
10	0x3d661890	0.05617577
11	0x3d0ef018	0.03489694
12	0x3db083ab	0.08618864
13	0x3eb6f776	0.35735673
14	0x3e1f74e1	0.1557193
15	0x3eaa0fcc	0.33215177
16	0xbe1cdc10	-0.15318322
17	0xbd3ad800	-0.04561615
18	0xbdcede07	-0.10100942
19	0xbd12ea82	-0.035868175
20	0x3e1be059	0.152223
21	0x3e1b510e	0.15167639
22	0x3d510cd8	0.05103764
23	0x3e105d7c	0.14098161
24	0xbdc966ee	-0.098340854
25	0xbd7e6b63	-0.06211413
26	0x3ea14a3d	0.31501952
27	0x3e7e49e4	0.24832875
28	0x3e89889f	0.26862046
29	0x3e29ba4e	0.16574976
30	0xbd92285e	-0.07136606
31	0x3e738064	0.23779446
32	0x3eb264ae	0.34842438
33	0x3e0940c4	0.13403612
34	0x3e9f9f14	0.31176054
35	0x3ea8b1b8	0.3294809
36	0xbe65275a	-0.22378293
37	0xbe7e2c0a	-0.24821487
38	0xbeb7237e	-0.35769266
39	0xbc9f692e	-0.019459333
40	0xbe8e9856	-0.27850598
41	0xbcd8c997	-0.026463313
42	0xbd89c4fd	-0.06727026
43	0xbeca1a2c	-0.39473093
44	0x3e6988d1	0.22806098
45	0xbd8954dc	-0.06705639
46	0xbdf71cad	-0.12066016
47	0x3e6a5ab0	0.22886157
48	0x3d8c8aab	0.06862386
49	0xbd3f60e4	-0.04672326
50	0x3de9d1b5	0.114169516
51	0xbce67548	-0.028132096
52	0xbdd13701	-0.10215569
53	0x3da0e4ae	0.07856117
54	0x3e193134	0.14960176
55	0xbccf9c9b	-0.02534323
56	0xbd57db6f	-0.052699503
57	0x3dfa7f10	0.122312665
58	0xbd921d19	-0.07134456
59	0xbe043796	-0.1291183
60	0xbdbbb1d2	-0.09164776
61	0x3e4e321e	0.20136306
62	0x3d8e351f	0.06943726
63	0x3e077980	0.13229942
64	0x3db973c0	0.09055281
65	0x3e11d348	0.14240754
66	0x3c30ed9d	0.010798839
67	0x3df615e2	0.120158926
68	0xbcc98302	-0.024598602
69	0xbda14557	-0.07874554
70	0xbe85e619	-0.26152113
71	0x3ee615a4	0.44938385
72	0xbd903dd4	-0.07043043
73	0x3cfa64b8	0.030565605
74	0xbdf6e02e	-0.12054478
75	0x3c8b7d93	0.017027652
76	0x3dae3d53	0.085077904
77	0x3d9c6dfc	0.07638165
78	0x3e868bc9	0.26278523
79	0x3e5b360a	0.21407333
80	0x3ea2d711	0.31804708
81	0x3e49e99d	0.19718023
82	0x3d79f8a3	0.061028134
83	0x3e291b21	0.16514255
84	0x3e8e3f43	0.2778264
85	0xbdf6adeb	-0.12044891
86	0xbd625449	-0.05525616
87	0xbea3f293	-0.32021007
88	0xbe3a52cf	-0.18195651
89	0xbd740b48	-0.05958107
90	0xbe8e1a10	-0.2775426
91	0xbe25719d	-0.16156621
92	0x3ca7ebe3	0.020498222
93	0xbe07ec82	-0.13273814
94	0xbc4a01bb	-0.012329514
95	0x3e71bcd7	0.23607193
96	0x3e19f415	0.15034516
97	0x3e0c031b	0.1367306
98	0x3dd3b86e	0.103379115
99	0x3def4122	0.11682345
100	0x3dd6c718	0.10487193
101	0x3e5da4c6	0.21644887
102	0x3efa1fc4	0.4885236
103	0x3eb6b201	0.3568268
104	0x3e085f0a	0.13317505
105	0xbdc588ba	-0.09645219
106	0x3edcc7b3	0.43121108
107	0x3e21b59b	0.15791933
108	0x3e1aa4be	0.15101907
109	0x3c1c852e	0.009553237
110	0xbe1f2486	-0.15541276
111	0x3d442044	0.047882333
112	0x3e266346	0.16248807
113	0xbc2e5940	-0.010641396
114	0xbdaa9fd9	-0.0833127
115	0x3d2e6c27	0.04258361
116	0x3da675fa	0.08127971
117	0xbd7a5af0	-0.06112188
118	0x3cddc56f	0.027071683
119	0xbe426647	-0.18984328
120	0xbe831e52	-0.2560907
121	0xbcd79e82	-0.0263207
122	0xbe24720e	-0.16059133
123	0xbdfbe7cb	-0.123000704
124	0x3df4fa85	0.11961845
125	0x3e0d92c4	0.13825518
126	0x3e16b7d0	0.14718556
127	0x3e9ee9f1	0.31037858
128	0x3dc133f3	0.09433737
129	0xbda28396	-0.07935254
130	0x3d9d4581	0.076792724
131	0x3cb23321	0.021752896
132	0xbda61876	-0.08110134
133	0xbdfc4363	-0.123175405
134	0x3e811514	0.25211394
135	0xbd2f723d	-0.042833555
136	0x3e9d4a84	0.30720913
137	0xbedebc2a	-0.43502933
138	0x3f16ad87	0.5885853
139	0xbe6fbe79	-0.23412503
140	0x3e73c5ca	0.2380592
141	0x3ef6aa68	0.48176885
142	0xbe5d2880	-0.21597481
143	0x3d303410	0.0430184
144	0x3dc40fb9	0.09573311
145	0x3e72aeb3	0.23699455
146	0x3e9b0610	0.30278063
147	0x3d4fb6f7	0.0507116
148	0xbe2f5f71	-0.17126252
149	0xbde90cf8	-0.11379427
150	0xbda84077	-0.08215421
151	0xbdcb267d	-0.099194504
152	0xbce1c1bc	-0.0275582
153	0xbe5858e3	-0.21127658
154	0xbe5dce79	-0.21660794
155	0xbe50a6bb	-0.20376103
156	0xbdfe2971	-0.12410248
157	0xbdc87da2	-0.097895876
158	0x3cd23b30	0.025662988
159	0x3e3b4c0b	0.18290727
160	0x3e518066	0.20459136
161	0xbe051e6b	-0.12999885
162	0x3c832625	0.0160094
163	0xbd11396a	-0.035455145
164	0x3e04c3f0	0.12965369
165	0xbd769fb3	-0.060210895
166	0x3e1549c0	0.14578915
167	0x3cde829a	0.027161885
168	0xbda8d053	-0.0824286
169	0x3dbbb4f9	0.09165377
170	0xbe54d05a	-0.20782605
171	0xbe47c0fd	-0.19507213
172	0x3e82c305	0.25539413
173	0x3ea1a514	0.31571257
174	0x3e3a8f8b	0.1821882
175	0x3e8e10b4	0.27747118
176	0x3e87aa09	0.26496914
177	0x3e81bcc2	0.25339323
178	0x3d978c85	0.07399849
179	0x3e3cd878	0.18441951
180	0xbe58bafa	-0.21165076
181	0xbe034f13	-0.12823133
182	0x3e39f277	0.18158899
183	0x3e02a440	0.12757969
184	0xbd8bb04e	-0.06820737
185	0xbe8f4c5e	-0.2798795
186	0x3da03506	0.078226134
187	0xbce0e818	-0.02745442
188	0x3e2138e7	0.15744363
189	0x3e467f58	0.19384515
190	0x3e847b44	0.25875294
191	0x3e8d73e2	0.27627474
192	0x3e425747	0.18978606
193	0x3e737b75	0.23777564
194	0xbdea8b50	-0.11452353
195	0x3e47d8cc	0.19516295
196	0xbde2103c	-0.11038253
197	0x3e49a8b6	0.19693264
198	0xbdd990d7	-0.10623329
199	0xbde6449f	-0.11243557
200	0x3df7fd2e	0.12108837
201	0xbe509489	-0.20369162
202	0x3d757ca7	0.05993333
203	0x3dad0d47	0.08449798
204	0x3ccaac1c	0.024740271
205	0x3e792c76	0.24333367
206	0x3d4307ba	0.04761479
207	0xbe04979a	-0.12948456
208	0x3e20e761	0.15713264
209	0x3f011eac	0.50437427
210	0xbe1bf6ba	-0.15230837
211	0xbeed58d4	-0.46356833
212	0xbe167b79	-0.14695539
213	0x3d616f64	0.05503787
214	0xbddeaa37	-0.1087231
215	0xbb4cc6fd	-0.0031246536
216	0xbd99f13b	-0.07516714
217	0xbe0611fe	-0.13092801
218	0x3e3dd065	0.18536527
219	0xbd059968	-0.032617003
220	0x3e385125	0.17999704
221	0x3d2f3936	0.04277917
222	0x3dcf6c62	0.10128094
223	0x3d2aee7d	0.041731346
224	0x3e838350	0.2568612
225	0x3bbac186	0.0056993393
226	0x3cee1f8f	0.029067783
227	0x3e4c18ce	0.19931337
228	0xbe8c3f80	-0.27392197
229	0xbdf903a1	-0.12158895
230	0xbe3de6d5	-0.18545087
231	0xbdb92965	-0.090410985
232	0x3eb652a4	0.35609925
233	0xbeea92d0	-0.45815134
234	0x3e7f8fe7	0.24957238
235	0x3cb115bf	0.021616815
236	0x3de8a38e	0.113593206
237	0x3f22a3e3	0.6353132
238	0x3f1ef7b7	0.6209673
239	0x3f1627a2	0.58654225
240	0x3e45d97e	0.19321248
241	0x3c9d25c2	0.019183043
242	0x3e5968c5	0.21231373
243	0x3e7bed72	0.24602297
244	0x3dd6fa18	0.1049692
245	0xbef96d58	-0.48716235
246	0xbebc40f9	-0.3676832
247	0xbd9bb4e7	-0.07602864
248	0xbcca04d9	-0.024660515
249	0xbefdf049	-0.49597386
250	0xbe950b0a	-0.29109985
251	0xbe19de32	-0.15026167
252	0x3e063786	0.13107118
253	0x3d92c5ea	0.07166655
254	0xbc1d8a18	-0.009615444
255	0x3eea27fb	0.45733628

bias f4 [128]
0	0x3e1f41a8	0.1555239
1	0x3d05fcb6	0.032711707
2	0x3cd2caf3	0.02573154
3	0xbd82f585	-0.063944854
4	0xbd5a1642	-0.053243883
5	0xbd096720	-0.033545613
6	0x3dacb8c3	0.08433678
7	0x3d18f49c	0.037342653
8	0xbd683349	-0.056689534
9	0x3d8b091a	0.06788845
10	0xbd4dbf73	-0.05023141
11	0xbd020f58	-0.031752914
12	0xbd7e41ac	-0.06207435
13	0x3cc80f1d	0.02442127
14	0x3dc66d29	0.096887894
15	0x3bc6c12d	0.006065509
16	0x3d19ef43	0.037581693
17	0x3d0a4aaf	0.03376263
18	0x3d8d98ce	0.06913911
19	0x3d25d4db	0.040486198
20	0x3d480815	0.048835833
21	0x3bfe141d	0.0077538625
22	0xbb1f5128	-0.0024309848
23	0x3cc808fd	0.024418348
24	0x3d0ea16e	0.03482192
25	0xbce660e7	-0.028122379
26	0xbd92e148	-0.07171875
27	0xbcdb85a2	-0.02679712
28	0xbd44ea89	-0.048075233
29	0x3c8aa4b4	0.01692424
30	0xbda27384	-0.07932189
31	0xbc0f7904	-0.00875688
32	0xbccfa7a0	-0.025348485
33	0x3cc3bd27	0.023893906
34	0x3e1a9553	0.15096025
35	0xbd543320	-0.05180657
36	0x39dfbfac	0.0004267668
37	0x3de504b7	0.1118254
38	0xbd9a1c9e	-0.075249895
39	0xbd005092	-0.031326838
40	0x3cd91c48	0.026502743
41	0xbdb4698e	-0.088091955
42	0x3da725c5	0.08161501
43	0xbdac660d	-0.08417902
44	0x3d03e7d9	0.03220353
45	0x3d64d75d	0.05586945
46	0x3d58dab4	0.052942947
47	0xbce36ec5	-0.02776278
48	0xbd548147	-0.0518811
49	0xbd6ff8fb	-0.058587056
50	0xbc9aef81	-0.018913032
51	0xbd060122	-0.032715924
52	0xbd0e2d20	-0.034711003
53	0xbb28f095	-0.0025778164
54	0x3db900e7	0.09033375
55	0xbcfc0487	-0.030763878
56	0x3dc89273	0.09793558
57	0xbc14ddaf	-0.009086057
58	0x3cf8c60d	0.030367875
59	0x3c93e2df	0.018052517
60	0x3cf5da70	0.030011386
61	0x3c5d309b	0.013500358
62	0x3d7bc5c4	0.0614679
63	0xbd09c107	-0.03363135
64	0xbcd35fd7	-0.025802536
65	0x3d8ec662	0.06971432
66	0x3c9c3ff7	0.01907347
67	0xbba30f57	-0.004976194
68	0x3d6b2cfd	0.05741595
69	0xbca523d3	-0.020158684
70	0x3dc5ea92	0.09663881
71	0xbcb6e9b7	-0.02232824
72	0xbd4e8e78	-0.050428838
73	0x3de216ac	0.110394806
74	0xbba2424a	-0.00495175
75	0xbd160897	-0.036629286
76	0x3d85874f	0.06519949
77	0xbcd13116	-0.025536101
78	0xbceb852e	-0.028750028
79	0xbd380a2b	-0.044931572
80	0xbd1df6bd	-0.038565386
81	0x3e1cd21d	0.15314527
82	0x3df54ffe	0.11978148
83	0xbc155fb2	-0.009117054
84	0x3db119b9	0.08647484
85	0xbde2b964	-0.11070517
86	0x3ce304bb	0.027712217
87	0xbcc2077c	-0.02368521
88	0xbd224c9a	-0.039623834
89	0xbd4c4107	-0.049866702
90	0x3dacd1e5	0.08438472
91	0x3d84af84	0.064787894
92	0xbd8bdc3d	-0.068291165
93	0xbc1a4ca9	-0.009417691
94	0xbba8f796	-0.0051564677
95	0x3c5170bc	0.012783226
96	0xbc553e53	-0.0130153475
97	0xbcab28fe	-0.02089357
98	0x3d5fc81b	0.054634195
99	0xbd906798	-0.07051009
100	0xbcd9ae56	-0.026572388
101	0xbc39d17b	-0.011341448
102	0xbd95353e	-0.07285546
103	0xbd7d1c29	-0.061794434
104	0x3c4e1152	0.012577372
105	0x3e0ac414	0.1355136
106	0xbd004281	-0.031313423
107	0x3c03dd50	0.0080483705
108	0xba6aedbb	-0.0008961816
109	0xbd047a8b	-0.03234343
110	0xbcf50973	-0.029911732
111	0x3d938662	0.07203366
112	0xbd1c718d	-0.038194228
113	0x3c95ed2a	0.018301565
114	0xbcacd1fa	-0.021096218
115	0xbd9d39fd	-0.07677076
116	0xbd38c4bc	-0.045109496
117	0x3d0d2a42	0.03446413
118	0xbd1e5eaa	-0.038664497
119	0x3d8129a0	0.063067675
120	0xbd0a658b	-0.033788245
121	0x3d9112a8	0.070836365
122	0xbcaec972	-0.021336291
123	0x3caf6a9a	0.021413136
124	0xbda7d1d8	-0.081943214
125	0xbd1ae66f	-0.037817415
126	0x3dd2756d	0.102763034
127	0xbdbc4779	-0.0919332

weight f4 [10, 128]
0	0x3debfbef	0.11522662
1	0xbed3ebc8	-0.41390824
2	0x3e5b102a	0.21392885
3	0xbc6ea673	-0.014566052
4	0xbeb7ba7e	-0.3588447
5	0xbe000fae	-0.12505981
6	0xbe5fa0d6	-0.21838698
7	0x3e34d7c7	0.17660438
8	0x3e3c01df	0.18360089
9	0x3e690101	0.22754289
10	0x3e9ba225	0.30397144
11	0xbe95f089	-0.29285076
12	0xbde0b212	-0.10971464
13	0x3d8479da	0.06468554
14	0x3ea23fe1	0.3168936
15	0xbb541082	-0.0032358472
16	0xbd51f680	-0.05126047
17	0x3c535fb4	0.012901235
18	0xbf1c4f6d	-0.61058694
19	0x3e36d48e	0.1785452
20	0xbe49e8b6	-0.19717678
21	0xbeb57f46	-0.35448664
22	0xbeff889f	-0.4990892
23	0x3e84ce30	0.2593856
24	0xbd15952c	-0.036519215
25	0xbe1e1ff6	-0.1544188
26	0x3d9af6ee	0.07566629
27	0x3e51980b	0.20468156
28	0x3e4823d7	0.19544922
29	0x3d6cd58a	0.057820834
30	0x3d3286a7	0.043585446
31	0x3d14c945	0.036324758
32	0x3d4e4510	0.050358832
33	0x3d90355b	0.07041427
34	0xbe1d4d04	-0.1536141
35	0x3d35e7cd	0.044410516
36	0x3d851d29	0.064997025
37	0xbf199ab5	-0.6000169
38	0x3ddf3501	0.108987816
39	0x3b1e234a	0.002412992
40	0xbf72458d	-0.94637376
41	0xbedb42aa	-0.42824298
42	0x3d992c56	0.074791595
43	0xbe2e6c7b	-0.1703357
44	0x3dbde2c5	0.092717685
45	0x3cce8124	0.025208063
46	0xbf469a8a	-0.7757956
47	0xbe5615b3	-0.20906715
48	0x3d756561	0.059911136
49	0x3b55a833	0.0032601475
50	0xbf43a038	-0.7641635
51	0xbf207ebf	-0.626934
52	0xbdc572da	-0.09641047
53	0xb9da1bbb	-0.0004160086
54	0xbcbf01eb	-0.023316344
55	0x3e2ed5fc	0.17073816
56	0xbf0765ca	-0.5288969
57	0x3d200ea1	0.03907645
58	0xbf49c572	-0.788169
59	0xbe6f3a4f	-0.23362087
60	0x3e311fb8	0.17297256
61	0x3e37f977	0.17966257
62	0x3ec8aa00	0.391922
63	0xbe992592	-0.29911476
64	0x3cbe56ca	0.023234744
65	0x3e893d0b	0.26804385
66	0x3e857add	0.260703
67	0x3e9ab30a	0.3021472
68	0x3e51f4f6	0.20503601
69	0x3a6358dc	0.0008672604
70	0xbf001cd7	-0.50044006
71	0x3e483e2c	0.19554967
72	0x3ed4095e	0.41413397
73	0x3e8e9669	0.2784913
74	0x3d3dfb68	0.046382338
75	0xbd60ac91	-0.054852072
76	0xbd89e57e	-0.06733225
77	0x3ce8e41b	0.028429082
78	0xbce89008	-0.028388992
79	0xbd83b976	-0.06431858
80	0x3eb908bc	0.36139476
81	0x3e1a3565	0.15059431
82	0x3ed136ef	0.40862224
83	0x3cff678a	0.031177301
84	0x3e26ea89	0.16300406
85	0x3e2114c4	0.15730578
86	0x3c9dad0a	0.01924755
87	0x3c1317a8	0.008977808
88	0x3e6f1982	0.23349574
89	0xbb63639a	-0.0034696818
90	0xbee12613	-0.4397436
91	0x3e3a5b3a	0.18198863
92	0xbdca38d9	-0.09874124
93	0xbea2b6dc	-0.31780136
94	0xbedae552	-0.42753083
95	0x3edfd46e	0.43716758
96	0x3e01f7b1	0.12692143
97	0xb9579cea	-0.00020562453
98	0xbf2ef929	-0.6834894
99	0x3d7254e6	0.059162997
100	0x3d1e2c22	0.038616307
101	0xbeccfdf0	-0.4003749
102	0xbc79e6c3	-0.015252772
103	0xbc8acbca	-0.016942877
104	0x3d47a855	0.04874452
105	0x3cce13e5	0.02515597
106	0x3e88b414	0.2669989
107	0xbec05569	-0.37565163
108	0x3cdf8f4a	0.027290005
109	0x3d2a8f7b	0.04164074
110	0x3bce3e99	0.0062940833
111	0x3e93a733	0.288385
112	0xbd1a00bf	-0.037598368
113	0xbdfe9cd2	-0.12432255
114	0x3cb6a12d	0.022293651
115	0xbeb24a22	-0.34822184
116	0x3ea1a27a	0.31569272
117	0x3e922792	0.28545815
118	0xbd8de4fe	-0.069284424
119	0x3e5d8796	0.21633753
120	0xbe05aae8	-0.13053477
121	0x3e370c0b	0.17875688
122	0x3b3bcd71	0.0028656388
123	0x3e22d073	0.1589983
124	0x3e9cff9a	0.3066376
125	0x3d90c91f	0.07069611
126	0xbca9a63e	-0.020709153
127	0x3eaa9677	0.3331792
128	0x3e75e55c	0.24013275
129	0x3e6b8ff2	0.2300413
130	0x3de56f19	0.11202831
131	0xbd8517cc	-0.064986795
132	0x3ecb1af1	0.39668992
133	0x3e19808a	0.1499044
134	0x3ea2eb8c	0.31820333
135	0x3e768328	0.2407347
136	0xbdb8cd8a	-0.090235785
137	0x3e7a98f5	0.24472411
138	0xbe4db68a	-0.20089164
139	0xbcf12426	-0.029436182
140	0x3c293701	0.010328055
141	0x3d856fe6	0.065154836
142	0x3e13a5c1	0.14418699
143	0x3da50583	0.08057692
144	0x3e17be8b	0.1481878
145	0x3db7af6b	0.08969005
146	0x3d262417	0.04056176
147	0x3d3a2c20	0.045452237
148	0x3d802828	0.06257659
149	0xbef2f412	-0.47451836
150	0xbed7fb4f	-0.4218392
151	0xbea1a18e	-0.3156857
152	0x3e4efb6e	0.202131
153	0xbc2db3d7	-0.010601959
154	0xbf0e0339	-0.5547367
155	0xbe95da1e	-0.29267973
156	0xbefbea48	-0.4920218
157	0xbe725dd9	-0.23668613
158	0x3d5703a4	0.052493706
159	0xbe6705c2	-0.2256079
160	0xbd8b5c92	-0.06804766
161	0x3e4be4ef	0.1991155
162	0x3de4fe63	0.11181333
163	0xbd088a34	-0.033334926
164	0xbe9f0342	-0.31057173
165	0x3e320dc0	0.17388058
166	0xbea4f69c	-0.32219398
167	0xbe9d6357	-0.30739853
168	0xbf167824	-0.5877707
169	0xbf0f0490	-0.55866337
170	0x3e596f2c	0.21233815
171	0xbeb303fe	-0.34963983
172	0xbe7cdffb	-0.24694817
173	0x3e05d5d8	0.13069856
174	0x3e8f491e	0.2798547
175	0xbf1aa1d1	-0.6040316
176	0xbd80bf06	-0.06286435
177	0x3d5cbb40	0.053889513
178	0xbe99bd55	-0.3002726
179	0xbeda26d5	-0.4260775
180	0x3dd58135	0.10425035
181	0xbd6641e5	-0.056215186
182	0x3e69230d	0.22767277
183	0xbee1d2ad	-0.44106045
184	0x3ec7e418	0.3904121
185	0xbd1e4a43	-0.03864504
186	0x3db933c6	0.09043078
187	0x3dcb4031	0.09924353
188	0xbf1e6bd1	-0.61883265
189	0x3e34a2ca	0.17640224
190	0x3e85b45c	0.26114166
191	0xbd9f59d4	-0.07780805
192	0xbd37d6e9	-0.04488269
193	0x3e80db6f	0.25167415
194	0xbee160fe	-0.44019312
195	0xbedb789c	-0.42865455
196	0x3c8a6760	0.016894996
197	0x3cec854d	0.028872157
198	0x3eb18855	0.34674326
199	0xbe95ed87	-0.2928278
200	0xbec9479f	-0.39312455
201	0xbf4661eb	-0.7749316
202	0x3b1b15d8	0.0023664143
203	0x3d22c0e4	0.039734736
204	0x3d7af3bd	0.061267603
205	0x3d1476fe	0.036246292
206	0xbabc75a8	-0.0014378326
207	0xbd0d07eb	-0.03443138
208	0xbd49f1d1	-0.04930288
209	0xbdaa1cfd	-0.0830631
210	0x3f0d129b	0.55106515
211	0x3d5a4e07	0.05329707
212	0x3e92a497	0.28641197
213	0xbee7b6df	-0.45256707
214	0xbe877e14	-0.26463377
215	0xbd9830ee	-0.074312076
216	0xbe81bac9	-0.25337818
217	0xbec3c421	-0.38235572
218	0x3e955585	0.2916681
219	0xbf4388ab	-0.76380414
220	0xbf831159	-1.0239669
221	0x3d778644	0.06043078
222	0x3e3b8c5d	0.18315263
223	0x3ebca350	0.36843348
224	0xbe190e60	-0.1494689
225	0xbd97db1b	-0.07414838
226	0x3ecc15d9	0.39860418
227	0xbda000fd	-0.078126885
228	0xbc00a82d	-0.007852596
229	0x3dddf7fb	0.10838314
230	0x3d710fbe	0.058852904
231	0xbf11613d	-0.56789
232	0x3f023582	0.50862896
233	0x3ec0e8d5	0.37677637
234	0xbe5391f4	-0.20661145
235	0xbd432441	-0.047641996
236	0xbc122373	-0.008919585
237	0x3b99539e	0.0046791574
238	0xbc9d77e3	-0.019222206
239	0x3cb45c77	0.022016747
240	0xbc4f9d28	-0.012671746
241	0x3e021661	0.1270385
242	0xbf012b66	-0.50456846
243	0xbd444786	-0.047919773
244	0xbcef1fac	-0.029189907
245	0x3ebbe6c8	0.3669951
246	0xbc81399a	-0.015774537
247	0x3eada460	0.3391447
248	0xbe491cce	-0.19639894
249	0x3e548e2b	0.20757358
250	0xbd5d6453	-0.054050755
251	0x3d331cd1	0.043728653
252	0xbea91577	-0.3302419
253	0xbca9d072	-0.020729277
254	0x3e26e165	0.16296919
255	0x3e173edc	0.14770073

bias f4 [10]
0	0x3bd286f1	0.0064247777
1	0x3d1c2fcc	0.03813152
2	0xbaf0508c	-0.0018334552
3	0x3d9d28ae	0.07673775
4	0x3dd07da1	0.10180212
5	0x3d0ddb79	0.034633134
6	0x39f1347a	0.000460062
7	0xbdda12aa	-0.10648091
8	0xbd4dafe7	-0.05021658
9	0xbde6ded9	-0.112729736
