models/model_9730.pth (torch, 274159 bytes, 6 tensors)

weight f4 [32, 1, 3, 3]
0	0x3f446fe9	0.7673326
1	0x3d95b6ad	0.07310233
2	0xbf128d05	-0.5724643
3	0x3ec9d8f2	0.3942333
4	0x3e844c04	0.25839245
5	0xbf56a4f6	-0.8384546
6	0x3ea245cb	0.31693873
7	0xbf1cf6c2	-0.6131402
8	0xbeb0d5ac	-0.3453802
9	0xbe57789e	-0.21042106
10	0xbe0576a4	-0.13033539
11	0xbf1ce157	-0.6128134
12	0xbe85c38a	-0.26125747
13	0xbef6fe90	-0.4824109
14	0x3e06e7b5	0.13174327
15	0xbf869c66	-1.0516479
16	0xbe3fb68b	-0.18721978
17	0xbe75d392	-0.24006489
18	0xbe428b8f	-0.1899855
19	0xbf251dd1	-0.6449862
20	0xbe3c6574	-0.18398076
21	0x3ebd51cf	0.36976478
22	0x3f40dac7	0.7533383
23	0x3f613948	0.8797803
24	0x3d129f01	0.03579617
25	0xbec1f7e6	-0.37884444
26	0xbf0b53ea	-0.5442492
27	0x3e83a409	0.25711086
28	0xbf3f59cf	-0.7474641
29	0xbe1e8c64	-0.15483242
30	0x3ee436d0	0.4457307
31	0xbf0e0ef0	-0.5549154
32	0xbf19ebb4	-0.6012528
33	0x3f6f263b	0.9341771
34	0x3e0deb1c	0.13859218
35	0xbef127c9	-0.47100666
36	0xbf85f21c	-1.0464511
37	0xbd5e7734	-0.0543129
38	0x3f19ac6b	0.60028714
39	0xbd90340c	-0.07041177
40	0x3ef19a78	0.47188163
41	0x3e888167	0.26661226
42	0x3ee202d2	0.44142777
43	0x3efdde2b	0.49583563
44	0xbf61a4ce	-0.88142097
45	0x3bee4914	0.007271895
46	0x3f32a896	0.6978849
47	0x3ede0278	0.43361259
48	0xbea409bc	-0.32038677
49	0x3ead4545	0.3384191
50	0x3f505b97	0.81389755
51	0xbf39a5a6	-0.72518384
52	0xbf89809c	-1.0742373
53	0xbf4e6bc9	-0.8063322
54	0x3f09c4e6	0.5381607
55	0x3f045b39	0.51701695
56	0xbea94496	-0.3306014
57	0xbf369cec	-0.71333194
58	0x3f1562fe	0.58354175
59	0xbe213415	-0.15742524
60	0xbefaf5db	-0.49015698
61	0x3e116a72	0.14200762
62	0x3f22883d	0.63489133
63	0x3ef52ac9	0.47884205
64	0x3ec6cd94	0.3882872
65	0x3d2fb029	0.04289261
66	0xbdec779a	-0.1154625
67	0xbe43ee5b	-0.19133894
68	0x3ea86614	0.3289038
69	0xbd7f5523	-0.062337052
70	0xbe861972	-0.26191288
71	0x3f1261df	0.5718059
72	0x3efa55e2	0.48893648
73	0x3ecdea0a	0.4021762
74	0x3e95c30b	0.29250368
75	0x3e0c48ef	0.13699697
76	0xbdb83ec1	-0.08996344
77	0xbd6c8e7d	-0.057753075
78	0x3e11cea8	0.1423899
79	0x3f260f57	0.64867157
80	0x3ec41087	0.3829386
81	0xbe6dd57b	-0.23225968
82	0xbe8519e7	-0.25996324
83	0xbc331b80	-0.0109318495
84	0xbcad3440	-0.021143079
85	0x3e863a69	0.26216438
86	0xbdf28300	-0.118413925
87	0xbe989fef	-0.2980952
88	0xbe52c0f3	-0.20581417
89	0xbacd2300	-0.001565069
90	0xbedaacec	-0.42710054
91	0x3ec34201	0.38136294
92	0x3f3781f2	0.71682656
93	0x3e2facc3	0.17155747
94	0x3d35f0f9	0.044419263
95	0xbe85389c	-0.26019752
96	0x3ee933d7	0.45547363
97	0x3ddb55ea	0.10709746
98	0x3f3679f4	0.71279836
99	0x3da98c8a	0.08278759
100	0xbe09ebe3	-0.1346889
101	0xbe12b4b9	-0.14326753
102	0x3f038007	0.5136723
103	0x3bf3ce6b	0.0074403784
104	0x3f202449	0.62555367
105	0x3e8b0b9f	0.27157304
106	0xbe2dc21f	-0.16968583
107	0x3e426aa7	0.18985997
108	0x3ed3f965	0.4140121
109	0x3e8e7a05	0.2782747
110	0x3ed2e83e	0.41192812
111	0x3d7d7e79	0.06188819
112	0xbed5b858	-0.41742206
113	0x3de13347	0.109961085
114	0x3e09d1dc	0.13458961
115	0x3e17f5fe	0.14839932
116	0x3e4ebde2	0.20189622
117	0x3f11dceb	0.5697772
118	0x3db8b81f	0.09019493
119	0xbef7b42d	-0.4837965
120	0xbe78f10d	-0.24310704
121	0x3f2be28e	0.6714257
122	0xbea53684	-0.32268155
123	0xbd70fd60	-0.058835387
124	0x3ea3b2b8	0.3197229
125	0x3efe3d4a	0.49656135
126	0xbf1a5ee2	-0.6030103
127	0xbf8c872b	-1.097875
128	0xbf9045fb	-1.1271356
129	0xbfa01473	-1.2506241
130	0xbe6f519b	-0.23370974
131	0x3d326ca0	0.043560624
132	0xbf1865db	-0.5953042
133	0x3f1eb270	0.61991024
134	0x3faec035	1.3652407
135	0x3e8fd2d1	0.28090528
136	0xbee6593a	-0.4498995
137	0xbf1ed79e	-0.62047756
138	0x3f09d2c9	0.5383726
139	0x3f83b228	1.0288744
140	0x3f245b3d	0.6420172
141	0xbf0bec37	-0.5465731
142	0xbeabf9bc	-0.3358897
143	0x3e59bbb2	0.21263006
144	0x3f857be3	1.0428432
145	0x3f1421dd	0.5786417
146	0x3ec1855b	0.37797055
147	0xbefb064c	-0.49028242
148	0x3e6cd7ac	0.23129147
149	0xbf6ab15a	-0.91676867
150	0xbf42de70	-0.7612066
151	0xbf1b44aa	-0.6065165
152	0xbf47dcb3	-0.78071135
153	0xbed8dc8b	-0.4235576
154	0xbf55931e	-0.8342761
155	0xbef1c8bd	-0.47223464
156	0x3f287240	0.6579933
157	0x3e29dce5	0.16588171
158	0xbf48d543	-0.7845041
159	0x3ec75453	0.38931522
160	0x3f1d9acd	0.6156433
161	0xbc4a4a83	-0.012346867
162	0xbd8e5f6e	-0.069517955
163	0x3e12e5e4	0.14345509
164	0xbd4409e1	-0.047860984
165	0x3dc05e68	0.093930066
166	0xbefc027b	-0.49220642
167	0x3e2f85d3	0.17140894
168	0x3f2c1a22	0.67227376
169	0x3c1289da	0.008943999
170	0x3f1f2597	0.6216673
171	0xbf1747bd	-0.5909384
172	0xbedf990b	-0.4367145
173	0xbe14e520	-0.14540529
174	0xbee2ea8f	-0.4431958
175	0xbee5641a	-0.44802934
176	0xbf758f2c	-0.9592159
177	0x3f7f09ef	0.9962453
178	0x3d3317e5	0.04372396
179	0xbf77988e	-0.96717155
180	0x3ea0520f	0.31312606
181	0xbec4c06d	-0.3842806
182	0xbee71ced	-0.45139256
183	0x3f47019d	0.77736837
184	0x3d4d414a	0.050111093
185	0xbee50a92	-0.44734627
186	0xbecebeaa	-0.4037984
187	0x3f164260	0.5869503
188	0x3f349225	0.705355
189	0x3deb0a30	0.114765525
190	0x3dee7781	0.11643887
191	0xbed7c862	-0.42145067
192	0x3f059609	0.5218206
193	0x3f685999	0.90761715
194	0x3ef5ef0c	0.4803394
195	0xbf4fa628	-0.8111291
196	0xbf10e5b1	-0.5660048
197	0x3e80a381	0.25124744
198	0x3ea64366	0.32473296
199	0xbec442a9	-0.38332108
200	0x3edbac91	0.42905095
201	0x3f05f19e	0.52321804
202	0x3ee1ba5a	0.44087487
203	0x3dae5e2b	0.08514055
204	0xbdf30745	-0.11866621
205	0xbe33c10c	-0.1755411
206	0xbdb3cbef	-0.087791316
207	0xbf149639	-0.5804172
208	0x3e2c25d3	0.16811304
209	0x3f52e170	0.8237524
210	0xbf79f6b8	-0.9764209
211	0x3e12935c	0.14314026
212	0x3e96789e	0.293889
213	0xbee2a977	-0.44269916
214	0x3e85199a	0.25996095
215	0x3f1fc6f2	0.6241294
216	0xbf127b8f	-0.57219785
217	0xbefaff78	-0.49023032
218	0xbf3f08d1	-0.7462283
219	0xbe8fe661	-0.28105453
220	0xbec07996	-0.37592763
221	0xbf63448c	-0.8877647
222	0x3f2381ef	0.6387014
223	0x3f683b49	0.9071546
224	0x3e92b1d9	0.28651312
225	0xbf4f656c	-0.8101413
226	0xbf4ea583	-0.807213
227	0xbf360ee9	-0.711165
228	0xbda068c8	-0.078324854
229	0x3f1fe1db	0.62454003
230	0x3f0ececb	0.5578429
231	0x3f1d8ab7	0.6153979
232	0x3db932b4	0.09042874
233	0x3d949410	0.07254803
234	0xbebb5cf9	-0.3659437
235	0x3f0b399e	0.5438479
236	0x3f0cd822	0.5501729
237	0x3f39d0eb	0.7258441
238	0x3df8a795	0.12141339
239	0xbd6574ae	-0.056019478
240	0x3ebd0a44	0.36921895
241	0xbee9045a	-0.45511132
242	0xbf3ade5a	-0.7299553
243	0xbf2f257e	-0.68416584
244	0xbdd22cf6	-0.10262482
245	0x3f60252c	0.8755672
246	0xbf5ce2d1	-0.86283594
247	0xbed77d34	-0.4208771
248	0x3f53bbf6	0.8270868
249	0xbfbd0868	-1.476819
250	0xbf840aad	-1.0315758
251	0x3d907692	0.070538655
252	0x3da5fed1	0.08105243
253	0x3f37be2d	0.7177456
254	0x3f5bff53	0.8593647
255	0xbf86d74f	-1.0534457

bias f4 [32]
0	0xbd8aaf08	-0.06771666
1	0x3f0b22a3	0.54349726
2	0xbe3232e9	-0.17402233
3	0xbc26d0a5	-0.010181581
4	0xbee5ebb5	-0.44906393
5	0xbb12b159	-0.002238354
6	0xbf205400	-0.62628174
7	0xbd0e8d3c	-0.03480266
8	0xbf8595c5	-1.0436331
9	0xbe9b88b0	-0.30377722
10	0xbf2d0e6d	-0.67600137
11	0xbcb310b9	-0.02185856
12	0xbee9a469	-0.45633247
13	0xbefe43a7	-0.4966099
14	0x3c88f3be	0.016717788
15	0xbf142664	-0.5787108
16	0x3c097d3d	0.008391676
17	0xbc4e15b6	-0.0125784185
18	0xbd07867c	-0.03308724
19	0x3ebaeee5	0.36510387
20	0xbf204630	-0.626071
21	0xbee5ef56	-0.4490916
22	0xbc3ef0d6	-0.011654099
23	0xbea99287	-0.33119604
24	0xb9a5e926	-0.00031644962
25	0x3bdb5e07	0.0066945585
26	0xbee6b6cd	-0.4506134
27	0x3d14e6ad	0.036352802
28	0x3d82030c	0.063482374
29	0xbf080d4d	-0.53145295
30	0xbcac49b5	-0.02103124
31	0x3f0e5cba	0.5561024

weight f4 [128, 512]
0	0x3cb2d3da	0.021829534
1	0x3e89534e	0.2682137
2	0x3e34da14	0.17661315
3	0xbdb2e72b	-0.08735498
4	0xbe3e7acd	-0.18601532
5	0xbd805669	-0.062664814
6	0xbddbaef1	-0.10726727
7	0x3c106688	0.008813508
8	0x3cb5407c	0.022125475
9	0x3e417012	0.18890408
10	0x3daad3fc	0.08341214
11	0xbd706f4e	-0.0586999
12	0x3e9ef168	0.31043553
13	0x3cf7dcf9	0.030256735
14	0x3d375b30	0.044764698
15	0x3e013bf4	0.12620527
16	0x3d1e6c08	0.038677245
17	0x3c4f9de6	0.012671923
18	0x3d33bb83	0.043879997
19	0x3c59af91	0.013286487
20	0xbd1a5b9b	-0.037685018
21	0xbdb5b233	-0.088718794
22	0x3ef10bc4	0.4707929
23	0x3d18eb49	0.03733376
24	0xbd03b813	-0.03215797
25	0xbcbb083e	-0.022831079
26	0xbba120d9	-0.004917246
27	0xbde5afbf	-0.112151615
28	0xbb5a0b9e	-0.0033271085
29	0xbd15d89c	-0.036583528
30	0xbe2a4281	-0.16626932
31	0x3ce8a60a	0.028399486
32	0xbe536622	-0.2064443
33	0xbd3f0ba8	-0.046641976
34	0x3e369cb9	0.17833222
35	0x3d7173f3	0.05894847
36	0xbbfae678	-0.0076568685
37	0xbedd1355	-0.43178812
38	0xbe992cc9	-0.2991698
39	0xbc57fbf1	-0.013182626
40	0x3e8b8168	0.27247167
41	0xbdd2cb5c	-0.10292694
42	0xbd7ac0d0	-0.061219037
43	0x3e9a4f6c	0.3013872
44	0x3ec07bd3	0.3759447
45	0xbeb83938	-0.35981154
46	0x3e3625e6	0.17787895
47	0x3c3ba4bc	0.01145285
48	0xbe8f518e	-0.2799191
49	0x3e81cef1	0.25353196
50	0xbde30dfb	-0.11086651
51	0xbde1c744	-0.11024335
52	0x3e88f821	0.26751807
53	0x3f0c6bd5	0.5485204
54	0x3e8c59a7	0.2741215
55	0x3d35e95b	0.044412
56	0xbeb20260	-0.34767437
57	0x3d4db7c0	0.050224066
58	0x3e7bdce6	0.24595985
59	0xbd9622e8	-0.073308766
60	0x3e4d7ea4	0.20067841
61	0xbd70cd9d	-0.058789838
62	0x3d1e254a	0.03860978
63	0x3e18f4fa	0.14937201
64	0xbe61093d	-0.2197618
65	0xbdaa3164	-0.08310202
66	0x3e5509cf	0.20804523
67	0x3e06a3e0	0.13148451
68	0x3e0be4e9	0.13661541
69	0xbe640c47	-0.22270308
70	0xbb691d61	-0.003557049
71	0x3dce0ac5	0.10060648
72	0x3db1b1f4	0.0867652
73	0x3ee8e180	0.45484543
74	0xbdf3f11b	-0.119112216
75	0x3e24bdad	0.1608798
76	0x3d8f7e00	0.070064545
77	0xbe1faee6	-0.15594062
78	0x3e2d6498	0.16932905
79	0xbe9e1f1e	-0.30883116
80	0xbde2d6d7	-0.11076134
81	0xbd58b0b8	-0.052902907
82	0xbe34678b	-0.17617624
83	0xbd73396e	-0.05938094
84	0x3e6ddfac	0.23229855
85	0xbf1fd39c	-0.62432265
86	0xbf2c1dc5	-0.67232925
87	0xbe666df7	-0.22502886
88	0x3e3c6587	0.18398105
89	0x3dd6eebe	0.10494755
90	0x3ee873ac	0.4540075
91	0x3e34175d	0.17587037
92	0x3e38e380	0.18055534
93	0xbdd1d59a	-0.102458194
94	0x3e3d0c07	0.1846162
95	0x3e288be8	0.1645962
96	0xbebc6d31	-0.36802056
97	0xbc1add1b	-0.00945213
98	0xbcd00bcf	-0.025396256
99	0x3dc3e9ef	0.09566104
100	0x3e32f5d0	0.17476583
101	0x3e85c289	0.2612498
102	0xbca27af9	-0.019834029
103	0xbd443017	-0.047897425
104	0x3dc0e6b6	0.094190046
105	0xbe430989	-0.19046606
106	0x3e8e0926	0.27741355
107	0xbd60d0b8	-0.05488655
108	0x3e1cc94f	0.15311168
109	0xbdacae9d	-0.08431742
110	0x3e19ab6b	0.15006797
111	0xbde8acb9	-0.11361069
112	0xbe9de9ea	-0.30842525
113	0xbdc06907	-0.093950324
114	0xbc90c4d6	-0.017671984
115	0x3e475481	0.1946583
116	0x3dc8c9c7	0.09804111
117	0x3e336364	0.17518383
118	0xbd8ec930	-0.06971967
119	0x3c1cf181	0.009579063
120	0x3ea414fb	0.32047257
121	0x3e480c4c	0.19535941
122	0xbe45296c	-0.19254082
123	0x3e168677	0.14699732
124	0x3df8f3ce	0.12155877
125	0xbc57f799	-0.0131815905
126	0x3e16dcc3	0.14732651
127	0xbdd7ad4f	-0.10531103
128	0xbd864a63	-0.06557157
129	0xbe33bc38	-0.17552269
130	0xbe971a95	-0.29512468
131	0xbbe13482	-0.0068727145
132	0x3cd512ce	0.026009943
133	0xbd8e37ef	-0.06944262
134	0x3df9c3e2	0.12195565
135	0x3d892004	0.066955596
136	0x3e3155cf	0.1731789
137	0x3e4ae771	0.1981485
138	0xbe294aac	-0.16532391
139	0x3e1e89a4	0.15482193
140	0xbdc312bf	-0.0952506
141	0x3b90df0b	0.00442112
142	0x3e136737	0.14394842
143	0x3d06eec4	0.03294255
144	0x3cb027e6	0.0215034
145	0x3c7a015c	0.015259113
146	0xbcd32935	-0.025776485
147	0x3b9d5248	0.0048010685
148	0xbca3f896	-0.020015996
149	0xbbf85a68	-0.0075791366
150	0xbc966470	-0.01835844
151	0x3c3cf2d4	0.011532504
152	0x3c80cafc	0.01572179
153	0x3b391410	0.0028240718
154	0x3cdb03ba	0.026735175
155	0xbc0a4164	-0.008438442
156	0xbc67edd0	-0.01415582
157	0xbd318282	-0.043337353
158	0xbcedde86	-0.029036772
159	0x3c09fafc	0.008421656
160	0xbe92c823	-0.28668317
161	0xbe8c8166	-0.27442473
162	0xbe823a9e	-0.25435346
163	0xbe51765b	-0.20455305
164	0x3e2f2a5f	0.17106007
165	0xbc5d9ded	-0.013526422
166	0x3d9178a3	0.07103088
167	0xbccc7dfc	-0.024962418
168	0x3e3435d1	0.17598654
169	0x3ec5b588	0.3861506
170	0xbe4bfbbe	-0.19920251
171	0x3e132787	0.14370547
172	0xbd5c9b3f	-0.05385899
173	0x3dcef00e	0.101043805
174	0x3e31e7e3	0.17373614
175	0x3cadf8d5	0.021236816
176	0xbe930cdc	-0.28720748
177	0xbde69c7f	-0.11260318
178	0x3e172aaf	0.14762376
179	0x3deb796a	0.11497767
180	0x3d434d20	0.047680974
181	0x3daa073e	0.083021626
182	0xbd904e4b	-0.07046183
183	0x3dbeb4ad	0.09311805
184	0x3e7640c8	0.2404815
185	0x3e677ceb	0.22606246
186	0xbe77be61	-0.24193718
187	0x3ea25c08	0.3171084
188	0xbdb633ba	-0.08896585
189	0xbdf7783c	-0.1208348
190	0x3dff0640	0.12452364
191	0xbc222e41	-0.009898723
192	0xbe018944	-0.12650019
193	0xbdd1f33b	-0.10251471
194	0xbe2a5fc6	-0.16638097
195	0x3daa504f	0.08316099
196	0x3e2b243c	0.16713041
197	0xbe158159	-0.14600123
198	0xbca924e1	-0.020647468
199	0xba30e202	-0.0006747545
200	0x3e8f2b79	0.27962855
201	0x3e835605	0.25651565
202	0xbe850419	-0.2597969
203	0x3df0d414	0.11759201
204	0xbb4c6fc8	-0.0031194557
205	0xbde18340	-0.11011362
206	0x3dc80aec	0.09767708
207	0x3d77c1eb	0.06048767
208	0xbe6c21ad	-0.23059721
209	0xbe869837	-0.26288006
210	0xbe094c78	-0.13408077
211	0xbd93049c	-0.071786135
212	0xbdacd830	-0.08439672
213	0x3df87142	0.12130977
214	0x3b25315f	0.002520643
215	0x3dac64f9	0.084176965
216	0xbdc75a6d	-0.09734044
217	0x3d51a91f	0.051186677
218	0xbcf671db	-0.030083587
219	0x3da32d8b	0.07967671
220	0xbe127401	-0.14302064
221	0xbdafb7eb	-0.085800014
222	0x3dcb14bb	0.099160634
223	0x3c067afa	0.008208031
224	0xbe358b3b	-0.17728893
225	0x3d01d039	0.031692717
226	0xbd3bd8c3	-0.045861017
227	0x3d2b0c63	0.04175986
228	0xbd11c604	-0.035589233
229	0x3db6cef6	0.089261934
230	0x3e105371	0.1409433
231	0x3d4b47eb	0.049629133
232	0x3e9e4887	0.3091471
233	0x3df85c3e	0.12126969
234	0x3dc7fa33	0.097645186
235	0x3e07992f	0.13242029
236	0x3d5c8dc0	0.05384612
237	0xbea058f5	-0.3131787
238	0xbdf74e58	-0.1207549
239	0x3d885b29	0.066580124
240	0x3adfb3da	0.001706715
241	0xbbc6a2f6	-0.006061907
242	0x3d834eb3	0.06411495
243	0xbcf74dbd	-0.030188436
244	0xbd79477a	-0.06085918
245	0x3dc9cdaf	0.09853684
246	0xbeeecc97	-0.46640465
247	0xbe06775e	-0.13131472
248	0x3ed27524	0.41104996
249	0xbe9b08cd	-0.30280152
250	0x3e245ad5	0.16050275
251	0x3ef9ad92	0.48765236
252	0xbd4e1e91	-0.05032212
253	0xbe7db391	-0.2477553
254	0x3d8a273c	0.067457646
255	0xbe5a26d1	-0.2130387

bias f4 [128]
0	0x3dfdfa42	0.124012485
1	0x3d1be1b0	0.03805703
2	0xbd0f1e83	-0.034941208
3	0xbd39db42	-0.045375116
4	0xbcd40b3e	-0.025884267
5	0xbd580c9c	-0.0527464
6	0x3d689953	0.056786846
7	0xbe20886d	-0.15677042
8	0x3d067bdb	0.03283296
9	0xbcff5c5b	-0.031171968
10	0x3da358ed	0.079759456
11	0x3e8bcade	0.27303213
12	0xbd310e4d	-0.04322653
13	0xbd19de2f	-0.037565406
14	0x3d3207aa	0.04346434
15	0x3dad5020	0.08462548
16	0xbd205920	-0.039147496
17	0x3e23f2e7	0.16010629
18	0xbcf0f6b7	-0.029414518
19	0xbe4a39ca	-0.19748607
20	0xba92c1f7	-0.0011196722
21	0xbd8cf80b	-0.06883248
22	0x3b414f2b	0.002949665
23	0x3cdb75fd	0.02678966
24	0x3d959130	0.07303083
25	0xbdbb5983	-0.091479324
26	0x3e143c30	0.14476085
27	0xbc3f6e57	-0.011684022
28	0xbccfbc0b	-0.02535822
29	0xbd240a95	-0.040049154
30	0xbe782c9c	-0.24235767
31	0xbdce57db	-0.10075351
32	0x3b1a0f25	0.0023507562
33	0x3dd6f246	0.10495429
34	0x3d892faa	0.06698544
35	0x3cc13f5e	0.023589786
36	0xbdd8cb5c	-0.10585663
37	0x3cd34cb0	0.025793403
38	0x3dea65da	0.11445208
39	0xbcdb8e2c	-0.026801191
40	0xbdb518a3	-0.0884259
41	0x3d3f6aa7	0.04673257
42	0xbdd6aeb6	-0.10482542
43	0xbc1fe105	-0.009758239
44	0x3d070db8	0.032972068
45	0x3e6652ed	0.22492571
46	0x3e16120d	0.14655323
47	0x3ccf65d5	0.025317112
48	0xbd7422e2	-0.05960358
49	0x3e30cc19	0.17265357
50	0xbd1048ce	-0.035225682
51	0x3c4c52a8	0.012470879
52	0xbda6f3d4	-0.08151975
53	0xbe640438	-0.22267234
54	0xbe8f79b4	-0.2802254
55	0xba8a100a	-0.0010533344
56	0xbdaa0a4b	-0.083027445
57	0xbd7186b2	-0.058966346
58	0xbd2dd3ad	-0.042438198
59	0xbc9a7eda	-0.018859316
60	0xbe348c83	-0.17631726
61	0x3e0f19ec	0.13974732
62	0xbc997d58	-0.018736526
63	0x3cd51fa3	0.026016062
64	0xbd9c9035	-0.07644693
65	0xbc4ca39d	-0.01249018
66	0x3e34add4	0.17644435
67	0xbd17ade1	-0.03703106
68	0x3c4e1dba	0.01258033
69	0xbe14a331	-0.14515378
70	0xbe0de68a	-0.13857475
71	0xbdf3ceaa	-0.119046524
72	0x3d99d905	0.07512096
73	0xbd9e8bec	-0.07741532
74	0xbd8359ba	-0.06413598
75	0x3e040136	0.12891087
76	0x3d78fc3a	0.060787417
77	0xb98768f0	-0.0002582739
78	0xbd658500	-0.05603504
79	0x3daa0f2e	0.083036765
80	0xbe051f94	-0.13000327
81	0x3e0cdd8f	0.13756393
82	0xbb0c573f	-0.0021414307
83	0x3da3a406	0.07990269
84	0xbc75951b	-0.014989163
85	0x3b865df1	0.004100554
86	0xbd9dfc50	-0.077141404
87	0xbd0dbef8	-0.03460595
88	0xbd4d95af	-0.050191578
89	0xbe2c2d2d	-0.16814108
90	0xbdf93036	-0.12167399
91	0x3e83ffcd	0.25781098
92	0x3dcb1895	0.09916798
93	0x3dd99727	0.10624533
94	0xbe0a7e42	-0.13524726
95	0xbc2106b3	-0.009828257
96	0x3d99005e	0.07470773
97	0xbe00b9df	-0.12570904
98	0x3d37a9fb	0.04483984
99	0xbdb41d45	-0.08794645
100	0xbd467327	-0.04844966
101	0xbd3b0527	-0.04565921
102	0xbb8d95d3	-0.004320839
103	0x3cee666a	0.02910157
104	0x3db47966	0.088122174
105	0x3caf837f	0.021425007
106	0xbe195886	-0.14975175
107	0xbd57c42d	-0.052677322
108	0xbe16fac8	-0.14744103
109	0x3d5c6604	0.053808227
110	0xbd57c504	-0.052678123
111	0xbcc3a71e	-0.023883399
112	0xbdbe25d3	-0.09284558
113	0xbc352858	-0.011056982
114	0xbd9a1020	-0.07522607
115	0xbd9fa816	-0.07795732
116	0xbdce4835	-0.10072366
117	0xbe707cee	-0.23485157
118	0x3e59a042	0.2125254
119	0x3c3ce700	0.011529684
120	0xbde0ed4d	-0.109827615
121	0xbcd319df	-0.025769172
122	0xbc3f139c	-0.01166239
123	0xbdd0dc6b	-0.101982914
124	0x3e36a125	0.1783491
125	0x3cf1be3b	0.029509654
126	0x3e01c8fa	0.12674323
127	0x3e858da8	0.26084638

weight f4 [10, 128]
0	0x3ec2770f	0.3798146
1	0x3d4cd792	0.05001027
2	0xbd03ad46	-0.03214767
3	0xbea6f788	-0.32610726
4	0x3d6b7a55	0.05748971
5	0xbc568578	-0.013093345
6	0x3e47b226	0.19501552
7	0xbe982357	-0.29714462
8	0x3e582481	0.21107675
9	0xbdc08386	-0.09400086
10	0x3e7d190f	0.2471659
11	0xbefa5e46	-0.4890005
12	0x3bf79860	0.0075560063
13	0x3e1463c4	0.14491183
14	0xbda0e588	-0.078562796
15	0xbeda8d11	-0.4268575
16	0x3d90a6f8	0.07063097
17	0xbebcb2b9	-0.36855105
18	0xbf102b54	-0.56316113
19	0x3dfdd8d8	0.12394875
20	0xbd16eeeb	-0.036848944
21	0x3e4a8d62	0.19780496
22	0xbcf9094f	-0.030399946
23	0x3e8b5df0	0.27220106
24	0xbe86ebb9	-0.26351717
25	0x3d38c091	0.04510552
26	0x3e4b4e43	0.19854073
27	0x3dbe664c	0.09296855
28	0x3d5ec772	0.054389425
29	0x3d2be730	0.041968524
30	0xbf7f287d	-0.99671155
31	0x3e12d144	0.14337641
32	0x3db2a2b3	0.08722439
33	0xbeb6d788	-0.35711312
34	0x3ed5157e	0.4161796
35	0xbdab6f93	-0.083708905
36	0x3e89b204	0.26893628
37	0x3c3f995f	0.011694281
38	0xbe1158f8	-0.14194095
39	0x3cec0999	0.02881317
40	0xbedc08fb	-0.42975602
41	0xbeb5d67c	-0.355152
42	0x3edd7671	0.43254426
43	0xbc8aba80	-0.016934633
44	0x3db0d458	0.08634251
45	0xbdd0f256	-0.10202472
46	0x3d66ea8d	0.05637603
47	0xbc07aebc	-0.008281406
48	0xbc9fbe55	-0.019499937
49	0x3e856e52	0.2606073
50	0xbce22254	-0.02760426
51	0x3cfa39d3	0.03054515
52	0x3e6fb8b5	0.23410304
53	0xbe9b4dcf	-0.303328
54	0xbd5120c0	-0.051056623
55	0x3cedea4b	0.029042384
56	0xbe995ae4	-0.29952157
57	0xbd85a064	-0.06524733
58	0xbb500200	-0.0031739473
59	0x3e188fa1	0.1489854
60	0x3e6e81d3	0.23291712
61	0x3e35c344	0.17750269
62	0x3e16b1ac	0.14716214
63	0xbd4d245a	-0.050083496
64	0x3e638da2	0.22221997
65	0x3d9841a3	0.07434394
66	0x3f0d1995	0.5511716
67	0xbf58846d	-0.84577066
68	0xbdb0babc	-0.08629367
69	0x3d5d83da	0.05408082
70	0xbea08f49	-0.31359318
71	0x3e3530da	0.17694417
72	0x3de07a49	0.10960824
73	0x3d17d593	0.037068915
74	0x3e8269ab	0.25471243
75	0xbe9a0d64	-0.3008834
76	0x3e731fac	0.2374255
77	0xbf1c8ab8	-0.6114917
78	0x3eb200dd	0.34766284
79	0xbd98688c	-0.07441816
80	0x3d89596e	0.067065105
81	0x3bc577ac	0.006026229
82	0x3d6c0e03	0.05763055
83	0x3e6badab	0.23015468
84	0xbd1560dc	-0.036469325
85	0xbe5f02b2	-0.21778372
86	0x3d7ba268	0.06143418
87	0x3e45464b	0.19265096
88	0xbe820a96	-0.253987
89	0x3e305916	0.17221484
90	0x3c4efed1	0.012633995
91	0xbe77ad83	-0.24187283
92	0x3e9e0332	0.30861813
93	0xbe94a675	-0.29033247
94	0x3e67f14e	0.22650644
95	0x3e75cf57	0.24004875
96	0xbf0d1167	-0.5510468
97	0x3d0f5c0d	0.034999896
98	0xbe9bd090	-0.30432558
99	0xbebef5fc	-0.37297046
100	0x3d858ee7	0.06521397
101	0x3bb63c11	0.0055613597
102	0xbdb22c8a	-0.086999014
103	0xbd18d938	-0.03731653
104	0xbd75137d	-0.05983304
105	0xbda24a40	-0.07924318
106	0x3e287560	0.16451025
107	0x3b05d4f4	0.002042112
108	0xbef6568e	-0.4811291
109	0xbe91217b	-0.28345856
110	0xbdaa5fb5	-0.08319036
111	0x3cd6e0be	0.026230212
112	0x3e1a937e	0.15095326
113	0xbf053832	-0.5203887
114	0x3ea3fcef	0.3202891
115	0x3d4a9f81	0.04946852
116	0xbe60e3d4	-0.2196191
117	0x3e8601db	0.2617329
118	0xbf5fc628	-0.8741174
119	0x3dbf6d8e	0.09347068
120	0xbf5df278	-0.866981
121	0xbc62c9c9	-0.013842055
122	0xbc0cc00b	-0.0085907085
123	0x3e5d2c6b	0.21598975
124	0xbe5d8436	-0.21632466
125	0x3e091d3e	0.13390061
126	0xbf34ad55	-0.70576984
127	0x3ed8cb7d	0.4234275
128	0xbea9938f	-0.3312039
129	0x3e241d5f	0.16026829
130	0xbd15dab4	-0.036585525
131	0x3df01b12	0.11723913
132	0xbda56fd6	-0.08077972
133	0x3bed58ca	0.0072432505
134	0x3db05eea	0.086118534
135	0x3e97d980	0.29658127
136	0x3dd3f879	0.10350127
137	0xbd14ddda	-0.036344387
138	0x3e7052b2	0.23469046
139	0x3e8fe853	0.28106937
140	0xb99143aa	-0.0002770697
141	0xbe89b9f0	-0.26899672
142	0xbe97d731	-0.29656366
143	0x3e595b03	0.21226124
144	0xbee70d89	-0.45127514
145	0x3e330ab0	0.17484546
146	0x3e3e9d7a	0.1861476
147	0xbdc3a9fc	-0.09553906
148	0xbd2d494d	-0.042306233
149	0xbf0d2753	-0.5513813
150	0x3d8c6408	0.06855017
151	0xbe42f93c	-0.19040388
152	0x3e0d4ec5	0.1379958
153	0xbb222502	-0.0024741297
154	0x3d78b891	0.06072289
155	0x3c6ede2b	0.014579336
156	0xbdcc6015	-0.09979264
157	0xbf3034ba	-0.68830454
158	0xbf16e094	-0.5893643
159	0xbefdd09c	-0.4957322
160	0xbe89aaac	-0.26888025
161	0x3d855d92	0.06511988
162	0x3f128582	0.57234967
163	0xbe2a488c	-0.16629237
164	0xbe4f8b9c	-0.202681
165	0x3ddf8cf2	0.10915555
166	0xbe86698d	-0.26252404
167	0xbd43bbb4	-0.04778643
168	0xbe3f79f0	-0.18698859
169	0x3dc1b20d	0.094577886
170	0x3dbfac8b	0.09359082
171	0xbda8e178	-0.0824613
172	0xbd8a0331	-0.0673889
173	0x3e1ed962	0.15512612
174	0x3e131038	0.14361656
175	0x3eb256e5	0.3483192
176	0x3d4854db	0.04890905
177	0x3e4bfed2	0.19921425
178	0x3d282761	0.04105318
179	0x3c46e69c	0.0121399425
180	0x3d2989aa	0.041391052
181	0xbeb35db5	-0.3503243
182	0xbf2c1213	-0.6721508
183	0xbd620483	-0.055180084
184	0xbd0f3f69	-0.034972582
185	0x3d245643	0.040121328
186	0x3d13e51a	0.03610716
187	0xbeb18c80	-0.34677505
188	0xbeb3e14f	-0.35132834
189	0x3ec2d8ac	0.38055933
190	0x3e423021	0.18963672
191	0x3d802940	0.06257868
192	0xbe0c2d31	-0.13689114
193	0x3d9f4477	0.077767305
194	0x3e59a8ef	0.2125585
195	0xbe423667	-0.18966065
196	0xbba07ee0	-0.004897937
197	0xbf3001e9	-0.68752915
198	0xbe9d51ee	-0.3072657
199	0xbea26610	-0.31718493
200	0xbe396754	-0.18105823
201	0x3cab5780	0.020915747
202	0xbeafdf8b	-0.34350237
203	0x3e217107	0.15765773
204	0x3da19265	0.07889251
205	0x3edf628f	0.43629882
206	0xbe15f389	-0.14643683
207	0x3e1ad1a9	0.15119042
208	0xbee8fad2	-0.4550386
209	0x3f079b50	0.52971363
210	0xbcc00d10	-0.023443729
211	0x3ec727eb	0.38897642
212	0x3cba7666	0.022761535
213	0x3dcabd03	0.098993324
214	0xbdabfdee	-0.083980426
215	0xbec0d098	-0.37659144
216	0x3dd9bae6	0.10631351
217	0xbf15e425	-0.58551246
218	0xbef62eb3	-0.48082504
219	0x3e51d102	0.20489886
220	0x3ef9a86b	0.48761305
221	0xbf35239a	-0.7075745
222	0xbefc7ec2	-0.4931546
223	0xbecc6534	-0.39920962
224	0x3e63ad63	0.2223411
225	0xbecd03d2	-0.40041977
226	0x3e1ac46f	0.15113996
227	0xbf7c718a	-0.98610747
228	0x3dac2262	0.084049955
229	0xbbc1bea6	-0.0059126196
230	0x3c0f2000	0.008735657
231	0xbd9c0f20	-0.07620072
232	0x3ea8d379	0.3297384
233	0xbd776dcd	-0.06040745
234	0xbf7740fa	-0.9658352
235	0x3c4fed92	0.0126909185
236	0xbbd10217	-0.006378423
237	0x3e2a1853	0.16610841
238	0xbdabe454	-0.083931595
239	0xbd066f75	-0.032821137
240	0x3e3beb32	0.18351439
241	0x3e3e1640	0.18563175
242	0xbe775cd8	-0.24156511
243	0xbd80d335	-0.062902845
244	0xbf696fb6	-0.9118608
245	0xbe80ec56	-0.2518031
246	0x3e5f1fce	0.21789476
247	0xbe1f97ef	-0.15585302
248	0xbdb8b95d	-0.0901973
249	0x3db227cd	0.08698998
250	0xbc77c197	-0.015121839
251	0xbeeff811	-0.46868947
252	0x3f0c5c63	0.5482847
253	0x3e2a6ed3	0.16643839
254	0x3e0ab15b	0.13544218
255	0x3eacbfb5	0.3374001

bias f4 [10]
0	0x3c951b24	0.018201418
1	0x3e8836c2	0.26604277
2	0x3d229a20	0.039697766
3	0xbd25e43d	-0.040500868
4	0x3e51400d	0.2043459
5	0x3d34a173	0.044099282
6	0x3d8155bc	0.06315181
7	0x3e040362	0.12891915
8	0xbe73aa6c	-0.2379548
9	0x3c84c9a9	0.01620944
