models/model_9883.pth (torch, 381997 bytes, 8 tensors)

weight f4 [32, 1, 3, 3]
000000 bd 55 ea 3e e5 be 5d bb f9 78 a2 3d 35 90 da 3d
       0.45768538 -0.0033835706 0.0793323 0.106720366
000010 cf dd 6d 3e 5f 64 74 3e 00 44 d5 be 1f 57 db be
       0.23229145 0.23866414 -0.41653442 -0.42839906
000020 c9 fb 18 3f 3c f3 ec be a2 01 35 bf 2c f8 5d bf
       0.59759194 -0.46279323 -0.70705616 -0.86706805
000030 bd f8 40 3d c1 39 38 3e 2c 87 d2 bd fa c1 3a 3f
       0.047112215 0.17990781 -0.10279688 0.72952235
000040 75 45 4a 3e fd 54 2f 3f c3 1d a3 bd aa 01 2e bc
       0.19753058 0.68489057 -0.07964661 -0.010620514
000050 5c 26 fa 3e e2 6b 1f be 3e c9 a0 3e c7 87 10 3f
       0.4885739 -0.15568498 0.31403536 0.5645718
000060 2b 4e 03 bf e0 33 a7 be be cc f9 3e 9a 63 9f 3e
       -0.5129115 -0.32656765 0.48789018 0.31130677
000070 90 d8 83 be c8 f3 1b bf 4e 2e 25 bd a9 e4 97 3e
       -0.25751162 -0.60918856 -0.040327363 0.2966664
000080 b2 74 ba be 72 dc c9 3e e8 93 11 3f 1e b6 1a 3f
       -0.36417156 0.39426 0.5686631 0.6043414
000090 b9 f3 a4 3e 63 7a 79 3e 9e 34 80 be b1 ea 1d 3f
       0.32217196 0.24363093 -0.25040144 0.61686236
0000a0 04 ae a3 3c 93 a1 14 be 0c d3 10 3f 9b d8 9d 3e
       0.019980438 -0.1451476 0.5657203 0.3082932
0000b0 4a 40 f4 be a7 7c c8 3e 3d bd 04 3f 12 53 e3 3e
       -0.477053 0.39157602 0.51851255 0.44399315
0000c0 55 4e 90 3e b2 7b 19 be 8e 0e 47 3e 43 3d 01 bf
       0.28184763 -0.14988592 0.19439146 -0.504841
0000d0 08 cc 15 be 1b 7f 91 3d d9 4e 0c 3f 1f 99 88 3e
       -0.14628613 0.071043216 0.5480781 0.26679322
0000e0 38 0f d6 3e 22 26 bc be 78 82 eb 3d 8b b4 85 3e
       0.41808486 -0.36747843 0.11499494 0.26114306
0000f0 be 65 84 bf 2e 63 28 bf d3 d4 43 bf d3 db 05 3f
       -1.0343549 -0.65776336 -0.7649662 0.5228855
000100 01 47 03 3f 22 66 91 be 5d 4f 04 bd 70 e5 18 3f
       0.5128022 -0.28398234 -0.03230225 0.59725094
000110 ec b9 be 3d b3 0e 1f 3e 86 54 d1 3d 50 f8 eb be
       0.093128055 0.15532951 0.102212 -0.46087885
000120 eb db d7 bc 9d 77 da bd 8e 45 47 3e 65 ff cc 3e
       -0.026349982 -0.10667346 0.19460127 0.400386
000130 45 c7 34 3f b0 e2 f8 3e a2 20 b8 3d ac 5f 31 3d
       0.7061656 0.4861045 0.08990599 0.04330413
000140 e5 2f a9 be da 3f b2 be 58 e4 16 3c 62 50 da 3e
       -0.33044353 -0.3481434 0.009209715 0.42639452
000150 48 d1 0c 3e b3 ae 0f 3f 80 c2 01 3f ce b1 09 3d
       0.1375171 0.56125945 0.5068741 0.033616833
000160 f4 9c 99 be 1b 6a 08 3c f4 ac ee bd 70 4e f9 3e
       -0.30002558 0.008326079 -0.11654082 0.48692656
000170 fe 21 0b 3f 57 62 45 be 89 5f 9a 3e 81 a9 0d 3f
       0.5434874 -0.19275795 0.30151013 0.5533677
000180 f5 96 ba be ee 14 14 3e b2 9b 68 be eb 93 b0 be
       -0.36443296 0.14461109 -0.22715643 -0.34487852
000190 1b 60 ab bd 52 9b e8 3b c4 04 41 3e 9d c7 0d 3f
       -0.0836794 0.0070985937 0.18849474 0.5538271
0001a0 b5 58 00 3f b2 b8 00 be e8 f3 9f 3e da 4b 20 3e
       0.50135356 -0.12570456 0.31240773 0.15653935
0001b0 07 4b b8 be 77 bc 4c bf 05 99 f1 be 4e 1e eb bd
       -0.3599474 -0.79975075 -0.47187057 -0.114803895
0001c0 1b ca 80 3d a8 82 a7 be ad 07 26 3f 87 2b de 3e
       0.062885486 -0.3271687 0.6485546 0.43392584
0001d0 1f d1 14 3f 93 79 fc bd e3 44 26 be 6a f4 ad bd
       0.58131593 -0.12327876 -0.16237216 -0.08493884
0001e0 35 9f 1f bc 73 e7 eb 3e 05 dd 37 3e 54 fc 58 3e
       -0.009742548 0.4607502 0.17955406 0.21190006
0001f0 ce 51 87 3e 77 85 02 3f 60 68 af be 70 09 00 bf
       0.264296 0.509849 -0.3425932 -0.500144
000200 0e d0 18 be f1 bf 33 bf e0 cb e6 be 07 2c ec bd
       -0.14923117 -0.70214754 -0.4507742 -0.11531835
000210 ce de cb be 0d df d8 3e ea 7e 77 3f b7 aa 92 3e
       -0.39818424 0.42357674 0.9667803 0.2864587
000220 6a 5b 0d 3e 79 6f f8 3e 12 5b b8 be d0 ed c8 3e
       0.13804403 0.48522547 -0.3600698 0.39243937
000230 46 ad c4 3d 91 08 52 3e 16 37 28 be ff 96 34 3e
       0.09603362 0.2051108 -0.16427264 0.17635725
000240 42 09 1c 3f bf 81 a9 3e de 88 1d 3f 98 b0 47 3d
       0.60951626 0.331068 0.6153697 0.048752397
000250 a4 6b b9 bd 11 bc 96 bb 74 19 1e bf c5 d8 30 bf
       -0.09053734 -0.004600056 -0.6175759 -0.69080764
000260 82 24 52 bf 6c 96 f6 3e 63 92 d9 3e 16 10 a0 bd
       -0.82086957 0.48161638 0.42494497 -0.07815568
000270 c6 fe 23 3f ed 79 3c 3e 10 fa c0 be fb a6 97 3e
       0.6406063 0.18405886 -0.37690783 0.29619583
000280 d4 e0 af bd c2 7b f7 3d a8 8c ea be ab 60 93 be
       -0.085878044 0.12084152 -0.45810437 -0.2878469
000290 d8 59 30 3f b1 97 58 bf c6 95 bc 3c a7 c6 95 3e
       0.6888709 -0.8460646 0.023020636 0.29253122
0002a0 28 e0 cb be f2 ce 13 3e d8 ad b3 3e 80 83 db bd
       -0.39819455 0.14434412 0.3509357 -0.10718441
0002b0 dc 56 d6 bd 88 55 87 be 48 44 0a 3d e2 c4 5d 3e
       -0.10465786 -0.26432443 0.033756524 0.21657136
0002c0 9a b3 a2 be 4e d3 04 be c0 b9 cf 3d 5b 29 82 be
       -0.3177765 -0.12971231 0.10142851 -0.25422177
0002d0 21 d3 52 bb ef bc 54 bf c1 ae b7 be b5 2c c5 be
       -0.00321693 -0.8310079 -0.35875514 -0.3851067
0002e0 60 08 e1 be aa a3 bc 3e 2a 09 14 bf b6 b5 07 3e
       -0.43951702 0.36843616 -0.57826483 0.13252911
0002f0 41 82 9e 3e 58 fc e7 3d 04 4a 5b 3e 14 a6 65 be
       0.3095875 0.113274276 0.21414953 -0.22426635
000300 1a 5d ba bd 94 63 84 be ad 62 65 bf 4f 19 5e bf
       -0.09099789 -0.25857222 -0.8960369 -0.8675737
000310 50 33 3e bf 34 b4 b1 be b1 cf 36 3d 3d 5d 40 3e
       -0.74297047 -0.34707797 0.044631664 0.18785568
000320 53 e1 a5 bd 00 11 59 3e 04 22 e2 3e 25 28 02 3f
       -0.08099618 0.21197891 0.44166577 0.50842506
000330 37 8a c7 be 81 5b 47 3e 80 e9 4c 3d e2 45 e1 3d
       -0.38972637 0.194685 0.05002737 0.10999657
000340 ea 94 64 bd 2c ba 2c bf d8 77 75 bd 53 9f 0e bf
       -0.055806078 -0.67471576 -0.059928745 -0.5571186
000350 df 54 f4 be 6a ef 85 bf 4e 58 0f bf b4 94 8e 3e
       -0.47721002 -1.0463688 -0.5599412 0.27847826
000360 2b 7e aa be 0b a6 0e 3e e0 8d bc be 0d 50 3f bf
       -0.33299384 0.13930528 -0.36826992 -0.7473152
000370 96 6f 1b bf e8 1f 57 bf 70 df 14 3e 2b 70 a6 3d
       -0.6071714 -0.8403306 0.1453836 0.08126863
000380 1d 25 84 3e 70 33 e0 3e 02 db b0 be 96 fe 26 bf
       0.25809565 0.43789244 -0.3454209 -0.6523222
000390 90 07 51 3f 7b c8 ff 3e 37 db e6 bd f1 83 af 3d
       0.81652164 0.49957642 -0.11272281 0.08570088
0003a0 08 51 b4 3e 16 88 07 3e e7 ee 1d bf 25 86 12 bf
       0.35218072 0.13235506 -0.6169266 -0.5723594
0003b0 0c c4 11 be c3 94 2c 3d 54 72 39 be 0f 3a 62 bf
       -0.14234942 0.042134058 -0.18110019 -0.8836984
0003c0 3d 23 04 3e a9 4a 77 bd 7c be 70 bf e0 65 f7 3d
       0.12904067 -0.060373936 -0.94040656 0.12079978
0003d0 0f c7 22 bd e7 64 1d 3e 88 b2 92 be f3 7d 8f 3e
       -0.03974062 0.15370522 -0.28651834 0.2802578
0003e0 de a3 22 3e 4e c9 82 bd d6 c9 c6 3e 68 bc ad 3e
       0.15882823 -0.06386052 0.38825864 0.33932805
0003f0 fa 11 75 be 11 f8 67 3e f2 67 24 be e8 cd bc bc
       -0.23932639 0.22653224 -0.16055277 -0.023047403

bias f4 [32]
000000 b1 ee 57 be b7 b7 43 3e c2 19 00 be 5a 8e 36 bd
       -0.21087147 0.1911305 -0.12509826 -0.04456935
000010 13 54 db bd 45 14 ab be 53 3b 88 3e fb 6b 83 be
       -0.10709395 -0.33413902 0.2660776 -0.2566832
000020 95 4b 50 be 99 b8 ed bd 57 1a 29 be 3f e1 8e bd
       -0.20341332 -0.11607475 -0.16513954 -0.06976556
000030 e3 64 3d 3e 08 c4 c5 bd c8 17 3a 3e bc a4 b1 be
       0.18495516 -0.096565306 0.18173134 -0.34695995
000040 49 3c 90 3e ce 7e 83 be 31 c8 03 3e 94 e6 9e be
       0.28170994 -0.25682682 0.12869336 -0.31035292
000050 d7 7c d0 3e f9 6b 1d 3f 29 ca a4 be c9 f3 1f 3f
       0.40720245 0.6149288 -0.32185486 0.6248136
000060 ba 2f 10 3f 03 d9 0f bd 1a 88 30 3f d8 41 3d be
       0.56322825 -0.035119068 0.68957675 -0.18482149
000070 db 70 29 be 50 fe 45 be 81 5a 29 bc e3 85 92 bd
       -0.16546957 -0.19335294 -0.010336519 -0.07154443

weight f4 [64, 32, 3, 3]
000000 d7 72 35 3e 01 fe c2 bd d5 f9 ad 3d 03 86 68 3e
       0.17719589 -0.09521104 0.08494917 0.22707371
000010 f3 12 3e 3d 36 9e 26 be 3c f8 2b 3e 5b b9 23 3e
       0.04640479 -0.1627129 0.16793913 0.15988676
000020 db e6 35 bd 4a 05 5a 3e 03 33 39 bd a8 95 e8 3d
       -0.044409614 0.2129108 -0.045214664 0.1135667
000030 6d 50 20 be ac 4b d0 bb b6 27 97 bc b1 09 af bd
       -0.1565568 -0.006356677 -0.018451553 -0.0854677
000040 0b b1 bf 3c 67 1b a6 be c9 57 3a 3d a1 09 a1 be
       0.02339985 -0.3244278 0.045493875 -0.3145266
000050 09 0d c3 bc 52 53 57 3e 10 07 87 be 22 4f 25 3e
       -0.023809927 0.21027878 -0.26372576 0.16143468
000060 5b 86 e4 3c ba 55 2d 3e 58 73 d9 bd 6f 1b 0b 3e
       0.027896097 0.16927233 -0.10617703 0.13584684
000070 f1 21 a6 be e8 b6 d1 bd c6 7a a3 3c cb a3 47 bc
       -0.3244777 -0.10239965 0.019956004 -0.012185047
000080 69 72 3b bd 36 33 a3 3d eb f8 f4 3c 58 1e 04 3e
       -0.045763407 0.07968752 0.02990385 0.129022
000090 f7 af e5 3d b4 2b 22 3b db 30 e1 be 83 ed 81 3d
       0.11215203 0.0024745287 -0.43982586 0.0634413
0000a0 51 7b 03 be 1e 5b 64 3c 67 f1 92 3c e2 17 c3 bd
       -0.1284001 0.01393774 0.017937375 -0.0952604
0000b0 ac d1 48 3e d6 aa d7 3d 32 72 14 be 88 66 23 be
       0.19611233 0.10530631 -0.14496687 -0.15957081
0000c0 4b be e7 3d d5 fd 99 be 6a 9d f0 bd 33 fc 4f 3e
       0.113155924 -0.3007647 -0.11748774 0.2031105
0000d0 7f f2 01 3d ff fb 0e 3e ed ec 60 be 2a 54 ba bd
       0.031725403 0.13963316 -0.2196538 -0.09098084
0000e0 96 83 2b be 96 d8 2c be 64 41 99 be 1f 8a 34 bf
       -0.16749415 -0.16879496 -0.29932702 -0.70523256
0000f0 2d 41 99 3d ff 41 b8 bd 71 fc 91 be fe d8 20 3e
       0.074831344 -0.08996963 -0.2851291 0.15707776
000100 a6 f2 e6 bd b2 06 a7 be 92 45 00 3d e7 a4 66 be
       -0.1127675 -0.32622296 0.031316347 -0.22523843
000110 dc 8e 9e 3c 70 75 d4 3d ad 91 ae be 4a 94 5c 3e
       0.01935523 0.10373962 -0.34095517 0.21540943
000120 23 fe 54 3d 7a f3 be bd 28 ea 95 be 72 fd 05 3e
       0.052000176 -0.09323783 -0.2928021 0.13084963
000130 df 29 85 be 7e 8d 54 3e 79 6b e9 3d 77 ad a8 bd
       -0.26008508 0.207571 0.11397452 -0.08236211
000140 7e 46 88 3d 96 4e 4c 3e bf 99 ce bd e0 71 4d be
       0.0665407 0.19951853 -0.100879185 -0.20062971
000150 2a f8 4e 3e fe dc c6 be 53 70 82 3e 9e b2 fb 3c
       0.20211855 -0.3884048 0.25476322 0.03072482
000160 6f 59 f5 bc 59 eb 4d bd 5f d8 a3 bd 9f 96 bb bd
       -0.029949872 -0.050273273 -0.08000254 -0.09159588
000170 b7 a2 56 be 3e 39 22 3e 30 ab bc be 6d de 94 3e
       -0.20960508 0.15842149 -0.36849356 0.29075947
000180 f5 e2 87 3d 44 fe 8e bc 93 01 54 3b 05 e7 36 3e
       0.066350855 -0.017455228 0.003234957 0.17861564
000190 39 5a c0 be f4 04 cf bc a4 29 a8 3c 4c bd 81 be
       -0.37568834 -0.025270917 0.020527668 -0.25339735
0001a0 df fb 75 3e f4 94 13 bd fb d8 5b 3d 34 18 8e bd
       0.24021862 -0.036030725 0.053673726 -0.0693821
0001b0 3a 3b 5e 3e 2b 4f 22 be 61 34 06 3e 85 7d 05 bd
       0.2170228 -0.15850513 0.13105918 -0.032590408
0001c0 fc b4 bf 3c 2c 5b 40 3d 10 c3 c4 bd d3 62 b6 3d
       0.02340173 0.04696195 -0.09607518 0.08905568
0001d0 60 e0 ff be 02 d1 09 3e 7a 20 9e be bd 4f b2 b9
       -0.49975872 0.13458636 -0.30884153 -0.00034010215
0001e0 33 32 07 3e fc 7d 11 be 89 47 f7 3d 25 b4 23 3d
       0.13202743 -0.14208215 0.12074191 0.03996672
0001f0 58 05 c0 3d 73 3a 78 bd c5 3a 63 bd 43 99 62 be
       0.09376019 -0.060602617 -0.05547597 -0.22128777
000200 d7 b8 de 3e 15 30 92 be 55 0d 41 3e fd 99 e4 3d
       0.43500397 -0.2855231 0.18852742 0.111621834
000210 09 30 28 be b9 9d dd 3d ee 63 b7 be fe 57 ca 3a
       -0.16424574 0.10821099 -0.35818428 0.0015437601
000220 ba e6 3e 3c a2 ec da bd 89 be 6e 3e 2b 67 d1 be
       0.011651689 -0.106896654 0.23314871 -0.40899023
000230 7a 7b 49 3e 43 3b ba 3b 6b ca b7 3c 69 e7 8f bd
       0.19676009 0.005683334 0.022435388 -0.0702656
000240 e0 22 1d be 3c 37 e5 bc ae 34 19 be 3b 2a b5 bd
       -0.15345335 -0.02798044 -0.14961502 -0.088459454
000250 4e c0 29 be 4e b7 0b bf 6a 34 cd 3d e4 4f 93 be
       -0.16577265 -0.54576576 0.10019763 -0.2877189
000260 2f b6 f0 bd cd 29 ff 3d 23 a2 a9 bd 5d 1c 92 be
       -0.11753499 0.12459145 -0.08282878 -0.28537264
000270 72 a8 ea 3d a2 78 8b bd e8 aa 23 bd 7f 32 27 3e
       0.1145791 -0.06810118 -0.03995791 0.16327856
000280 db 62 11 be 29 cc 4d 3e 2f 83 47 be bd 01 89 bd
       -0.14197867 0.20097412 -0.19483636 -0.06689785
000290 63 60 ee 3d 91 48 2e bd 8e 1e 7f bd 4a 88 6f 3e
       0.11639478 -0.042549673 -0.062285 0.23391834
0002a0 4d 31 ca bd 07 a4 a5 3d 9f 6e 40 bd bf d8 32 3d
       -0.09872685 0.08087926 -0.046980496 0.043663736
0002b0 61 5f 3f bd 87 c4 5d bd 5b 8c 39 bd 00 00 46 b6
       -0.04672182 -0.0541425 -0.04529987 -2.95043e-06
0002c0 99 80 43 3d 3e 01 be 3c f6 f2 37 bd 3b 6e 4b bd
       0.047730062 0.023193952 -0.04490944 -0.04966567
0002d0 f3 2b 79 bd 0e 3c 0a 3e e1 4c 8f 3e c6 82 c4 bd
       -0.06083293 0.13499472 0.2798834 -0.095952556
0002e0 80 f5 91 3c 96 6b d7 3d fb 7a d9 bd 00 f1 9f 3d
       0.017817259 0.10518567 -0.1061916 0.07809639
0002f0 c5 fc 89 be c1 07 d8 3c 9a bf 97 3d 48 ac 15 3e
       -0.2695066 0.026370885 0.07409592 0.14616501
000300 a0 50 f9 bd ea 21 9e 3d 94 d6 8c be b3 e7 03 bc
       -0.12173581 0.07721312 -0.2750746 -0.008050847
000310 54 7d 02 be b3 b1 f5 be 1d 72 60 bd 07 03 67 be
       -0.12743121 -0.47987136 -0.054796327 -0.22559749
000320 51 38 e9 bd 19 06 15 3e 79 52 ae be 1d f0 df 3d
       -0.113876946 0.14553107 -0.34047297 0.1093447
000330 7c fa 8f bd 8a 27 e7 3d 57 07 24 bd ae d5 4e 3d
       -0.07030198 0.11286838 -0.040046062 0.05049675
000340 6f 8f 07 bd b4 e2 84 3e 9a 7a d0 bd e0 a1 13 3e
       -0.033095773 0.2595421 -0.101796344 0.14417219
000350 59 28 64 be 3d 04 c1 bd dd ac 59 be 72 6d 02 bf
       -0.22281016 -0.094246365 -0.21257348 -0.5094825
000360 b5 88 0f 3e 19 a9 87 bd b1 0b 28 3e 47 1f 17 be
       0.14016993 -0.0662405 0.1641071 -0.14758025
000370 94 e6 5b 3c 9f 4c b2 be d9 90 58 bb d8 3b 5c bd
       0.013421673 -0.34824082 -0.003304532 -0.05376801
000380 0c a5 e2 be dd ab 91 3d fa cf f5 bd c5 33 b3 be
       -0.44266546 0.071128584 -0.12002559 -0.35000435
000390 d2 e7 3d bc ad c1 f8 bc 6d 4f be bd 80 0b d8 3d
       -0.011590915 -0.03036579 -0.09292493 0.105490685
0003a0 b9 02 e2 bd e0 f3 87 3e 4e 5e b5 bc 84 71 2d bc
       -0.110356756 0.2655325 -0.022139695 -0.010586146
0003b0 75 e4 d9 bd 39 07 22 3c 93 18 9d 3d 49 d1 9c be
       -0.10639278 0.009889417 0.07670703 -0.30628422
0003c0 e9 77 c5 3c 3a e4 c8 bd 9f 28 4a be 1d 3e 0b 3e
       0.02410503 -0.09809156 -0.19742058 0.13597913
0003d0 6c 0d b9 be 0f 3b 37 3b 44 64 d3 3d cd e8 82 be
       -0.36143053 0.0027958786 0.103218585 -0.25568238
0003e0 02 51 49 3e 11 d7 43 3c 6a ea 18 3e d7 71 d3 bc
       0.19659808 0.011953131 0.14933172 -0.025811119
0003f0 11 3b 30 3e d6 9b 7b be 82 09 b4 be 44 e9 19 3e
       0.17210032 -0.24571165 -0.35163504 0.1503039

bias f4 [64]
000000 76 0a 6e bd 4b c3 a9 3c 8a 3b 3f 3d a1 d9 b7 bd
       -0.058115445 0.020723006 0.04668764 -0.08977056
000010 3f c7 68 3c 0c fb 21 3d 21 30 3b 3d f7 f1 bb bd
       0.01420766 0.039546058 0.045700196 -0.091770105
000020 3c 9c e9 bb be 85 83 bc d1 c8 bf bd 6c 2e 2e bc
       -0.0071292203 -0.016054984 -0.093644746 -0.010631185
000030 af e5 59 bd 5a 49 12 bd f1 7d 27 3d 7f 6e f8 bd
       -0.05319756 -0.035714485 0.04089159 -0.121304505
000040 17 a8 65 3d 7b 96 10 bd 5e 27 a1 bc 4d fe 3d 3d
       0.056068506 -0.03529976 -0.019672092 0.0463851
000050 b7 79 13 3d 82 1f 4e bd 32 9a 8c 3d b8 5c 90 3d
       0.03600475 -0.050323017 0.06865348 0.07048935
000060 40 17 da 3c e2 b3 af bb 79 e7 a9 bd db 51 e7 3b
       0.026622415 -0.00536202 -0.08296103 0.0070593185
000070 ff d6 52 bd f7 0b 36 bd 42 1d 27 bd b6 63 7f bc
       -0.051474568 -0.044445004 -0.040799387 -0.015587738
000080 8f 0d 98 bd 92 70 0d bd ec de 72 bd 31 b4 f2 bd
       -0.07424461 -0.034531184 -0.059294626 -0.11850775
000090 a1 a3 a8 bc 55 a1 c8 bd f0 fe a8 bd b1 ff ea bc
       -0.020585837 -0.09796397 -0.082517505 -0.028686376
0000a0 b9 98 42 bd d0 34 53 bd 4f b9 02 3d f7 3f fc 3c
       -0.04750893 -0.051564038 0.031915005 0.03079222
0000b0 f9 e7 20 3d 0f 2c f3 bd dc 3a d7 bd 30 cb 74 38
       0.039283726 -0.11873638 -0.105092734 5.8363366e-05
0000c0 17 54 12 be cb 9f 06 bd 74 ab fa 3c 8c b1 44 bc
       -0.1428989 -0.032867234 0.030599333 -0.012005221
0000d0 10 82 42 bc e8 2b 8e bb 41 a2 f8 bc d1 af 8c bc
       -0.01187183 -0.00433873 -0.030350806 -0.01717368
0000e0 2a c3 d7 bc 5b fd 4b bd 91 b8 fe 3c 9c 72 8a bd
       -0.026338179 -0.049802165 0.031093867 -0.06760141
0000f0 08 cc 01 bd b7 3a 30 bc 98 56 aa bd a3 2e be bd
       -0.03168872 -0.010756186 -0.08317298 -0.09286239

weight f4 [128, 576]
000000 61 c5 16 be 37 f1 29 bd 6a e5 a4 bc ae e8 cb bd
       -0.14723732 -0.041489806 -0.020128924 -0.099564895
000010 f6 b3 34 be b1 98 3d 3d 77 05 c5 bd f2 eb 96 bd
       -0.17646775 0.046288196 -0.09620183 -0.07369222
000020 24 da 5e 3d 4e 05 fd 3d 70 48 7d bc 0f fd 1b be
       0.054407254 0.123545274 -0.015459165 -0.15233253
000030 fb c0 09 3d 2b 4b d0 bc e4 03 f1 3c cb 02 34 be
       0.033631306 -0.025426468 0.0294208 -0.1757919
000040 1d a7 96 bd 0d f8 89 bd f3 c9 2a bd b6 1e 7a bd
       -0.07356093 -0.06736765 -0.0416965 -0.061064444
000050 fa 13 da bd 85 5c 22 be fe 6c b7 bc c1 51 03 be
       -0.106483415 -0.15855606 -0.022390839 -0.12824155
000060 da c5 21 bd be 9b 19 3e a0 d3 24 bd 8f 06 09 3d
       -0.039495327 0.15000817 -0.040240884 0.03345352
000070 01 4c 3c 3c 59 9f 79 bd b7 da 7a 3d 9a 3c 00 3d
       0.01149273 -0.06094298 0.06124374 0.031307794
000080 9d c2 83 bd e9 d0 a1 bd 84 d1 17 3c 7c 64 ba bd
       -0.06433604 -0.079011746 0.009266261 -0.09101197
000090 aa 07 81 bd ec 4b e0 3c 62 45 31 bd 3b a1 d4 3c
       -0.0630029 0.027379952 -0.04327906 0.025955787
0000a0 55 cd 37 bc 37 ff db bd 1a fa ee bd c0 68 13 be
       -0.011218389 -0.10742038 -0.11668797 -0.14395428
0000b0 d0 ad 2a 3c 1b 23 27 bd da a8 9f 3c cb 9e db bc
       0.010417417 -0.040804964 0.019489694 -0.026809117
0000c0 49 0e ca 3b ee f8 43 bd 96 0f 63 be 17 a8 a3 bd
       0.0061662537 -0.04784482 -0.22173914 -0.07991045
0000d0 a7 fd cf bc 6b e6 7b bd d4 d4 b5 bc 44 0c 9f bd
       -0.025389506 -0.06149904 -0.02219621 -0.07766011
0000e0 28 9a 44 3c 4e 38 be bb f3 b5 77 bc e4 9a cc bd
       0.011999644 -0.005805052 -0.015119064 -0.099904805
0000f0 05 c4 41 bd aa 3f b3 bd 87 39 55 bd 3a 2b 84 bb
       -0.04730608 -0.08752377 -0.052056815 -0.0040334733
000100 75 13 04 bc a4 eb 15 bd 58 84 d1 ba 2e d0 8d bd
       -0.00806128 -0.036601678 -0.0015984876 -0.06924473
000110 e3 e6 37 bd 2e 1e 76 bd f6 f5 b3 bd 5e b7 9f 3c
       -0.044897925 -0.060087375 -0.08787148 0.019496616
000120 ad 89 10 bd 47 b3 04 3e 12 54 b5 bd 6e f3 e7 bc
       -0.035287548 0.12959014 -0.08853926 -0.028314319
000130 11 32 03 3d 5f e1 5a bd 55 5a 8b bd 6d 3a cb bd
       0.03203017 -0.053437587 -0.06804339 -0.09923253
000140 c9 10 4f 3d 05 b7 62 bd a8 83 bf bc 86 aa 0c 3b
       0.050553117 -0.055350322 -0.023378208 0.0021463945
000150 ed c3 0f bd a5 12 e9 3c 8a d8 18 bd 0d 23 91 bd
       -0.03509896 0.028451273 -0.037315883 -0.070867635
000160 23 ab e9 bd 39 3a f2 bd 1d 15 67 3c 23 b6 47 bd
       -0.11409595 -0.11827511 0.014104155 -0.048757683
000170 97 52 ca bc 9f 6f 5f 3d ce 4e ed bd 44 9b 09 be
       -0.024697585 0.05454981 -0.115872964 -0.13438135
000180 a4 d7 b7 bc 7e ab a8 bd 0f 92 2b bd b4 ad 22 3c
       -0.022441693 -0.082358345 -0.04188734 0.009929109
000190 50 9e 65 3d 91 62 b1 bc 55 4a 72 3d 69 65 4c 3c
       0.05605918 -0.021653445 0.05915292 0.01247535
0001a0 37 63 2a bd f0 38 39 be 16 ce 3b bd fb 1f ae bd
       -0.041598525 -0.18088126 -0.045850836 -0.085021935
0001b0 d8 11 c2 bc 47 ee 01 bc 35 9f 3b bd 17 96 19 3d
       -0.02369015 -0.007930345 -0.04580613 0.037496652
0001c0 f7 9a 31 bd 24 1f 9e bd 01 ee e1 bd ac b0 5f bd
       -0.043360677 -0.07720783 -0.11031724 -0.054611847
0001d0 54 2a 6c bd 84 b3 20 3b 1d c8 3e bd 17 f0 26 be
       -0.057657555 0.0024521062 -0.04657756 -0.16302525
0001e0 9f 61 15 3d 0f 86 df 3b 7e ee dd 3c 97 a9 8b bd
       0.03647005 0.006821401 0.027091261 -0.06819456
0001f0 c3 26 aa bd 67 98 1b 3d 4f 15 68 3d 98 4c 89 bd
       -0.083081745 0.03798714 0.056660946 -0.06704062
000200 d4 f8 76 bd 22 53 d0 bd fc 7b 3e 3b 18 d0 15 be
       -0.060295895 -0.10172106 0.00290656 -0.14630163
000210 af 17 d1 bc 5e a2 1e be b5 2a 0a 3d f0 10 75 3d
       -0.025523989 -0.15491626 0.033732135 0.059830606
000220 82 6a dd 3d 59 ff 03 3c 84 86 49 bd de 87 95 bc
       0.108113304 0.008056485 -0.04920055 -0.018253263
000230 c1 ae 03 bd f7 8c de bd 6c f1 ce 3c 63 2c ac bb
       -0.03214908 -0.10866731 0.025261603 -0.0052543147
000240 60 13 98 bc 89 68 42 bd 53 ec 9a bc 0a ce 34 3d
       -0.018563926 -0.047462974 -0.018911516 0.044141807
000250 31 c9 17 3b 88 ee 02 be 57 86 1d be a6 08 c9 3b
       0.002316069 -0.12786305 -0.15383278 0.006135064
000260 e3 25 e9 bc b4 b9 44 bc ad ad 9a bd 4c 94 8a 3d
       -0.028460449 -0.012007166 -0.07552657 0.06766567
000270 3b 23 d6 bd 1c 50 ed 3c 1c 4b 80 bd a6 c8 0f 3d
       -0.104559384 0.028968863 -0.06264326 0.035103463
000280 31 35 5f bd 19 5a 47 3c fc 14 fa 3c 8b 74 fc 3a
       -0.054494087 0.012167477 0.030527584 0.0019260807
000290 de 42 62 3d d0 b2 30 3c f4 8b 86 bd f0 06 f0 3c
       0.05523955 0.01078482 -0.06569663 0.029300183
0002a0 0a f3 b0 bd bb 6d e1 bd ad ef d2 bd 8b 7a d1 3d
       -0.08640106 -0.110072576 -0.10299621 0.10228451
0002b0 36 1c 35 3d 07 ed 00 bc 8e 89 df bc b6 31 f1 3b
       0.044216357 -0.007869012 -0.02728727 0.0073606623
0002c0 5b 88 1a bd 05 97 e2 bd 07 b5 c6 bd 28 ea 0d bb
       -0.037727695 -0.11063961 -0.09702497 -0.002165446
0002d0 8b 91 d2 3b e1 d5 28 3d 58 2b a8 bd 72 61 d4 bd
       0.0064260415 0.041219596 -0.08211392 -0.10370149
0002e0 80 9e 14 3d de 15 09 bd a7 b4 f7 bd 08 1c 9d bd
       0.03628397 -0.03346812 -0.120950036 -0.07671362
0002f0 80 d0 3c bd 91 74 89 3a 07 40 92 bd 36 fe 8a bd
       -0.04609728 0.001048701 -0.071411185 -0.06786768
000300 93 f4 bd bd d4 25 19 3d c9 34 8b bd 0b 03 77 3d
       -0.092751645 0.03738959 -0.06797177 0.060305636
000310 f2 a7 9e b9 e7 69 9a bd 5d 3b 65 bb 43 8b c7 3c
       -0.00030261237 -0.075397305 -0.003497801 0.024358397
000320 d1 d3 ad bd 4c bc a0 bd ff 92 8d 3c 71 16 e8 3c
       -0.084876664 -0.07848415 0.017282007 0.028331013
000330 ff 6d f7 bd 29 a8 86 3d bd 97 98 3d 42 28 4d bd
       -0.12081527 0.06575043 0.07450817 -0.05008722
000340 6f 85 d7 3b 9a 1f 62 bd e0 6c 94 bc a4 fe f0 3c
       0.006577186 -0.05520592 -0.018118322 0.029418297
000350 13 c7 0e be 97 ee 59 bd 97 2f 1b 3e 64 2b b4 bc
       -0.13943128 -0.053206053 0.15154873 -0.021993347
000360 d4 4d 70 bd 89 c0 b6 3c 36 44 91 3d 83 11 a1 bd
       -0.058667973 0.022308605 0.07093088 -0.07864668
000370 a6 8e 28 3c 48 cf 06 bd f0 e1 ca bd 58 50 bd 3d
       0.010287916 -0.032912523 -0.099063754 0.0924384
000380 07 aa 13 bd 07 59 7f bd 74 bd 74 3b 84 f8 00 bd
       -0.036050823 -0.062340762 0.0037344368 -0.031487003
000390 77 0c a4 bb 27 23 a4 bd c2 74 4e be 9b 98 81 bd
       -0.0050063687 -0.08014517 -0.20161727 -0.06327935
0003a0 80 a3 da bc 51 ba 61 bd 1a 25 f4 bd 2f 19 1e bd
       -0.026689291 -0.055109326 -0.11921139 -0.038598236
0003b0 1d 2e 94 bd 47 6d d1 bc 7a be 98 bd e2 fe b9 bc
       -0.07235358 -0.025564803 -0.074582055 -0.022704545
0003c0 2c f5 d4 bd 64 03 91 bd 32 a9 fa bd 17 d6 47 3c
       -0.10398325 -0.07080725 -0.12239303 0.012197039
0003d0 3a 2a 02 3e 5a fb 8c 3d c7 93 2b bd 5f 24 b8 bc
       0.1271142 0.06883879 -0.04188898 -0.02247828
0003e0 6b 66 cf 3d 1b 98 82 bd 2c 04 8b 3d eb 3e fb ba
       0.101269566 -0.06376668 0.06787905 -0.0019168531
0003f0 b5 28 a1 3d 61 d9 cd 3d f7 b3 10 be 15 0e a2 bd
       0.078690924 0.10051227 -0.14131151 -0.07912842

bias f4 [128]
000000 ef fc 6d bc 99 d7 44 bd 85 18 45 bd 54 bb c6 bd
       -0.014525636 -0.048057172 -0.048119087 -0.09703699
000010 81 aa f8 bb b1 83 7f bd 00 62 57 bd dc 0c 96 bc
       -0.007588685 -0.06238145 -0.052583694 -0.018316679
000020 7e d8 d5 bd b0 fd fe bb 6e f8 35 be 48 9c 55 bd
       -0.10441683 -0.0077817068 -0.1777055 -0.052150995
000030 68 1c 0b be 4c 98 86 bc 6e 53 4e bd 45 9a 46 bd
       -0.13585055 -0.016430043 -0.050372534 -0.048486967
000040 6f 64 c7 bc f5 6e 63 bc ea 14 40 bd cf 69 29 3d
       -0.024339883 -0.013881435 -0.046894945 0.041360673
000050 ed 39 a8 bd ea b1 51 bc a4 0c 45 bd 68 3b 54 bd
       -0.082141735 -0.012798766 -0.04810776 -0.051814467
000060 e2 63 86 3c 28 32 76 3d 2b 67 74 3d 3b 5a dd bd
       0.01640505 0.060106426 0.0596687 -0.10808226
000070 c2 ed 1f bc b1 21 01 3d cd f3 c0 bc 30 97 c5 bc
       -0.009761276 0.03152627 -0.023553753 -0.024119943
000080 26 d6 18 bd 95 c6 31 3e 4e df 3c bc ed c7 4b bd
       -0.037313603 0.1736091 -0.011527849 -0.04975121
000090 d1 c5 ad ba a3 5c 99 bc b2 55 d8 3d e2 6d 0a be
       -0.0013257806 -0.01872093 0.1056322 -0.1351848
0000a0 a0 3b 80 bd 9e 7b d6 bc 9d 3f 9b bd e0 ee c0 bb
       -0.062613726 -0.026181992 -0.07580493 -0.005887851
0000b0 92 18 b8 3d 96 89 3a 3e b6 18 87 3d bd da 19 bd
       0.089890614 0.18216547 0.0659651 -0.03756212
0000c0 af 93 d5 3d b9 55 9e bc 2f 2f e5 3d f0 8a 18 3e
       0.10428559 -0.019327985 0.1119064 0.1489675
0000d0 dc 29 30 be c5 76 87 3c cb d9 1e bd 0c 65 00 bd
       -0.17203468 0.016536126 -0.038781922 -0.031346366
0000e0 31 5d 70 3d f4 1d b5 3d 19 2b 9b bd 4a 0b ff bc
       0.058682624 0.08843604 -0.075765796 -0.031133313
0000f0 e5 f9 8a 3c 06 33 ec 3d 13 73 b0 3d 31 a8 cd bd
       0.016964862 0.115331694 0.08615699 -0.100418456
000100 b4 c5 af bc 4a 61 e9 bc 39 9c f1 bb b4 4e 5a 3c
       -0.021456577 -0.028488774 -0.0073733595 0.013324428
000110 5b f1 3f bd 8a 91 a1 3d 2c d3 49 3d 0a 53 ab 3d
       -0.046861034 0.078890875 0.049273655 0.08365448
000120 8d 0f fb 3d 2b a0 63 3d 93 de 7d bc f9 26 88 bd
       0.122588255 0.05557267 -0.01549496 -0.066480584
000130 b7 25 a8 3b 69 49 9e bd 65 b5 b3 bd 90 83 04 bd
       0.005131449 -0.077288456 -0.08774833 -0.03235203
000140 49 e1 87 bc a0 87 5f bd 2d 84 5c bd 3a 08 75 3c
       -0.016586917 -0.0545727 -0.05383699 0.014955575
000150 bb d4 9c bb d2 4b bc bc 89 d5 f9 3b 51 87 8b bd
       -0.0047861016 -0.022985373 0.0076243323 -0.06812919
000160 d8 1e be bc 70 90 7a bb 3b af 41 bd ca f9 44 bd
       -0.023208067 -0.0038233064 -0.047286253 -0.04808978
000170 e6 c6 48 bd 0e db b3 3d a9 28 ce 3d ca cd 6f 3d
       -0.04901781 0.08782016 0.10066349 0.058545865
000180 c3 ca 05 3e a1 52 0a bd a1 08 4e bb 22 0c 26 3e
       0.13065629 -0.033770207 -0.0031438249 0.16215566
000190 c3 bd 8f 3d fd df bb bc a5 db 94 3d ab 7a 23 bd
       0.07018616 -0.022933954 0.07268456 -0.039911907
0001a0 ec 45 59 3d e8 14 85 bd 9c 49 b9 3c 56 d5 66 be
       0.0530452 -0.06498128 0.022618107 -0.22542319
0001b0 ab 42 0e bd 64 d4 6a bd bc 99 a8 3d b6 ce 6a 3b
       -0.03473155 -0.057331458 0.082324475 0.0035828776
0001c0 c5 39 aa 3d db 7f 46 3c 0c 1b 0a 3d 10 19 7a 3d
       0.083118 0.012115444 0.0337172 0.061059058
0001d0 33 b3 f7 3c 44 dc 62 3c 0b 62 29 bd f6 fc a0 3b
       0.030236816 0.013846461 -0.041353267 0.004912968
0001e0 9e 0c a8 3c 70 e1 c1 3c 15 57 10 3d 75 d9 d9 3b
       0.020513829 0.023667067 0.035239298 0.0066482374
0001f0 b2 f8 6a bd af 15 ae ba 10 26 6b 3b cf 05 cb bd
       -0.05736608 -0.0013281609 0.0035880841 -0.09913217

weight f4 [10, 128]
000000 8d b3 59 3d 72 cf e4 3c d0 b9 ad 3d 72 2e d0 3d
       0.05314975 0.027930949 0.084827065 0.10165109
000010 04 37 40 3c b0 28 60 bc b9 e3 48 be d7 0c 3f be
       0.011731867 -0.013681576 -0.1961812 -0.18657242
000020 f0 82 6f be a7 c6 75 be 54 aa 77 be 57 7d e7 be
       -0.23389792 -0.24001561 -0.24186069 -0.45212814
000030 12 de 43 be dc 7d c7 bd 05 2e 0d 3e 23 89 2f bd
       -0.19127682 -0.09740803 0.13787086 -0.042855393
000040 3c 1c 91 bc 0f 0e fa 3d 80 96 3f 3e 96 01 a1 3e
       -0.017713659 0.12209713 0.18709755 0.31446522
000050 18 f3 11 bb 97 87 04 bd 0c ad f2 bc 67 d9 b1 be
       -0.002227014 -0.03235587 -0.02962353 -0.34736177
000060 c6 56 16 3e c8 0e 87 be aa 84 4d bd 06 83 71 be
       0.14681539 -0.26378465 -0.050175346 -0.23585138
000070 0a fa 26 3d b8 43 f1 3c b1 e2 96 bd 2b e5 fc bb
       0.0407658 0.029451236 -0.07367457 -0.0077177486
000080 78 6c 38 3e f8 83 15 3d 71 68 c3 bd 91 23 bf bd
       0.18010128 0.03650281 -0.09541405 -0.09332956
000090 64 9d 91 bc 09 d2 82 3b 9e 1e 57 be 3a d8 8c 3c
       -0.017775245 0.0039923233 -0.21007773 0.017192949
0000a0 2d 9e 93 3d e6 79 fd 3d 02 90 88 3d fa d8 88 3d
       0.07207904 0.12376766 0.06668092 0.0668201
0000b0 ad 40 6a 3e b7 80 8b be f8 bc a9 bd ab 19 25 bd
       0.22876234 -0.2724664 -0.08287996 -0.040307682
0000c0 0c 3d 42 be b9 aa f6 3d e6 d9 e7 bb d4 5b 8e 3d
       -0.189686 0.120442815 -0.007075536 0.069511086
0000d0 92 0e 86 bd be 57 91 3d 12 02 0c be fd dd bd bb
       -0.06545748 0.070968136 -0.13672665 -0.0057942853
0000e0 a5 fa 76 be f9 55 c7 be cd 3b 0c bb da e3 ba bd
       -0.24119051 -0.3893278 -0.0021397949 -0.091254905
0000f0 94 b7 af bb d0 59 33 3e 18 0d 12 3e f7 35 dd be
       -0.0053624604 0.1751473 0.14262807 -0.43205234
000100 9a a9 ed bb 4e f0 b3 bd a0 93 03 bf 78 33 70 bc
       -0.007252884 -0.08786069 -0.5139713 -0.014660709
000110 a6 6b 31 bd f5 23 81 be cf b7 1d 3e a4 77 c4 bd
       -0.043315552 -0.25222746 0.15402149 -0.09593132
000120 cc 31 df 3d 2f 19 e4 bb 20 dd c1 bd aa 67 53 be
       0.1089817 -0.00696101 -0.09466004 -0.20645013
000130 d3 70 88 bc a2 71 89 3d 83 d2 b7 be 86 9a 2d 3d
       -0.016655361 0.06711127 -0.35902795 0.042383693
000140 ca ad 51 3e 6c 56 90 3c 81 58 55 be 4e 60 3d bd
       0.20476452 0.017619334 -0.20834543 -0.04623442
000150 be c3 e7 bd e1 e9 72 bd b9 37 24 bd f4 46 8e be
       -0.11316632 -0.059305076 -0.040092204 -0.27788508
000160 00 17 9f 3d 4d 5d 54 3d af 9d 3d bd d9 89 44 ba
       0.07768059 0.05184679 -0.046292957 -0.00074973475
000170 b9 f9 02 3e ab 47 b6 bd 76 8b 61 be 2c 3c 75 3d
       0.12790574 -0.08900388 -0.22025856 0.059871837
000180 39 97 af 3d d1 84 70 3e 06 67 52 3e d9 48 44 be
       0.08573765 0.23488165 0.20547113 -0.19168414
000190 83 a8 22 3d 91 c6 89 3d e5 f1 96 be ae 03 ae bb
       0.039711487 0.06727327 -0.29481426 -0.0053104972
0001a0 24 53 e3 3d ae ad 7d 3e 41 5c cd be 0e 74 e2 bd
       0.11099842 0.24773285 -0.40109447 -0.11057292
0001b0 24 86 92 bd c3 dc 00 3e 4b 7d bb 3d 2f 0b f3 bc
       -0.071544915 0.12584214 0.09154757 -0.029668419
0001c0 04 80 5f 3d c7 6d 90 3e ba 12 5e 3c bf a7 10 bd
       0.054565445 0.28208753 0.013554269 -0.035316225
0001d0 79 b9 2d 3d 75 a7 37 3e 30 d8 2f bc d6 1f 57 3d
       0.04241321 0.17934974 -0.010732695 0.052520595
0001e0 b4 0a c1 3d 0b 29 ae be aa ed 4c 3e bb 67 94 3d
       0.094258696 -0.34015688 0.20012537 0.072463475
0001f0 f9 1c d1 bd bf c4 28 bd 6b 77 46 3d 58 8a 2a 3e
       -0.10210604 -0.041203257 0.04845373 0.16654336
000200 67 9c 1a 3e 6c e3 8b 3d 9d 16 b3 bd 79 bc ed 3a
       0.15098725 0.06830487 -0.087445475 0.0018137834
000210 91 cd 00 be 51 94 42 3e 66 4f ed 3d 9e 7c ce bb
       -0.12578417 0.1900189 0.1158741 -0.0063014766
000220 63 be 55 3e 61 21 67 3e f4 64 52 be 65 2d 54 3d
       0.20873408 0.22571327 -0.20546323 0.051801104
000230 f4 3e 63 3d 9d a5 47 bd 89 ed 40 bd 1b 3e 31 be
       0.05547996 -0.048741926 -0.04710153 -0.17308848
000240 8b 8d 88 3d 21 38 43 be 42 8e 59 bc 55 98 64 3e
       0.06667622 -0.1906438 -0.013278546 0.22323735
000250 fb 88 94 3d e3 a1 61 bd bf dd e0 bc 3c 02 ce 3c
       0.072526895 -0.055086028 -0.027449487 0.02514755
000260 da 86 b0 be bb 1d e7 3d cb 0f 1c 3d 70 43 1f 3e
       -0.34477884 0.112849675 0.038101 0.15553069
000270 e8 3f 29 bc a2 9d 87 be 4d f7 8d 3d dd 44 85 3d
       -0.010330178 -0.26487452 0.069319345 0.06507275
000280 c7 c2 20 3e 59 cc 40 3e b0 ee c6 be 96 57 f6 bc
       0.15699302 0.18827952 -0.3885398 -0.030071061
000290 5c 29 6e bb 65 06 bc bc 61 d6 6f be 54 7e 02 3e
       -0.003634057 -0.022952268 -0.23421623 0.12743503
0002a0 69 18 28 3e 35 1d 1a bd fc 16 bc 3d fb 06 44 3d
       0.16415562 -0.03762551 0.091840714 0.04785822
0002b0 0f b4 13 3e 1d 01 93 bd 74 4a 1a 3e a3 82 4d bc
       0.14424156 -0.07177947 0.15067464 -0.012543353
0002c0 74 c8 81 be 5f d4 83 be 10 63 39 3e e0 bf 96 be
       -0.25348246 -0.25747964 0.18104196 -0.29443264
0002d0 7c 35 81 3e 81 f2 85 3c 83 e3 97 bd d7 fc b4 bd
       0.25236118 0.016350986 -0.07416441 -0.08837288
0002e0 92 90 9e bb da 55 81 3d 3a ae 72 3d 51 31 f2 3c
       -0.0048390115 0.06315203 0.059248187 0.029564532
0002f0 eb 67 93 bd 5d 6a 57 bc a5 25 be be 5d cb d3 3e
       -0.07197555 -0.013147918 -0.37138095 0.4136609
000300 74 de 16 bd 30 e3 45 3e 38 c9 32 3e e9 f4 ab 3c
       -0.03683324 0.19324946 0.17459571 0.020990806
000310 40 87 ca 3c 4c d1 bb 3d 3a 39 d0 3d 48 3c 88 bd
       0.024722695 0.091707796 0.10167165 -0.06652123
000320 a6 f4 3c be 16 83 b5 3d bd 36 9f bd c5 1d 01 3e
       -0.18452701 0.08862893 -0.077741124 0.12609012
000330 67 a3 82 3c b4 25 81 bd 5a 4e 32 be bc 58 76 be
       0.015947057 -0.063060194 -0.17412701 -0.24057287
000340 3a 7d c2 be d9 4b a5 bc a4 94 2e 3e fd 52 84 bd
       -0.37986165 -0.020177769 0.1704889 -0.06461141
000350 0b cd 2d be 83 45 19 bd ae f3 3d bd 20 de cf 3d
       -0.16972749 -0.037419807 -0.04637497 0.10149789
000360 58 c5 bf be e4 66 e0 3c f8 ff 95 bd b4 4f 98 bd
       -0.3745525 0.027392812 -0.07324213 -0.07437077
000370 01 83 b6 be f7 98 98 bd 35 ca d4 bc 3a 91 71 3d
       -0.35646823 -0.07451051 -0.025975326 0.05897639
000380 45 26 8c ba 61 81 bc be bc a7 a0 be d1 70 91 3b
       -0.0010692558 -0.36817458 -0.3137797 0.0044384976
000390 3a a0 8e be bd 40 c9 3c f4 c1 a6 3d eb 70 ee 3d
       -0.27856618 0.024567002 0.081424624 0.11642631
0003a0 7e 53 db 3c 55 b6 aa 3d 21 da 36 3e 24 f5 26 3e
       0.02677321 0.08335558 0.17856647 0.16304451
0003b0 bc 27 89 bd 38 c2 df bd 78 3b a7 be 7f 55 a1 bd
       -0.06697032 -0.10925716 -0.3266256 -0.07877635
0003c0 35 65 77 3d 56 ea ff 3d 36 ff ee 3c 54 de bc ba
       0.060399253 0.12495868 0.029174428 -0.0014409521
0003d0 a8 aa 41 bd 18 0c 05 3e 49 6c aa bd 22 d1 59 bd
       -0.04728189 0.12992895 -0.08321435 -0.05317796
0003e0 db 7d 00 3e 3f 03 46 3d 85 8e aa 3d 69 cb e3 3b
       0.1254801 0.04834294 0.08327965 0.0069517386
0003f0 8a a9 84 3b fc 63 3c bd 52 e0 9c bd 71 44 1c be
       0.004048531 -0.04599379 -0.07659973 -0.15260483

bias f4 [10]
000000 57 f7 a0 bc 23 e6 02 be 62 31 7d 3c 31 e2 91 bc
       -0.01964919 -0.12783103 0.015453668 -0.017808052
000010 1e 33 c6 bd d7 03 8f 3c a0 c4 a6 bd f5 a8 c7 bc
       -0.096777186 0.017457886 -0.08142972 -0.024372557
000020 49 dd 7d 3e 54 84 80 bd
       0.24791445 -0.062752396
